simple_mlp_zprime_new_cos_anl/version_1/checkpoints/epoch=49-step=11750.ckpt (torch, 69784 bytes, 18 tensors)

layer1.weight f4 [64, 10]
0	0xbebfd422	-0.37466532
1	0xbd53cf16	-0.051711164
2	0xbcb244f1	-0.02176139
3	0x3e79582d	0.24350043
4	0x3e631edb	0.22179739
5	0xbefc9712	-0.49334008
6	0xbcb27188	-0.021782652
7	0xbec26d4b	-0.3797401
8	0xbebcd76e	-0.3688311
9	0x3dc16796	0.094435856
10	0xbee1237c	-0.43972385
11	0xbe176498	-0.14784467
12	0x3ccf97fc	0.025341026
13	0xbddb8f81	-0.107207306
14	0x3d912920	0.07087922
15	0xbe89f417	-0.26944038
16	0x3ce46a55	0.027882734
17	0x3ed4d974	0.41572154
18	0xbd306398	-0.04306373
19	0x3e1e0f74	0.15435582
20	0x3f0fa4b6	0.56110704
21	0x3df92270	0.121647716
22	0xbe711c69	-0.23545994
23	0xbdfb1582	-0.12259962
24	0xbebdb270	-0.370502
25	0xbe620fcc	-0.22076339
26	0x3e9b8255	0.30372873
27	0x3c664857	0.014055333
28	0xbd384e8c	-0.044996783
29	0x3e07f1a8	0.13275778
30	0x3f476e82	0.77902997
31	0x3b11b183	0.002223105
32	0x3f1d5e6c	0.614722
33	0x3f4b44e1	0.79401976
34	0xbf05ed2d	-0.52315027
35	0xbe02935f	-0.1275153
36	0x3e5f6e11	0.21819331
37	0xbde6c77f	-0.112685196
38	0xbe3041d7	-0.17212616
39	0xbdfff2fa	-0.12497516
40	0xbf4a13fc	-0.78936744
41	0x3d88e448	0.06684166
42	0xbe79d5e9	-0.24398006
43	0xbe147314	-0.14497024
44	0x3e05cd2b	0.13066547
45	0x3d5bb744	0.053641573
46	0xbe3e9556	-0.18611655
47	0x3e4940e9	0.19653668
48	0xbe968e20	-0.29405308
49	0x3dacb903	0.08433726
50	0xbee71f48	-0.45141053
51	0xbd035510	-0.032063544
52	0x3d1bb718	0.03801641
53	0x3d295553	0.041341137
54	0x3f0402f7	0.51567024
55	0x3bf8f26f	0.0075972597
56	0x3c04ac1b	0.008097674
57	0x3e036dc0	0.12834835
58	0x3dccc52d	0.09998546
59	0x3bd073ad	0.006361446
60	0xbf705976	-0.93886507
61	0xba87cf97	-0.0010361549
62	0xbc0ba496	-0.008523127
63	0xbba7c6cb	-0.0051201335
64	0xbcc42b57	-0.023946447
65	0xba542883	-0.0008093195
66	0xbbc7aeff	-0.006093859
67	0xbbd9cbad	-0.0066465945
68	0xbe9c7a01	-0.30561832
69	0x3c81ce14	0.015845336
70	0xbf075c8c	-0.5287559
71	0xbeb57215	-0.354386
72	0x3dd5756f	0.10422789
73	0x3bc99300	0.006151557
74	0x3e548111	0.2075236
75	0xbe6b39a2	-0.22971204
76	0x3daa8062	0.08325268
77	0xbe462895	-0.19351418
78	0xbdf0fa55	-0.11766497
79	0x3ddb0d82	0.10695936
80	0x3f472ee8	0.7780595
81	0xbaddc396	-0.0016919251
82	0xbef7244f	-0.4826989
83	0x3d63dada	0.055628635
84	0x3e9d7a5b	0.30757412
85	0xba887fa8	-0.0010414021
86	0x3f027d2c	0.5097225
87	0x3dbf7ad7	0.09349602
88	0xbd37fac3	-0.04491688
89	0x3c1ccafc	0.00956988
90	0xbed61b28	-0.41817594
91	0xbdebe22c	-0.11517748
92	0x3eb071df	0.34461877
93	0xbeea3c8c	-0.4574932
94	0x3dd4d776	0.103926584
95	0xbe39c61d	-0.1814198
96	0x3e54bba6	0.20774707
97	0x3f1b39ed	0.6063526
98	0xbf13a329	-0.5767084
99	0x3c1fa312	0.009743469
100	0x3d1705f8	0.036870927
101	0xbdbc0872	-0.09181298
102	0xbe2e6aba	-0.170329
103	0xbeb35103	-0.35022745
104	0xbf20155d	-0.625326
105	0x3bf42af0	0.0074514076
106	0x3e0b8d79	0.13628186
107	0xbec88b4c	-0.39168775
108	0xbddae55f	-0.1068828
109	0xbd1b032e	-0.03784483
110	0xbdb25e13	-0.087093495
111	0x3e865bea	0.26242
112	0x3f0bb2b7	0.5456957
113	0x3e309785	0.172453
114	0xbe1d6382	-0.1536999
115	0x3ebec4f2	0.37259632
116	0x3eb37d95	0.3505675
117	0xbd6894dc	-0.05678259
118	0xbe1ca16b	-0.15295951
119	0xbe0ae44c	-0.13563651
120	0xbab1a48c	-0.0013553067
121	0x3da90ffc	0.08255002
122	0xbcaffc56	-0.021482628
123	0x3e855a45	0.26045433
124	0x3ef09be8	0.46993947
125	0x3f08f023	0.5349142
126	0xbe11b629	-0.14229645
127	0xbf06e782	-0.52697
128	0xbdde4b31	-0.108541854
129	0x3d11911c	0.035538778
130	0x3f409eb6	0.75242174
131	0x3ddc6e48	0.10763222
132	0x3d9046d2	0.07044758
133	0xbda0fb5b	-0.07860442
134	0x3ea57aee	0.3232035
135	0x3e19aa9f	0.15006493
136	0x3e507306	0.20356378
137	0x3d64bb94	0.05584295
138	0x3eb3994f	0.35077903
139	0x3d949d55	0.07256571
140	0x3e466647	0.19374953
141	0xbdd2d0f4	-0.10293761
142	0xbe2da0e4	-0.16955906
143	0x3f90f8f7	1.1325978
144	0x3e02f33c	0.12788099
145	0x3d695b70	0.056971967
146	0xbebd8bc0	-0.37020683
147	0xbf137041	-0.5759316
148	0xbd6c00b4	-0.057617858
149	0x3e014731	0.12624814
150	0xbe5219bb	-0.20517628
151	0xbe8e804a	-0.27832252
152	0x3c0175e8	0.007901646
153	0x3f19f51a	0.6013962
154	0x3dbce7ce	0.09223901
155	0xbe04efb4	-0.12982064
156	0xbdaa40cc	-0.0831314
157	0xbda8c73c	-0.08241126
158	0x3df3cbf8	0.11904138
159	0xbe0800b6	-0.13281521
160	0x3f44b94b	0.76845235
161	0xbcd2c4bb	-0.025728574
162	0x3eb6fcef	0.35739848
163	0xbe900e07	-0.28135702
164	0x3e87486e	0.26422447
165	0xbc2d0519	-0.010560297
166	0xbe9fad87	-0.31187078
167	0xbe170cff	-0.14751051
168	0x3cf0a7a3	0.02937681
169	0xbcc7bef6	-0.02438305
170	0xbf04008f	-0.5156335
171	0x3ea321cc	0.31861722
172	0xbcc9ba73	-0.024625039
173	0x3dd7626d	0.1051682
174	0xbe448823	-0.19192557
175	0x3e5fdd21	0.21861698
176	0x3b482469	0.003053928
177	0xbde17166	-0.11007957
178	0xbe530d69	-0.20610584
179	0xbe14c5cb	-0.14528577
180	0x3db4c550	0.08826697
181	0x3d46de4a	0.048551835
182	0xbe3869c0	-0.1800909
183	0xbe9c085e	-0.30475134
184	0xbe7e4130	-0.24829555
185	0x3d9c40b7	0.07629531
186	0xbde18361	-0.11011387
187	0x3d7ce778	0.061744183
188	0x3e8c5fc3	0.2741681
189	0x3bb5d56a	0.0055491226
190	0x3e8d9c18	0.27658153
191	0x3ea481b5	0.3213021
192	0x3e7c7bcc	0.246566
193	0x3e3229ab	0.17398708
194	0xbd6ba972	-0.057534643
195	0xbe975ed9	-0.2956455
196	0xbe1130eb	-0.14178817
197	0xbefd69ab	-0.4949468
198	0xbda3fb68	-0.08006936
199	0x3e3dbb0f	0.18528388
200	0x3eac424c	0.3364433
201	0xbc829ce6	-0.015943956
202	0x3ca7a058	0.0204622
203	0xbe00c91a	-0.12576714
204	0xbbfe11a5	-0.0077535682
205	0x3d40a725	0.0470344
206	0x3e63b48c	0.22236842
207	0xbe8a7f90	-0.27050447
208	0x3e1d0f62	0.153379
209	0x3ed739e2	0.4203635
210	0xbe02d589	-0.1277677
211	0xbe0f0c9b	-0.13969652
212	0x3daaa78d	0.08332739
213	0xbe811521	-0.25211433
214	0x3e163279	0.14667691
215	0xbe6a4075	-0.22876151
216	0xbdb867fe	-0.0900421
217	0x3ec53cad	0.38522854
218	0x3dd84dbd	0.105617024
219	0xbd8c40ae	-0.06848274
220	0xbf16cec9	-0.5890928
221	0x3dc3684e	0.09541379
222	0xbdd64ef3	-0.10464277
223	0x3e362dd7	0.17790924
224	0xbe3b6d5e	-0.18303439
225	0x3e3584df	0.17726468
226	0x3d891051	0.06692565
227	0x3e5b3f93	0.2141097
228	0x3e37514e	0.17902109
229	0xbbf59e51	-0.0074956794
230	0x3e2eaeff	0.17058943
231	0x3c299793	0.0103510795
232	0xbe786e2d	-0.24260779
233	0x3e89423d	0.26808348
234	0xbe958594	-0.29203475
235	0xbd11c3b0	-0.035587013
236	0xbe2e91c0	-0.17047787
237	0x3c735f08	0.0148542
238	0x3b8e6dbd	0.004346578
239	0xbc1d4e59	-0.009601199
240	0x3f125ce4	0.5717299
241	0xbe07f60f	-0.13277458
242	0x3ebe1c7d	0.3713111
243	0x3d0be818	0.03415689
244	0xbcb7cd8a	-0.022436876
245	0xbdabd590	-0.08390343
246	0xbee8e5bc	-0.45487773
247	0x3e5be19c	0.21472782
248	0x3e0909e4	0.13382679
249	0x3e19d6ee	0.15023395
250	0x3f00d208	0.5032048
251	0x3e2a5731	0.16634823
252	0x3adfae22	0.0017065445
253	0xbd899025	-0.067169465
254	0xbd13b74d	-0.03606348
255	0xbe82d9dc	-0.2555684

layer1.bias f4 [64]
0	0xbde9552b	-0.113931976
1	0x3eda55c7	0.42643568
2	0x3e870e73	0.2637821
3	0xbe3d505b	-0.18487684
4	0x3e893e64	0.26805413
5	0x3e0aa787	0.13540469
6	0xbeb13340	-0.34609413
7	0x3e5508b9	0.20804109
8	0x3f03c53c	0.5147283
9	0xbe9a6653	-0.30156192
10	0xbee916ac	-0.4552511
11	0xbe8b08bc	-0.271551
12	0xbe2bd16a	-0.16779104
13	0x3df74736	0.12074129
14	0x3d84a767	0.06477242
15	0x3ecf2f38	0.40465713
16	0x3e57845c	0.21046585
17	0x3e3f02f1	0.18653466
18	0xbe92106d	-0.28528157
19	0xbeb37fcd	-0.35058442
20	0xbdca407b	-0.0987558
21	0xbdd52c36	-0.10408823
22	0xbeab7ec7	-0.3349516
23	0x3e3c1c50	0.18370175
24	0x3d2da64a	0.042394914
25	0x3d0e95a0	0.034810662
26	0xbdeeb0a0	-0.11654782
27	0x3e80de66	0.25169677
28	0x3e4fdf26	0.20299968
29	0xbd52fdb9	-0.0515115
30	0xbb2f971b	-0.0026792947
31	0xbdcedbe3	-0.10100534
32	0xbeaa80a1	-0.3330126
33	0x3d060214	0.032716826
34	0xbdc19321	-0.09451891
35	0x3e3ba7b7	0.18325697
36	0x3b233184	0.002490134
37	0x3e4cb097	0.19989239
38	0xbed4ee8a	-0.4158824
39	0x3eac07e1	0.3359976
40	0xbe25e361	-0.1620002
41	0xbec8dfe6	-0.3923332
42	0x3ebcc2d1	0.36867383
43	0x3f198701	0.59971625
44	0x3e46ab8a	0.19401374
45	0x3de22f98	0.11044234
46	0x3dcd9514	0.100382
47	0xbda6acd0	-0.0813843
48	0xbf1dd2af	-0.616496
49	0xbcf86318	-0.03032069
50	0x3daf7f3e	0.085691914
51	0xbd11ac04	-0.035564438
52	0xbe2c05ae	-0.16799042
53	0xbe64b9ce	-0.22336504
54	0xbe8d1fe4	-0.27563393
55	0xbf00fb62	-0.5038358
56	0x3e8868cf	0.26642463
57	0x3e9de854	0.30841315
58	0xbe898077	-0.26855823
59	0x3e11d4f8	0.14241397
60	0xbe12540d	-0.14289875
61	0x3e31ebca	0.17375103
62	0x3e2b4664	0.1672607
63	0x3f15d29a	0.5852448

layer2.weight f4 [64, 64]
0	0xbe7929f8	-0.24332416
1	0x3deb6337	0.11493533
2	0xbde95c28	-0.113945305
3	0x3ba3d7f7	0.0050001102
4	0x3d6a81d9	0.05725274
5	0x3e1ed965	0.15512617
6	0x3ef75964	0.48310387
7	0xbca7b947	-0.02047409
8	0xbf8700d9	-1.0547134
9	0x3e83c7cc	0.2573837
10	0xbdceb940	-0.100939274
11	0x3e7eb10c	0.24872226
12	0x3f4466d8	0.7671943
13	0x3ebab0e9	0.36463097
14	0xbe9279eb	-0.2860864
15	0x3c6540e8	0.013992526
16	0x3e8b6da4	0.27232087
17	0x3dc7c969	0.09755213
18	0x3e0fe824	0.14053398
19	0xbd9448a5	-0.07240418
20	0x3ccc4c57	0.024938745
21	0x3dd83711	0.10557378
22	0x3d7326e1	0.05936325
23	0x3e2b475b	0.16726439
24	0xbd594c49	-0.053051267
25	0x3de3b90f	0.111192815
26	0x3d6d989b	0.058006864
27	0x3e3a047a	0.1816577
28	0xbe6ce3c4	-0.2313376
29	0x3c3c6e6f	0.011500939
30	0xbe27534b	-0.16340367
31	0xbda33842	-0.07969715
32	0xbdefabd6	-0.11702697
33	0x3ee94eb4	0.45567858
34	0x3e5fc1cc	0.21851271
35	0xbcc592ed	-0.024117911
36	0xbeaec3c8	-0.34133744
37	0xbe416630	-0.18886638
38	0x3d999816	0.07499711
39	0x3e1c3f78	0.15258586
40	0xbd7faece	-0.062422566
41	0xbe0febcb	-0.14054792
42	0x3df8a1db	0.121402465
43	0x3d78e138	0.06076166
44	0xbf93ec26	-1.1556442
45	0xbeaa3666	-0.33244628
46	0xbe46f4e1	-0.19429351
47	0x3dd0fea2	0.10204817
48	0xbe03ff70	-0.1289041
49	0x3d9be129	0.07611305
50	0xbe4bf667	-0.19918214
51	0x3e434ee2	0.1907306
52	0x3dada0ca	0.08477934
53	0xbe0b9b18	-0.13633382
54	0xbe2ccc1a	-0.16874734
55	0xbdb7ee36	-0.08980982
56	0xbe816a57	-0.25276443
57	0xbf81ae98	-1.0131407
58	0x3d8e2ff9	0.06942744
59	0xbd5a8aaa	-0.053354897
60	0xbdb8c2d8	-0.090215385
61	0xbc7c29d4	-0.015390832
62	0x3e4340d7	0.19067703
63	0x3d35885d	0.0443195
64	0xbe80bedf	-0.25145623
65	0x3d458ae5	0.048228163
66	0xbe000a44	-0.12503916
67	0xbf1d094c	-0.6134231
68	0x3e55e870	0.20889449
69	0xbe2a2acf	-0.16617893
70	0xbde6844d	-0.11255703
71	0xbd77674e	-0.060401253
72	0x3e5f2428	0.21791136
73	0x3ed49c6f	0.415256
74	0x3e941d68	0.28928685
75	0xbef2b66d	-0.47404805
76	0xbd5c6c99	-0.053814504
77	0xbeb405f9	-0.35160807
78	0xbf21be70	-0.6318121
79	0xbe05840e	-0.13038656
80	0xbdabcdce	-0.083888635
81	0xbdbc7c27	-0.09203368
82	0x3ebc5ed7	0.36791107
83	0x3d293068	0.04130593
84	0x3cd812ef	0.026376216
85	0x3da5e5b2	0.081004515
86	0x3d0c427e	0.0342431
87	0x3e09913b	0.13434307
88	0xbcf77c2c	-0.030210577
89	0xbe0782f9	-0.13233556
90	0x3ddc53f9	0.10758204
91	0x3d4423d7	0.047885742
92	0x3d6ead79	0.058270905
93	0x3dee3267	0.11630707
94	0xbda96ff0	-0.082733035
95	0xbe2e67ff	-0.17031859
96	0x3e77618a	0.24158302
97	0xbde6b630	-0.11265218
98	0xbe127d01	-0.14305498
99	0x3d323338	0.043505877
100	0x3e7c7ba8	0.24656546
101	0x3e0111d2	0.12604454
102	0x3d92c93d	0.071672894
103	0x3ac30aed	0.0014880575
104	0x3e444815	0.19168122
105	0x3c5adce0	0.013358325
106	0x3cb34cac	0.021887146
107	0xbd902c46	-0.070396945
108	0x3f09e661	0.53867155
109	0xbde851e8	-0.113437474
110	0x3eb6eeb1	0.35728982
111	0x3c84967b	0.016185036
112	0x3e531bd0	0.20616078
113	0xbe4592f9	-0.19294347
114	0x3c81af21	0.015830578
115	0xbeb0776e	-0.34466118
116	0x3ea14e66	0.31505126
117	0x3c58970b	0.013219605
118	0xbc0fffc7	-0.008789009
119	0x3e6856ad	0.22689314
120	0x3de5494b	0.1119562
121	0x3f24ae84	0.6432879
122	0xbd9b69ef	-0.075885646
123	0xbc93f1db	-0.018059662
124	0xbddb7c54	-0.10717073
125	0xbd4ab4ef	-0.049488958
126	0x3e80e62b	0.25175604
127	0x3cee53df	0.029092727
128	0xbe8ff858	-0.2811916
129	0xbdeaaa0b	-0.11458214
130	0x3dcda09e	0.10040401
131	0xbe7108ee	-0.23538563
132	0x3bf5b50d	0.0074983896
133	0xbe1d2d5a	-0.15349331
134	0xbed4bf90	-0.415524
135	0x3d8b6952	0.06807198
136	0x3e57a051	0.2105725
137	0x3ebb8f18	0.3663261
138	0x3d4898e9	0.04897395
139	0xbdc3d539	-0.09562153
140	0xbe5a28ab	-0.21304576
141	0xbe4f49c3	-0.20242982
142	0xbd8d762d	-0.06907306
143	0xbdd1e158	-0.10248059
144	0xbe439129	-0.19098343
145	0xbe6f849c	-0.2339043
146	0xba933121	-0.0011229852
147	0x3e3a4198	0.18189085
148	0xbe02e9ea	-0.12784544
149	0xbdaa3d93	-0.083125256
150	0x3df20417	0.11817186
151	0x3d982273	0.07428446
152	0xbd9c18b3	-0.076218985
153	0xbdba3d32	-0.09093703
154	0xbd090fcb	-0.033462327
155	0xbe006184	-0.125372
156	0xbd83007c	-0.06396577
157	0x3d9b5a79	0.07585616
158	0x3d8b58bd	0.06804035
159	0xbe182389	-0.14857306
160	0xbe24176f	-0.16024564
161	0xbe16f3ac	-0.14741391
162	0xbe277998	-0.16354978
163	0x3d873878	0.066025674
164	0x3dbd436e	0.09241377
165	0xbd728e7a	-0.059217907
166	0x3d302e57	0.043012943
167	0xbe1e9f78	-0.1549052
168	0x3df3e4da	0.11908884
169	0xbcb72e0a	-0.02236082
170	0xbe596231	-0.21228863
171	0xbe5d3249	-0.21601214
172	0x3e7a81dd	0.24463601
173	0x3d797848	0.060905725
174	0x3def9ed5	0.11700217
175	0x3db1a545	0.08674101
176	0x3da43cf7	0.080194406
177	0x3dfea2ac	0.12433371
178	0x3ba97864	0.0051718224
179	0xbe37281a	-0.17886391
180	0x3df5b3e2	0.119972005
181	0x3c8ac2f0	0.016938657
182	0xbd95346a	-0.07285388
183	0x3d2c6fba	0.04209874
184	0xbdda2818	-0.106521785
185	0x3e89b9f8	0.26899695
186	0x3caebb90	0.021329671
187	0xbdada652	-0.08478989
188	0xbeb21856	-0.34784192
189	0x3dde123b	0.10843321
190	0x3ca3ff3a	0.020019162
191	0xbd6030de	-0.054734103
192	0xbea950a3	-0.33069333
193	0xbe2b9472	-0.16755846
194	0xbcd3ebc7	-0.025869263
195	0xbe04a549	-0.12953676
196	0x3c822d6b	0.015890798
197	0xbdc84361	-0.097784765
198	0xbefb324c	-0.4906181
199	0xbdc355ac	-0.09537825
200	0x3ee359fb	0.44404587
201	0x3ea55a9d	0.32295695
202	0x3dab38e3	0.0836046
203	0xbdd829a5	-0.10554818
204	0xbd56b525	-0.052418847
205	0xbd3eb98d	-0.046563674
206	0x3e5a4d13	0.21318464
207	0xbd7554cb	-0.059895318
208	0xbe1b57d2	-0.1517022
209	0x3db10f85	0.08645538
210	0x3df98ef7	0.121854715
211	0x3e6e15b0	0.2325046
212	0xbccb10ad	-0.024788225
213	0x3d410dd4	0.04713233
214	0x3e0546f8	0.13015354
215	0x3b3e419c	0.0029030805
216	0xbe9cdec2	-0.306387
217	0xbd75b9ba	-0.059991576
218	0xbd72a783	-0.059241783
219	0x3d3d86a6	0.04627099
220	0xbd3ff7f3	-0.046867322
221	0x3dd72212	0.10504545
222	0x3e0d0336	0.13770756
223	0xbe861c30	-0.2619338
224	0xbe181d4f	-0.1485493
225	0x3d9ba596	0.075999424
226	0xbe1fa02d	-0.15588446
227	0x3c94f12a	0.018181402
228	0x3e07efae	0.13275024
229	0x3e1445eb	0.14479797
230	0xbdb46bbc	-0.08809611
231	0xbe3a1765	-0.18172987
232	0x3cdbc74b	0.026828429
233	0xbcd27caa	-0.02569421
234	0xbdce72e7	-0.1008051
235	0x3bb8b45e	0.005636736
236	0x3e8b212d	0.2717375
237	0x3e46c4e1	0.19411041
238	0x3e8e767e	0.27824777
239	0x3dd61cb2	0.10454692
240	0x3e74b97d	0.23898883
241	0x3e15e85d	0.14639421
242	0xbe10a8ad	-0.14126845
243	0xbe304dee	-0.17217228
244	0x3dfb97f3	0.122848414
245	0xbdab0c3d	-0.08351944
246	0x3d8024d1	0.06257022
247	0xbe47c437	-0.19508444
248	0xbdc747c2	-0.097304836
249	0x3ec38636	0.38188332
250	0x3e353eb2	0.17699698
251	0x3d6e6fee	0.058212213
252	0xbe7e10e7	-0.24811135
253	0x3e01711c	0.12640804
254	0x3d47dcfc	0.04879473
255	0xbe3bcab8	-0.1833905

layer2.bias f4 [64]
0	0x3e59327d	0.21210666
1	0x3d8a9091	0.06765855
2	0xbc68a438	-0.014199309
3	0x3c88b7e4	0.016689248
4	0xbd2f6ecd	-0.042830277
5	0x3dfc0f6c	0.12307629
6	0xbd480ad3	-0.048838448
7	0x3e7ae1a0	0.24500132
8	0x3e0210a5	0.12701662
9	0x3df88fd3	0.12136807
10	0xbe8c7113	-0.2743002
11	0x3c66945e	0.014073459
12	0xbbf437fb	-0.0074529625
13	0x3d657fc3	0.056030046
14	0x3d482946	0.048867486
15	0xbd95790c	-0.072984785
16	0x3e0c4110	0.13696694
17	0x3e13d650	0.14437222
18	0x3d9485d3	0.072520874
19	0xbdfc5409	-0.12320716
20	0x3e693c93	0.22777013
21	0x3e0a21b4	0.13489419
22	0xbbaa2f69	-0.00519364
23	0xbd6e8478	-0.0582318
24	0x3e840a7d	0.25789252
25	0x3cc9f136	0.024651151
26	0xbdebf6f1	-0.1152171
27	0x3ddbc012	0.10729994
28	0x3d5b0502	0.053471573
29	0x3e62f21d	0.22162671
30	0x3e068df1	0.13140084
31	0x3d34b682	0.044119366
32	0xbc98d2fb	-0.01865529
33	0xbe432912	-0.19058636
34	0xbe8d6843	-0.27618608
35	0xbc1cd95c	-0.009573307
36	0x3cbc5532	0.022989843
37	0xbdf11deb	-0.117732845
38	0x3e63b5b6	0.22237286
39	0x3e348a77	0.17630945
40	0xbdfca1b8	-0.12335533
41	0x3e45042b	0.19239871
42	0x3e0305c0	0.12795162
43	0xbe17c4d5	-0.14821179
44	0x3c877481	0.016535046
45	0xbdf69f98	-0.12042159
46	0x3e6efc0d	0.23338337
47	0xbd73d515	-0.059529383
48	0x3e06acdc	0.13151878
49	0x3d17523c	0.03694366
50	0x3dd01aa1	0.10161329
51	0xbe212723	-0.15737586
52	0xbbaa7d43	-0.0052029206
53	0xbd1331c2	-0.035936125
54	0x3eb9d7b9	0.36297396
55	0x3e2a41e1	0.16626693
56	0xbdc63215	-0.09677521
57	0x3f02dfec	0.5112293
58	0xbd98d832	-0.07463111
59	0x3e889a8f	0.2668042
60	0x3c966d4f	0.01836267
61	0xbd49fb36	-0.04931184
62	0xbb08f682	-0.0020898883
63	0xbd468c1a	-0.048473455

layer3.weight f4 [2, 64]
0	0x3eae7fc3	0.3408185
1	0xbe8e0fbe	-0.27746385
2	0xbd09bec8	-0.03362921
3	0x3d92da14	0.07170501
4	0xbe90ee6f	-0.2830691
5	0xbe8abe23	-0.27098188
6	0x3eec697c	0.46174228
7	0x3e2f48d6	0.17117628
8	0x3f0023fd	0.50054914
9	0x3eafa157	0.3430278
10	0xbe98d526	-0.2985012
11	0xbe52d1ae	-0.20587799
12	0x3e0503e9	0.12989773
13	0xbf01e560	-0.50740623
14	0xbce0254f	-0.02736154
15	0xbdf89f6a	-0.12139781
16	0x3d227c32	0.039669223
17	0x3da87ff6	0.082275316
18	0x3cf01f64	0.029311843
19	0xbedb0dc3	-0.42783937
20	0x3e55e0c4	0.20886523
21	0x3eb9a57f	0.36259076
22	0xbe4f3eb7	-0.20238768
23	0x3f18998b	0.5960929
24	0x3ef9e2a4	0.48805726
25	0x3e930c7d	0.28720465
26	0xbdf4d623	-0.11954906
27	0x3e85fef0	0.26171064
28	0xbe534618	-0.20632207
29	0x3e8553b4	0.26040423
30	0x3e6a4c4e	0.2288067
31	0x3f225040	0.634037
32	0xbe9ca961	-0.30597976
33	0x3f0991f0	0.5373831
34	0xbf88c8e1	-1.0686303
35	0x3d901e3e	0.07037018
36	0x3ee54240	0.44777107
37	0x3f266eaa	0.6501261
38	0x3f00e16e	0.5034398
39	0x3ea5d0bb	0.3238581
40	0x3f5a56b8	0.8528857
41	0x3f2491cc	0.6428497
42	0xbd85e728	-0.0653823
43	0x3d963487	0.073342375
44	0x3ead0f36	0.33800668
45	0xbdcd7a2f	-0.1003307
46	0x3ed2f6ec	0.4120401
47	0x3f183730	0.5945921
48	0x3f5d2b7b	0.8639447
49	0x3d673aa5	0.056452412
50	0x3f1e8e0b	0.6193549
51	0xbdb50f7b	-0.08840843
52	0xbeb3c0e6	-0.35108107
53	0xbc880a39	-0.016606437
54	0xbe5ec3a2	-0.21754315
55	0x3eb21a6c	0.34785783
56	0x3d589f62	0.052886374
57	0xbf336be4	-0.70086503
58	0xbe97277a	-0.29522306
59	0x3e9d1a83	0.3068429
60	0xbe918c81	-0.28427508
61	0xbf2159b1	-0.63027483
62	0xbe3d43fd	-0.18482967
63	0xbe74a92e	-0.23892662
64	0xbed36aa1	-0.4129229
65	0x3e4ea1ab	0.20178859
66	0x3c86a7bd	0.016437406
67	0x3df0a78f	0.11750709
68	0x3e64e2b1	0.22352101
69	0x3e3fafc4	0.18719393
70	0xbe9b33ec	-0.3031305
71	0xbea0b987	-0.31391546
72	0xbebd9812	-0.37030083
73	0xbef52490	-0.47879457
74	0x3ead6d06	0.3387224
75	0x3eaa487a	0.3325842
76	0xbd85504e	-0.065094575
77	0x3e9ee5bd	0.3103465
78	0x3d85b24b	0.06528147
79	0x3e1592db	0.14606802
80	0xbd0380de	-0.03210532
81	0xbdc0b388	-0.09409243
82	0xbd93614a	-0.07196291
83	0x3e90bfa9	0.28271225
84	0xbe6d2298	-0.23157728
85	0xbe606570	-0.21913695
86	0x3e512933	0.20425873
87	0xbf039f84	-0.51415277
88	0xbf01c259	-0.50687176
89	0xbe9be82b	-0.30450568
90	0x3db66fa2	0.08908011
91	0xbed1fa6b	-0.41011366
92	0x3eb4fa29	0.35347107
93	0xbebdab08	-0.3704455
94	0xbe1da9ed	-0.15396853
95	0xbf198ace	-0.59977424
96	0x3de8aac9	0.113607
97	0xbf1c8b58	-0.6115012
98	0x3f91280d	1.1340348
99	0xbd194643	-0.037420522
100	0xbee90466	-0.45511168
101	0xbf213611	-0.62973124
102	0xbf07f623	-0.5310995
103	0xbe8a3c6c	-0.26999223
104	0xbf5196c7	-0.8187069
105	0xbf15096b	-0.58217496
106	0xbd614db2	-0.055005737
107	0x3d430ef6	0.04762169
108	0xbebabd54	-0.3647257
109	0x3df37a34	0.11888543
110	0xbec4d98e	-0.3844723
111	0xbef99a14	-0.48750365
112	0xbf49f756	-0.7889303
113	0x3db4aef4	0.08822432
114	0xbf212bef	-0.6295766
115	0x3e8ec7be	0.27886766
116	0x3ee6940c	0.45034826
117	0xbd2e43c1	-0.042545084
118	0x3ecada1d	0.39619532
119	0xbee1d5a0	-0.44108295
120	0xbddbe002	-0.107360855
121	0x3f5a9ddc	0.85397124
122	0x3ea5271f	0.3225641
123	0xbefaf1b2	-0.49012524
124	0x3e144be8	0.14482081
125	0x3f2f5c18	0.684999
126	0x3e14eab2	0.14542654
127	0x3ea0e8f2	0.31427723

layer3.bias f4 [2]
0	0x3e57a102	0.21057513
1	0xbd8ef6a0	-0.06980634

exp_avg f4 [64, 10]
0	0xba9050b3	-0.0011010378
1	0x3aba075c	0.0014192867
2	0xba99b838	-0.0011727875
3	0xba8462b8	-0.0010100221
4	0xbaa58fc1	-0.0012631343
5	0xbb360174	-0.0027771862
6	0x3a531d37	0.00080533646
7	0xbaf38a4c	-0.0018580644
8	0x3b9710bf	0.0046101506
9	0xbac6b90a	-0.0015161347
10	0xb8204abe	-3.821658e-05
11	0x3ace544a	0.0015741673
12	0x3848e3cf	4.789588e-05
13	0x398dceab	0.00027047595
14	0x389c3e28	7.450237e-05
15	0xbae16771	-0.0017196966
16	0x3a97f858	0.0011594398
17	0x3996816c	0.00028706656
18	0x3b152439	0.0022757186
19	0xba1bbbd2	-0.0005940768
20	0x38cff482	9.916072e-05
21	0xbb5cb963	-0.0033679835
22	0xb91b3121	-0.00014800254
23	0x3952ff48	0.0002012226
24	0x397de783	0.00024214205
25	0x3b264f72	0.0025376943
26	0xba37e66d	-0.0007015232
27	0x39c0e02c	0.00036788115
28	0xba9d00c5	-0.0011978379
29	0x3a7f54d2	0.0009740117
30	0x39036d37	0.00012533819
31	0xb8f68dfd	-0.000117566415
32	0xb9880fb5	-0.00025951644
33	0xb9481f8b	-0.00019085237
34	0x38f99338	0.00011900667
35	0x398725b4	0.00025777298
36	0x39887338	0.00026025786
37	0xb8b15517	-8.455867e-05
38	0xb94a74da	-0.00019307752
39	0xb9f430af	-0.0004657558
40	0x389d29a0	7.494097e-05
41	0x3a3d2dac	0.00072165835
42	0xb9a79338	-0.0003196241
43	0x389db436	7.51991e-05
44	0xb782f6e4	-1.5612175e-05
45	0xba00a198	-0.0004906892
46	0x3a893ade	0.0010469814
47	0x391790ef	0.00014454474
48	0x3a1103a9	0.00055318564
49	0xb9d690cc	-0.00040925143
50	0xb9de80ac	-0.00042439008
51	0x3ad45350	0.0016199145
52	0xb90025ca	-0.00012221109
53	0xb92dc9d1	-0.00016573748
54	0xba1b9a0e	-0.00059357367
55	0xba79466f	-0.00095090916
56	0x39de56ca	0.00042407803
57	0xba43d00b	-0.00074696605
58	0x3ae5e987	0.001754091
59	0xb98c432d	-0.0002675293
60	0x3aaee8cf	0.0013344529
61	0x3be51159	0.0069905934
62	0xbb837153	-0.004011312
63	0xbb3f513c	-0.0029192707
64	0x3b267ac8	0.0025402773
65	0xbc15ae76	-0.009135833
66	0xba33f1dc	-0.0006864348
67	0x3c0d7c90	0.008635655
68	0x3c801cb3	0.015638685
69	0xbbc01ca0	-0.0058627874
70	0x39b4217e	0.0003435723
71	0x39cd461c	0.00039152883
72	0xb8c8084a	-9.538287e-05
73	0x39f6def2	0.00047086884
74	0x396478d0	0.0002178878
75	0xba35fd95	-0.0006942389
76	0x3a2ee68b	0.0006671927
77	0x39b86836	0.00035172858
78	0x3b63d173	0.0034762293
79	0xbab3cd5d	-0.0013717819
80	0x3b10abd0	0.0022075064
81	0xbc792353	-0.015206176
82	0xba322cef	-0.0006796857
83	0x3a661802	0.0008777381
84	0x3b37c85f	0.0028043014
85	0x3c4f8656	0.0126663055
86	0xba7c8486	-0.00096327846
87	0x3a28d420	0.00064403005
88	0xbc2a7eb2	-0.010406183
89	0xb9bae6a0	-0.00035648514
90	0x3988b137	0.00026071977
91	0xb96e3397	-0.00022716667
92	0x39aef490	0.0003337008
93	0x39bbbee2	0.00035809638
94	0x395c5775	0.00021013415
95	0x3987f1e6	0.00025929435
96	0xba8cfe7e	-0.0010756997
97	0x389c3ec9	7.450354e-05
98	0xba66c0b9	-0.00088025216
99	0x3a8d4624	0.001077835
100	0x3a3d6903	0.0007225426
101	0xbb417a15	-0.002952223
102	0x395d261a	0.00021090396
103	0x3a141085	0.00056482136
104	0x3a0e7e74	0.0005435713
105	0x3afef423	0.001945142
106	0xba9bf1df	-0.0011897645
107	0xb8bd8c2c	-9.038331e-05
108	0xbb597311	-0.0033180157
109	0x3ad765fd	0.0016433593
110	0x3a629a31	0.0008644192
111	0xba9feea2	-0.0012201855
112	0xba7c715f	-0.0009629931
113	0x39d6551a	0.00040880666
114	0x3a7870e5	0.0009477272
115	0x3a0cf0af	0.0005376441
116	0x38ee1d3d	0.000113541704
117	0x3a61ab13	0.0008608561
118	0xb99109fc	-0.00027663994
119	0x3888bae5	6.519797e-05
120	0x39be69c8	0.00036318437
121	0xb8914dfd	-6.928665e-05
122	0xba031253	-0.0004999984
123	0x3a24a1bb	0.0006280203
124	0x398db44d	0.0002702795
125	0xb9ee7bfd	-0.00045487276
126	0x3a7c6ed2	0.00096295506
127	0x398973a6	0.0002621684
128	0x3857cd34	5.1451105e-05
129	0xba993aee	-0.0011690536
130	0xba8d3c82	-0.0010775479
131	0xba04c510	-0.0005064765
132	0xbaa8c886	-0.0012877143
133	0xb9fc9813	-0.0004817849
134	0xba617bd8	-0.0008601523
135	0x39b96060	0.00035357755
136	0x3a873747	0.0010316157
137	0xba32d1ea	-0.0006821441
138	0x3b75fa25	0.003753313
139	0xba0c2074	-0.0005345412
140	0x382b648b	4.0863215e-05
141	0x3a991434	0.0011678995
142	0x368ce997	4.1995186e-06
143	0x39587da7	0.00020646174
144	0x34a79648	3.1215518e-07
145	0xba41b119	-0.00073887553
146	0x399652ad	0.00028671828
147	0xb8146c7d	-3.5386987e-05
148	0xb9fcc8ba	-0.00048214738
149	0xba13d7e7	-0.0005639777
150	0xba42ad2b	-0.0007426317
151	0x3b48cc85	0.0030639481
152	0x3892f663	7.0077156e-05
153	0xb9d69ced	-0.0004093418
154	0xba3963e4	-0.0007072075
155	0xbb09a67b	-0.002100377
156	0x3a94bf52	0.0011348522
157	0xba29e688	-0.000648119
158	0x3b561dda	0.0032671602
159	0xbaae44bc	-0.0013295631
160	0xb864d6b2	-5.4559387e-05
161	0x3b1cf053	0.0023946955
162	0x3a1986ce	0.0005856574
163	0x39298f61	0.00016170509
164	0x36bfc6a7	5.7153698e-06
165	0xbaf91b95	-0.0019005412
166	0x37102732	8.592195e-06
167	0x39aa94d0	0.000325358
168	0xbaf75d8b	-0.0018872482
169	0xbb09fb58	-0.0021054354
170	0x3aa2f7ef	0.0012433509
171	0x3b515fe9	0.0031948036
172	0xbac3754d	-0.0014912278
173	0x3a5addef	0.0008349111
174	0x3aa02df1	0.0012220723
175	0xbb2b0524	-0.0026095593
176	0x3b3f9205	0.0029231322
177	0x39f1f532	0.00046149787
178	0x3ad8b7b9	0.0016534246
179	0xba3f7274	-0.00073031266
180	0x39f3b767	0.00046485217
181	0xbb0ed5f2	-0.0021795002
182	0x3975da19	0.00023446268
183	0x39cb08b3	0.0003872566
184	0x39cc02b9	0.0003891194
185	0x3afb533d	0.0019174587
186	0xba3de1b9	-0.0007243413
187	0xb93307d4	-0.00017073686
188	0xbad3a033	-0.0016145766
189	0x3a3d5b2c	0.00072233635
190	0xb7d68eba	-2.557725e-05
191	0xb9be8e15	-0.00036345483
192	0x3a884e9b	0.0010399403
193	0x378dcb65	1.6903223e-05
194	0xb79ba8ee	-1.8556104e-05
195	0x3a85cbf2	0.0010207875
196	0xb9a13755	-0.0003074954
197	0x3909cc79	0.0001314151
198	0xbafa0b21	-0.0019076803
199	0x39af3ed8	0.00033425423
200	0x399ab7ee	0.00029510207
201	0xbac5d511	-0.0015093406
202	0xb887c5d0	-6.474147e-05
203	0x3933aa86	0.00017134295
204	0x395e98d5	0.00021228504
205	0x3a940151	0.0011291896
206	0xb92abd2b	-0.00016282934
207	0xb91f9c08	-0.00015221548
208	0xbaaff860	-0.0013425462
209	0x39d76fd6	0.0004109132
210	0xb707369f	-8.0593445e-06
211	0xba1455bd	-0.0005658528
212	0xb8952e97	-7.113552e-05
213	0xb785934b	-1.5923424e-05
214	0x374e021b	1.2279047e-05
215	0x3a0859b0	0.0005201353
216	0xb9a9b515	-0.00032369109
217	0x3947f0f6	0.00019067884
218	0x393352a1	0.00017101552
219	0x39641ce8	0.00021754543
220	0x3a26f4b1	0.00063688593
221	0xbafacb22	-0.0019134025
222	0x3a1a75b5	0.00058921735
223	0x3a3d6c31	0.00072258996
224	0x3a207a1f	0.0006121713
225	0x3a50c7e1	0.00079643546
226	0xba307cd3	-0.00067324674
227	0x39edee1d	0.0004538157
228	0xba7a731a	-0.00095538946
229	0x395fb96c	0.00021336012
230	0xb7e80aaa	-2.7661521e-05
231	0x39b4b1f4	0.0003446486
232	0xb987ec2c	-0.00025925168
233	0x39d90ce7	0.00041399078
234	0xb82c15cd	-4.10283e-05
235	0xb90db895	-0.0001351557
236	0x3900a88f	0.00012269824
237	0x36db680c	6.5388213e-06
238	0x39107e64	0.00013779994
239	0x38649c70	5.450513e-05
240	0x38a20ff3	7.727733e-05
241	0x3a9a242d	0.0011760049
242	0x39880285	0.0002594182
243	0x39dd74ef	0.00042239527
244	0x382e31c7	4.153119e-05
245	0xba60ee6b	-0.0008580449
246	0xb7d9de87	-2.5972038e-05
247	0x38fd9237	0.00012091215
248	0xba76c8cd	-0.0009414077
249	0x3892710f	6.982881e-05
250	0xba27f192	-0.0006406541
251	0x3a8d04a3	0.0010758828
252	0x39fa3f62	0.0004773094
253	0xba3b05cb	-0.0007134347
254	0xba15417e	-0.0005693658
255	0xb8fdfaa0	-0.00012110663

exp_avg_sq f4 [64, 10]
0	0x378a51ec	1.648903e-05
1	0x37c5082c	2.3488035e-05
2	0x37cf5d6d	2.4719828e-05
3	0x3756f972	1.28134725e-05
4	0x3780dd29	1.5361775e-05
5	0x38846f86	6.315023e-05
6	0x37b9f076	2.2165692e-05
7	0x3794d5f9	1.7742614e-05
8	0x388c32a6	6.685154e-05
9	0x37ae862d	2.0804897e-05
10	0x3787c534	1.6185084e-05
11	0x3827d5af	4.001491e-05
12	0x379e71cd	1.888806e-05
13	0x373fb628	1.1426899e-05
14	0x3766c7fe	1.3755633e-05
15	0x382d1a17	4.1270712e-05
16	0x3795b5c0	1.7846818e-05
17	0x372288d2	9.687808e-06
18	0x389e2744	7.541341e-05
19	0x362aa2ce	2.5426739e-06
20	0x37cdc256	2.4528399e-05
21	0x38812d87	6.1596795e-05
22	0x37fdebbc	3.0269723e-05
23	0x379fee76	1.9065319e-05
24	0x37b348c6	2.137235e-05
25	0x38908806	6.8917914e-05
26	0x37f54237	2.923711e-05
27	0x3792cfc7	1.750131e-05
28	0x38ef7d53	0.000114197515
29	0x36e6f87c	6.8834615e-06
30	0x3580cb23	9.595864e-07
31	0x3642a62f	2.9004984e-06
32	0x35e8a707	1.7333958e-06
33	0x35ebf402	1.757988e-06
34	0x35a4f9cf	1.2291656e-06
35	0x359b7276	1.1581712e-06
36	0x358ec42b	1.0636917e-06
37	0x361034f1	2.1488488e-06
38	0x35d7b79b	1.6072185e-06
39	0x386e5c47	5.682956e-05
40	0x3745584c	1.1762673e-05
41	0x37ecc2b8	2.8224065e-05
42	0x375db814	1.32154855e-05
43	0x37185ae4	9.081068e-06
44	0x37282ce6	1.0024034e-05
45	0x3811248f	3.460474e-05
46	0x37536d54	1.2602035e-05
47	0x36fc78fe	7.5242706e-06
48	0x38807525	6.1253355e-05
49	0x36985621	4.5399797e-06
50	0x371aa9fe	9.218695e-06
51	0x379f5193	1.8992263e-05
52	0x37449e19	1.171932e-05
53	0x36e821bb	6.9180655e-06
54	0x36fb7787	7.4942977e-06
55	0x37c10dee	2.301388e-05
56	0x375a89fd	1.30259405e-05
57	0x36b5e506	5.420882e-06
58	0x38099e4c	3.281077e-05
59	0x3579642f	9.2905515e-07
60	0x3a69457d	0.0008898599
61	0x3af8cd21	0.0018982032
62	0x3a9e0d7b	0.0012058461
63	0x3a426957	0.00074162096
64	0x3a4c4f5e	0.0007793809
65	0x3b02509a	0.0019884468
66	0x3a995b00	0.0011700094
67	0x3a3ac8ef	0.00071252784
68	0x3b1a2627	0.0023521276
69	0x3a68f62e	0.0008886781
70	0x37c33c79	2.3273971e-05
71	0x384b8dd4	4.853106e-05
72	0x37f17df6	2.8788094e-05
73	0x3790f2a5	1.7279128e-05
74	0x37a86de1	2.0078327e-05
75	0x38888cdd	6.511223e-05
76	0x37e82d52	2.767766e-05
77	0x3781851e	1.5439986e-05
78	0x38e4e87a	0.00010915189
79	0x379617d9	1.7892498e-05
80	0x39c72adc	0.0003798817
81	0x3a9356b8	0.0011241054
82	0x39e2d70d	0.00043266304
83	0x39944b10	0.00028284686
84	0x39aa672a	0.0003250179
85	0x3a8d7948	0.0010793591
86	0x39eb47f1	0.00044876293
87	0x39796f2e	0.00023787908
88	0x3b015e66	0.0019740104
89	0x380ce8e9	3.3595516e-05
90	0x3596738d	1.1209501e-06
91	0x35fa7b74	1.8662381e-06
92	0x3618c01f	2.2761594e-06
93	0x359cfbcd	1.1696189e-06
94	0x35796c39	9.2917213e-07
95	0x360af275	2.070473e-06
96	0x3607c77c	2.0232683e-06
97	0x3580fd5a	9.610478e-07
98	0x35d44422	1.581506e-06
99	0x36c71678	5.933278e-06
100	0x37d7de06	2.5733385e-05
101	0x389c51e7	7.453915e-05
102	0x37cb9df6	2.4273042e-05
103	0x37b2ba0e	2.1305892e-05
104	0x37bd6e56	2.2581935e-05
105	0x38a3a0e3	7.802413e-05
106	0x37b25874	2.1260443e-05
107	0x3797736b	1.8054348e-05
108	0x393665c4	0.00017394783
109	0x379a95de	1.8428018e-05
110	0x3641979c	2.884749e-06
111	0x3728dc60	1.006489e-05
112	0x36bc0b9b	5.6041877e-06
113	0x36181a93	2.2665233e-06
114	0x362b3a4a	2.5514914e-06
115	0x36ed6377	7.0747296e-06
116	0x36a225c2	4.832372e-06
117	0x362931d2	2.5211962e-06
118	0x372c3a29	1.026554e-05
119	0x3608c9af	2.0382975e-06
120	0x379dfc7f	1.8833436e-05
121	0x380d9ada	3.3761236e-05
122	0x37ad5359	2.0662019e-05
123	0x374d8291	1.2249352e-05
124	0x378db03d	1.6890577e-05
125	0x38af0439	8.345437e-05
126	0x379c4a82	1.8631345e-05
127	0x378d78f7	1.6864838e-05
128	0x38fa46e4	0.00011934133
129	0x37886a70	1.6262027e-05
130	0x3713f832	8.81967e-06
131	0x38158fe4	3.5658377e-05
132	0x37204bde	9.554407e-06
133	0x370f248d	8.531974e-06
134	0x36feb750	7.5911303e-06
135	0x380e35e8	3.3905642e-05
136	0x37525694	1.2537133e-05
137	0x36e03978	6.6824105e-06
138	0x389b6511	7.409801e-05
139	0x380249ae	3.1063035e-05
140	0x36002df1	1.9100228e-06
141	0x36dc7d86	6.571124e-06
142	0x361cf8c0	2.3390603e-06
143	0x354eb356	7.700195e-07
144	0x35f19d54	1.8001688e-06
145	0x36b8f7fc	5.5124965e-06
146	0x3634d21c	2.694439e-06
147	0x3608e2d1	2.0397604e-06
148	0x3735acdb	1.0828687e-05
149	0x37a16c81	1.9243222e-05
150	0x37c208fc	2.3130786e-05
151	0x38697209	5.5657732e-05
152	0x37c99586	2.4030694e-05
153	0x378be135	1.6674961e-05
154	0x37aa9feb	2.0340047e-05
155	0x389ab5ae	7.377133e-05
156	0x37b66803	2.1744525e-05
157	0x37928bf6	1.746973e-05
158	0x3919638f	0.00014628306
159	0x378f82ed	1.7107895e-05
160	0x37a2ec6f	1.9422003e-05
161	0x387003c4	5.7223966e-05
162	0x378c7bd4	1.6746963e-05
163	0x379af1ba	1.8470793e-05
164	0x3792d9c9	1.750597e-05
165	0x38733473	5.7984562e-05
166	0x37928303	1.7465563e-05
167	0x3784a6ac	1.5813239e-05
168	0x3918d128	0.00014573766
169	0x37dab9bb	2.6074113e-05
170	0x381605e5	3.5768277e-05
171	0x38a9fed8	8.106016e-05
172	0x3840cbff	4.5966353e-05
173	0x37dfad71	2.6664437e-05
174	0x38033604	3.128314e-05
175	0x38d7dd09	0.0001029317
176	0x38480beb	4.7694815e-05
177	0x37e4ae0a	2.7260761e-05
178	0x39289cf5	0.000160802
179	0x3747d46e	1.1910784e-05
180	0x37632ca6	1.354065e-05
181	0x38228345	3.8746064e-05
182	0x37796dda	1.4867133e-05
183	0x37327d0b	1.0638741e-05
184	0x374921b2	1.1988379e-05
185	0x38310f3c	4.2214277e-05
186	0x376fda9a	1.4296407e-05
187	0x37369827	1.0883471e-05
188	0x38a8efd8	8.055539e-05
189	0x372777b6	9.981848e-06
190	0x36869477	4.010795e-06
191	0x3748a92a	1.19603155e-05
192	0x36a95f08	5.0476556e-06
193	0x363e6e6a	2.8376476e-06
194	0x3672530b	3.6109147e-06
195	0x37160837	8.942609e-06
196	0x36a9ce3e	5.0606022e-06
197	0x3661315b	3.3556341e-06
198	0x379cf548	1.8710867e-05
199	0x3595e77a	1.1168734e-06
200	0x369e56c4	4.718868e-06
201	0x3760cd5a	1.3399253e-05
202	0x36c20b62	5.7829757e-06
203	0x368759e0	4.0337763e-06
204	0x368db64f	4.223351e-06
205	0x3738b8af	1.1010255e-05
206	0x36b1e6d8	5.301885e-06
207	0x367e3bcd	3.7883758e-06
208	0x37b6b2d4	2.1779364e-05
209	0x371817dc	9.065461e-06
210	0x351f21ac	5.9281115e-07
211	0x3604c784	1.9785666e-06
212	0x354e3286	7.68145e-07
213	0x352a1427	6.335926e-07
214	0x3506e41d	5.025084e-07
215	0x35f8fad9	1.8550446e-06
216	0x357f256b	9.5049353e-07
217	0x3526eff0	6.2188974e-07
218	0x365b92cb	3.2718988e-06
219	0x35e62bc5	1.7149074e-06
220	0x371621ef	8.9485975e-06
221	0x37fd0c7e	3.0165767e-05
222	0x371bde64	9.290499e-06
223	0x3706f1d5	8.043328e-06
224	0x3703dbbf	7.859372e-06
225	0x37d9618e	2.5913843e-05
226	0x370ae343	8.2783545e-06
227	0x36e90c97	6.9454068e-06
228	0x38881e77	6.49066e-05
229	0x374024bb	1.1452644e-05
230	0x354ca2c7	7.6232794e-07
231	0x363f6ad8	2.852341e-06
232	0x35adfa2d	1.2962315e-06
233	0x358864ed	1.0162163e-06
234	0x3549835d	7.5069494e-07
235	0x361da050	2.3488137e-06
236	0x35ef0977	1.7809642e-06
237	0x358c9229	1.0473351e-06
238	0x3681d23f	3.8689755e-06
239	0x35eeeefa	1.7801933e-06
240	0x36129b51	2.1846101e-06
241	0x36cb27f3	6.054522e-06
242	0x3620efdd	2.3981477e-06
243	0x35f1d28b	1.8017175e-06
244	0x36011a9b	1.9237984e-06
245	0x36d4a5aa	6.337378e-06
246	0x3639028c	2.756863e-06
247	0x35e2aa7b	1.6887928e-06
248	0x375cba94	1.3156463e-05
249	0x369380a2	4.395916e-06
250	0x3674e2fa	3.649095e-06
251	0x36d880ff	6.4523188e-06
252	0x36c88b5e	5.976689e-06
253	0x366364e5	3.3884364e-06
254	0x3660c1c6	3.3491392e-06
255	0x3719b3b5	9.161352e-06

exp_avg f4 [64]
0	0xb8db8ab5	-0.0001046857
1	0xb9c6f3e5	-0.00037947219
2	0x3a47a6ba	0.0007616092
3	0xb93cdca4	-0.00018011272
4	0xba0e1ec1	-0.0005421453
5	0xb955aba6	-0.00020377207
6	0xbba17191	-0.0049268682
7	0xbaad3a78	-0.0013216278
8	0xba145b16	-0.0005659325
9	0xb8e4b678	-0.00010905875
10	0xba45f333	-0.0007551193
11	0xba8f8bd6	-0.0010951709
12	0xba1bdb78	-0.0005945484
13	0x3aa4c926	0.0012572154
14	0x38d33db5	0.00010072758
15	0x38a49d47	7.8494246e-05
16	0x39e13b63	0.0004295959
17	0xbb156080	-0.0022793114
18	0xb9cc34dc	-0.00038949295
19	0x39d4c604	0.00040583324
20	0xb9673789	-0.00022050565
21	0x38976364	7.218754e-05
22	0xba4f1c67	-0.00079006556
23	0x37fd1745	3.0170786e-05
24	0x3948ea72	0.00019160824
25	0x3a79f08f	0.0009534442
26	0xb97cd3c5	-0.00024111483
27	0xb791cf68	-1.7381928e-05
28	0x3871486e	5.7526333e-05
29	0x39b99d18	0.00035402994
30	0xba3f5950	-0.00072993804
31	0xb98a873a	-0.00026422163
32	0x37918a24	1.7349674e-05
33	0xb9d8309b	-0.00041234944
34	0x3afc9709	0.0019271086
35	0xb8264de7	-3.9650036e-05
36	0x3b111a7b	0.0022141028
37	0x3ab74f00	0.0013985336
38	0xba1e3245	-0.00060347124
39	0xba0c3c67	-0.0005349577
40	0x3a3038b4	0.00067223166
41	0xb9c4eb75	-0.00037559462
42	0xbac24a76	-0.0014823216
43	0xb9d9a955	-0.00041515628
44	0xbacb4ed8	-0.0015511168
45	0x3a268f14	0.0006353718
46	0x3a03cc5f	0.0005027707
47	0xb8a54fbc	-7.882665e-05
48	0x39d71f15	0.00041031154
49	0x3a453097	0.0007522194
50	0xb96044ec	-0.0002138798
51	0xba37315d	-0.00069882517
52	0x39f9851f	0.00047592164
53	0xb9d5ed25	-0.00040803212
54	0x3a08fd9c	0.0005225779
55	0x372245d7	9.672213e-06
56	0x399fb860	0.00030464213
57	0xb89bc5b9	-7.427805e-05
58	0xbacf21b5	-0.0015802892
59	0xba22ad39	-0.0006205622
60	0x39e20d6d	0.00043116082
61	0x3ab62995	0.001389789
62	0x3a946576	0.0011321742
63	0x39a7e7dc	0.0003202547

exp_avg_sq f4 [64]
0	0x37beba98	2.2736655e-05
1	0x3797ec2f	1.8110584e-05
2	0x37fd742e	3.021405e-05
3	0x35d44014	1.581388e-06
4	0x3756da95	1.2806287e-05
5	0x374ebe42	1.2322855e-05
6	0x3a9b9bf3	0.0011872038
7	0x37f5c5e4	2.9298426e-05
8	0x39e9fc99	0.00044629423
9	0x360de6da	2.114501e-06
10	0x37cb8f3c	2.4266184e-05
11	0x369d6d50	4.6916903e-06
12	0x37a4a693	1.962789e-05
13	0x3734d396	1.07781e-05
14	0x3625a39f	2.4682156e-06
15	0x37ca8a51	2.4144685e-05
16	0x37947607	1.7697936e-05
17	0x383fe424	4.575042e-05
18	0x377f4778	1.52158245e-05
19	0x36a40438	4.888072e-06
20	0x36b4cb55	5.388089e-06
21	0x3569b44e	8.706164e-07
22	0x371bfea2	9.298006e-06
23	0x35d18f43	1.5613408e-06
24	0x36330626	2.6676657e-06
25	0x36b99ce2	5.531693e-06
26	0x36ada0a5	5.1745033e-06
27	0x36b0316c	5.250962e-06
28	0x3644b91e	2.9314028e-06
29	0x376a1ed0	1.3954661e-05
30	0x36ebcdf6	7.0275228e-06
31	0x36a6b431	4.9681626e-06
32	0x35707ca2	8.958833e-07
33	0x3628ace7	2.5134593e-06
34	0x37742ae6	1.4553521e-05
35	0x36f02128	7.1564173e-06
36	0x37194877	9.136383e-06
37	0x37329a04	1.0645486e-05
38	0x36d905b1	6.4677665e-06
39	0x37a69dc3	1.9862206e-05
40	0x369b082b	4.620311e-06
41	0x361ad98c	2.3074417e-06
42	0x3859de64	5.194395e-05
43	0x3687306f	4.028952e-06
44	0x399467b0	0.00028306013
45	0x385bfa92	5.244703e-05
46	0x382b98d5	4.0911913e-05
47	0x354c3912	7.607897e-07
48	0x37d4a779	2.5350355e-05
49	0x376a4f14	1.3965899e-05
50	0x36941581	4.413247e-06
51	0x36cfe825	6.196106e-06
52	0x363bc994	2.7982505e-06
53	0x36d1d80c	6.2538365e-06
54	0x364efb3c	3.084263e-06
55	0x35386fbb	6.870793e-07
56	0x376ff564	1.4302645e-05
57	0x399479c7	0.0002831949
58	0x3703a868	7.847419e-06
59	0x36e728a5	6.889068e-06
60	0x36f50817	7.3025108e-06
61	0x37276900	9.978423e-06
62	0x360d990d	2.1099725e-06
63	0x376fd3c3	1.4294815e-05

exp_avg f4 [64, 64]
0	0x37d592f9	2.5460018e-05
1	0x39b2f425	0.00034132708
2	0x39ca3db3	0.00038574412
3	0xb89dd729	-7.52642e-05
4	0x36dc82a4	6.5717195e-06
5	0x39436ca0	0.00018637115
6	0xb8adb4ff	-8.282996e-05
7	0x3966cae2	0.00022010089
8	0x38ba9b53	8.8981025e-05
9	0xb7e30fb4	-2.7067821e-05
10	0x398b2b76	0.00026544527
11	0xb91ea2d7	-0.00015128717
12	0xb89eacd9	-7.5662225e-05
13	0x392e6b49	0.000166339
14	0xb7061cb7	-7.993708e-06
15	0x39642a41	0.00021759515
16	0x3813eb10	3.526645e-05
17	0x38c1dd3c	9.244165e-05
18	0x3a11595d	0.0005544627
19	0x37d225df	2.5051586e-05
20	0x391bddc2	0.00014864563
21	0x3958d583	0.00020678905
22	0x39f28fb3	0.000462649
23	0x38b86427	8.7924585e-05
24	0x3871762e	5.756894e-05
25	0x39119bce	0.0001388632
26	0x39938555	0.00028137365
27	0x3933c6eb	0.00017144873
28	0xb99980ec	-0.00029278488
29	0x386533d1	5.4646112e-05
30	0x3a38f7c3	0.00070559623
31	0xb7e3f0ab	-2.7172578e-05
32	0xb567ecc6	-8.6398757e-07
33	0xb861f6d1	-5.3874046e-05
34	0xb860dbb8	-5.361039e-05
35	0x39836caa	0.00025067228
36	0xb8f063fa	-0.00011462714
37	0xb8918c9e	-6.940331e-05
38	0x3849c49c	4.810524e-05
39	0x3939ba25	0.00017712319
40	0x398ad461	0.00026479646
41	0x3625ed37	2.4724993e-06
42	0x3914e535	0.00014199766
43	0x3900bfdd	0.00012278506
44	0xb73dad5c	-1.1305641e-05
45	0x385cf9d5	5.268476e-05
46	0xb8dc9f10	-0.00010520045
47	0x398ab403	0.0002645553
48	0xb83c711f	-4.4928045e-05
49	0xb8255344	-3.9416613e-05
50	0x39d6431b	0.00040867258
51	0xb86d2e7f	-5.6548506e-05
52	0x3975b17a	0.00023431136
53	0xb83a5b06	-4.4430628e-05
54	0x38bb2c3d	8.925095e-05
55	0xb6b312bd	-5.336797e-06
56	0x39563e8c	0.00020431931
57	0xb836190e	-4.3415515e-05
58	0x38d98e08	0.00010373822
59	0x3a1283b7	0.0005589085
60	0x3930d9a0	0.0001686574
61	0x39dd17d9	0.00042170173
62	0x38aa094f	8.1079656e-05
63	0x39d4e201	0.00040604177
64	0x38b94adc	8.835431e-05
65	0x3963bf9d	0.00021719788
66	0xb929de21	-0.00016199845
67	0xb7920b75	-1.7409891e-05
68	0x39feac03	0.00048574814
69	0x37cf9439	2.4745344e-05
70	0x39828338	0.00024893298
71	0x39faedb6	0.00047860824
72	0x397c028c	0.00024033542
73	0x393cc759	0.0001800334
74	0x3947ef3d	0.00019067242
75	0x387a7749	5.9715738e-05
76	0x38f336aa	0.00011597325
77	0xb8c5eecc	-9.4381714e-05
78	0xb74b024f	-1.210028e-05
79	0x3983bf58	0.0002512883
80	0x388fef1e	6.8633104e-05
81	0x3961760b	0.00021501647
82	0xb932ab6c	-0.00017039262
83	0xb84561dc	-4.70596e-05
84	0x390034c8	0.00012226694
85	0xb8ab3b9e	-8.16502e-05
86	0xb8f2abc1	-0.00011571451
87	0x379e9d3c	1.8908286e-05
88	0x38bd4e6a	9.026828e-05
89	0xb8fd29a3	-0.000120717355
90	0x389217ae	6.966233e-05
91	0x39bdfd9d	0.00036237846
92	0x3a14fb21	0.0005683173
93	0x39d221da	0.00040079543
94	0xb961178b	-0.00021466443
95	0x3881ef57	6.19578e-05
96	0xb79efe7f	-1.8953577e-05
97	0x390621f6	0.00012791887
98	0x396ce3b5	0.00022591541
99	0xb81bc8d2	-3.714191e-05
100	0x39b81b64	0.00035115622
101	0x38cbd364	9.719169e-05
102	0xb8db5dd8	-0.000104602135
103	0x367bfc24	3.754868e-06
104	0xb813b2d3	-3.5214074e-05
105	0xb7af1038	-2.0869178e-05
106	0x39d14528	0.00039915112
107	0x39c87a38	0.00038238033
108	0x38f53b3c	0.00011693544
109	0x3989df84	0.00026297208
110	0x39e761ae	0.0004413253
111	0xb947871b	-0.0001902845
112	0x393ccd6c	0.00018005603
113	0x39706268	0.00022924843
114	0x37472c71	1.1871672e-05
115	0x38aa234a	8.112805e-05
116	0x3982b2d5	0.00024928772
117	0x37cc2411	2.433549e-05
118	0x397bb8ee	0.00024006117
119	0xb918eaa3	-0.00014583259
120	0x39dcc8e0	0.00042111333
121	0x39298607	0.00016167025
122	0x39044a0d	0.00012616087
123	0x397643aa	0.00023485595
124	0x384e99d4	4.925749e-05
125	0xb8129445	-3.49472e-05
126	0x39404160	0.00018334901
127	0xb8f6b1f4	-0.000117633404
128	0xb55e62e4	-8.284535e-07
129	0xb72afab6	-1.0191163e-05
130	0xb71e84e6	-9.448477e-06
131	0x348b6870	2.5966756e-07
132	0xb602418f	-1.940967e-06
133	0xb63346eb	-2.6714358e-06
134	0xb347cc59	-4.651915e-08
135	0xb642c0e5	-2.9020532e-06
136	0xb5fa3bbd	-1.8643838e-06
137	0xb5b64195	-1.3579144e-06
138	0xb67933bb	-3.7134002e-06
139	0xb3ccf84b	-9.5446545e-08
140	0xb05b7e8c	-7.985157e-10
141	0xb5eede02	-1.7796995e-06
142	0xb4578b93	-2.0074212e-07
143	0xb6554239	-3.177802e-06
144	0xb5534bbe	-7.8713845e-07
145	0xb703854f	-7.839247e-06
146	0xb75a13c7	-1.2998417e-05
147	0xb7312eb3	-1.0560895e-05
148	0xb652cf61	-3.141315e-06
149	0xb6b3e889	-5.3616864e-06
150	0xb7023d25	-7.76284e-06
151	0xb6204398	-2.3881203e-06
152	0xb62bf550	-2.5623776e-06
153	0xb6a77b94	-4.991374e-06
154	0xb72e6cdc	-1.0396554e-05
155	0xb5a0af61	-1.1971971e-06
156	0xb5b22730	-1.3273439e-06
157	0xb5031f3b	-4.884675e-07
158	0xb77d8b4d	-1.5112409e-05
159	0x33a872cb	7.84399e-08
160	0xb41ff7fa	-1.4898242e-07
161	0xb3228012	-3.7835044e-08
162	0x34a4da19	3.0706067e-07
163	0xb6c55831	-5.8813243e-06
164	0x349030c9	2.6857586e-07
165	0xb65e7872	-3.3150686e-06
166	0xb68c4f13	-4.1815306e-06
167	0xb6d30792	-6.2891713e-06
168	0xb75573fc	-1.2722794e-05
169	0xb50e49e5	-5.3006653e-07
170	0xb6070296	-2.0118073e-06
171	0xb5587a2d	-8.064406e-07
172	0xb5546a9b	-7.9131286e-07
173	0xb5bb1277	-1.393796e-06
174	0xb4bb2c1d	-3.486356e-07
175	0xb73e4f16	-1.1343296e-05
176	0xb6732bde	-3.6235356e-06
177	0xb71e143e	-9.422247e-06
178	0x34b46cba	3.3606722e-07
179	0xb6556526	-3.179835e-06
180	0xb60ccb8d	-2.0980108e-06
181	0xb4bf10f4	-3.5588857e-07
182	0x34bc01c7	3.5019022e-07
183	0xb0e066b6	-1.6327337e-09
184	0xb5dd5a36	-1.6492038e-06
185	0xb548c647	-7.479434e-07
186	0xb58a92bb	-1.0324505e-06
187	0xb726b402	-9.936282e-06
188	0xb6967409	-4.4838566e-06
189	0xb73d631b	-1.1288353e-05
190	0xb51911f7	-5.7023084e-07
191	0xb718f10b	-9.116028e-06
192	0x363efebb	2.846048e-06
193	0x373f9877	1.1419986e-05
194	0xb7d878f5	-2.5805532e-05
195	0x36ec529f	7.0429664e-06
196	0x38489904	4.7826223e-05
197	0x362dc053	2.5890956e-06
198	0x37c30920	2.325006e-05
199	0x3816f804	3.599377e-05
200	0x37f053af	2.8649198e-05
201	0x37c0b8a0	2.2974156e-05
202	0x3764e7d5	1.3643837e-05
203	0x37381a50	1.0973381e-05
204	0x374e648e	1.2301969e-05
205	0xb6c1ca71	-5.7754155e-06
206	0x370d1a4a	8.410376e-06
207	0x37cffd78	2.4794354e-05
208	0x3708b95c	8.149389e-06
209	0x37afd8d3	2.0962592e-05
210	0xb7c95cdb	-2.4004306e-05
211	0xb76b5fc2	-1.4029387e-05
212	0x3582c92e	9.744306e-07
213	0xb71c0422	-9.299287e-06
214	0xb74ca870	-1.2198565e-05
215	0x36b1b06b	5.295549e-06
216	0x372be39a	1.0245387e-05
217	0xb78442a8	-1.5766665e-05
218	0xb67bc321	-3.7515495e-06
219	0x3824d9e2	3.9303566e-05
220	0x386ce5d6	5.6480836e-05
221	0x381a866e	3.684166e-05
222	0xb800a967	-3.0675346e-05
223	0x37907292	1.7219489e-05
224	0x36e0b373	6.696611e-06
225	0x37ab9828	2.0455642e-05
226	0x379bd1d3	1.8575147e-05
227	0xb6b0a28c	-5.2641317e-06
228	0x380bda08	3.334324e-05
229	0x375bfd18	1.3112345e-05
230	0xb71fdb5a	-9.52821e-06
231	0xb695caa7	-4.464138e-06
232	0xb7516ff7	-1.248344e-05
233	0xb4d7ca13	-4.01939e-07
234	0x38330c11	4.2688163e-05
235	0x38386c33	4.3969787e-05
236	0x37a52218	1.9685409e-05
237	0x37d968da	2.5917241e-05
238	0x3845b0ce	4.7133122e-05
239	0xb80f1453	-3.4112785e-05
240	0x373c7c89	1.1234669e-05
241	0x37a2ff18	1.9430692e-05
242	0x372d8557	1.0342649e-05
243	0x3787991f	1.6164557e-05
244	0x37b46224	2.1503372e-05
245	0x35ed0a21	1.7660824e-06
246	0x37d5fab4	2.5508321e-05
247	0xb5475c7d	-7.4267865e-07
248	0x381bdb2a	3.7158992e-05
249	0x37db969b	2.6176966e-05
250	0x3760caf7	1.3398697e-05
251	0x372ef54c	1.0428321e-05
252	0xb7131c92	-8.768535e-06
253	0xb7480c40	-1.1923781e-05
254	0x380cae7e	3.354111e-05
255	0xb716ea67	-8.995273e-06
