simple_mlp_zprime/version_4/checkpoints/epoch=49-step=11750.ckpt (torch, 69720 bytes, 18 tensors)

layer1.weight f4 [64, 10]
0.22032486 0.2068228 0.10601995 -0.54757303 -0.023569647 0.03523412 -0.0063794046 -0.04567718
-0.009640869 -0.03933006 0.42751276 -0.15046762 0.06624799 0.1439296 -0.43038327 0.20126937
-0.027093979 -0.20786151 0.05170159 -0.28147995 -0.57712233 0.15465476 0.08871175 -0.020342316
-0.12173488 0.092586525 0.18956232 0.14727901 -0.05260139 -0.08157984 0.34440425 0.32724246
0.05098073 -0.2623775 0.3686605 -0.33061978 -0.15026341 0.39190707 0.15555096 0.13739683
0.4387175 0.058320582 0.38428837 0.20498209 -0.2761264 -0.18965444 -0.3488168 -0.28439996
-0.1868278 -0.255653 0.10255881 -0.0016066052 0.43156672 0.35198873 0.40083176 -0.010480006
-0.37158126 0.03499817 -0.1701607 -0.01163185 0.16644129 0.033198483 -0.3110271 -0.35223547
0.42313358 -0.24047233 0.22969602 0.66789144 -0.18703377 -0.08001309 0.40375313 -0.28265634
0.02685633 0.35334307 0.23724067 0.28892413 0.0077344263 0.2576549 0.46664086 0.11892087
-0.25147784 -0.1921081 -0.03892121 -0.3661589 0.5092106 0.22063652 -0.09264382 0.5000134
-0.4949355 -0.024259359 0.42917693 -0.3130266 -0.16097109 -0.06588768 -0.11997171 0.06621883
0.06109425 -0.13238813 -0.16976759 0.0040583955 -0.053173147 0.13687512 -0.4002187 0.16824041
0.3648397 0.13026723 0.124468274 -0.00029621957 -0.10757743 -0.022699134 0.32221887 -0.0790581
0.3439372 0.20713218 -0.37206835 -0.22924392 -0.07389259 -0.40372205 0.07247439 0.073540114
-0.6415849 -0.10271818 -0.017689297 0.488594 0.0053764367 -0.062778935 -0.020799804 -0.14734903
-0.14729124 -0.026036132 -0.015085552 -0.29315776 -0.036485616 0.33815905 0.15888256 0.38749012
0.11750572 0.2452672 -0.30777344 -0.011312096 0.16727692 -0.21675442 0.018031962 -0.45081112
0.19335559 -0.16446736 -0.12146731 0.23601824 0.19988075 -0.2275082 0.3194386 -0.0067629255
0.36378682 0.17864539 -0.14848998 0.0086658895 -0.395048 0.1637221 -0.080096245 0.16369112
-0.15546827 -0.084922865 0.14888471 0.28694713 -0.08329678 -0.3984608 -0.06499937 -0.3016773
-0.23964535 0.08670219 -0.052553333 -0.39782718 -0.025703859 -0.28615218 0.083354 -0.29498535
-0.04231692 0.47654527 0.07555912 -0.08864073 0.24726003 0.056848265 -0.32407922 -0.14235355
-0.3648815 -0.17475818 0.32934675 -0.05231023 -0.16254342 -0.20683235 -0.44078976 0.14869714
-0.14323352 -0.185235 -0.0019090242 -0.009566965 -0.3177442 -0.088946395 -0.0693303 0.20097959
0.21456826 -0.05362289 -0.39381516 0.08198938 0.27777278 -0.05078482 0.22246902 0.25340924
0.08606624 0.12970035 -0.5575898 0.042668276 -0.08576299 -0.14801788 -0.21527916 0.011059807
-0.014525978 0.17393355 -0.2570115 -0.104671724 0.210526 0.1235934 -0.054119427 0.3098475
-0.027552139 -0.13816625 0.2810311 -0.3920536 -0.106720746 0.1365184 -0.53443146 0.08112178
0.17901349 0.009702638 -0.08783111 -0.14851685 0.08170438 0.035857342 0.10053779 0.2544828
-0.5917367 -0.14731464 -0.012526359 0.036850248 0.08128781 -0.13184777 0.0037054056 0.15419742
-0.20769164 0.094562076 0.54969555 0.006492096 -0.49275 0.16289078 0.19777489 -0.0010022711
00000000: d79c 613e 5bc9 533e fd20 d93d bf2d 0cbf
00000010: 2215 c1bc a751 103d 530a d1bb ff17 3bbd
00000020: bcf4 1dbc 8f18 21bd f4e2 da3e 2f14 1abe
00000030: 07ad 873d 4862 133e 325b dcbe 8f19 4e3e
00000040: 31f4 ddbc a6d9 54be 0cc5 533d 241e 90be
00000050: 4abe 13bf d15d 1e3e 82ae b53d eea4 a6bc
00000060: 2350 f9bd 019e bd3d a01c 423e 4fd0 163e
00000070: 8e74 57bd 5513 a7bd c155 b03e 538c a73e
00000080: 2cd1 503d 5856 86be 12c1 bc3e ff46 a9be
00000090: a7de 19be 0ba8 c83e c048 1f3e c1b1 0c3e
000000a0: 959f e03e 90e1 6e3d 72c1 c43e d3e6 513e
000000b0: 7160 8dbe c634 42be 1e98 b2be df9c 91be
000000c0: c94f 3fbe f3e4 82be 5a0a d23d ba94 d2ba
000000d0: 50f6 dc3e de37 b43e d239 cd3e 55b4 2bbc
000000e0: e63f bebe 3e5a 0f3d 9b3e 2ebe 8493 3ebc
000000f0: 966f 2a3e 22fb 073d f23e 9fbe 3558 b4be
00000100: f7a4 d83e 613e 76be 6f35 6b3e effa 2a3f
00000110: c885 3fbe e7dd a3bd bbb8 ce3e 55b8 90be
00000120: ce01 dc3c 62e9 b43e 38ef 723e dded 933e
00000130: 1271 fd3b 58eb 833e 8deb ee3e c98c f33d
00000140: b4c1 80be fcb7 44be d96b 1fbd 2e79 bbbe
00000150: a05b 023f 8aee 613e 0bbc bdbd e100 003f
00000160: 3068 fdbe 90bb c6bc 14bd db3e 0645 a0be
00000170: 9bd5 24be 1ff0 86bd bab3 f5bd bd9d 873d
00000180: f73d 7a3d c190 07be 8ed7 2dbe 4afc 843b
00000190: 16cc 59bd fe28 0c3e 77e9 ccbe 3747 2c3e
000001a0: 45cc ba3e c664 053e 39e9 fe3d eb4d 9bb9
000001b0: 8e51 dcbd 89f3 b9bc dff9 a43e 37e9 a1bd
000001c0: 8918 b03e 751a 543e be7f bebe ebbe 6abe
000001d0: 0055 97bd a8b4 cebe 746d 943d 339c 963d
000001e0: e83e 24bf e95d d2bd 25e9 90bc fe28 fa3e
000001f0: d22c b03b 3e92 80bd 5a64 aabc aae2 16be
00000200: 84d3 16be ba49 d5bc 6429 77bc c618 96be
00000210: f171 15bd 2f23 ad3e 1cb2 223e 1b65 c63e
00000220: d7a6 f03d 5327 7b3e 7b94 9dbe 5f56 39bc
00000230: a44a 2b3e dff4 5dbe c4b7 933c b7d0 e6be
00000240: 02ff 453e 226a 28be dac3 f8bd c4ae 713e
00000250: 8aad 4c3e e9f7 68be 758d a33e 889b ddbb
00000260: 4442 ba3e d1ee 363e c20d 18be 60fb 0d3c
00000270: bb43 cabe c4a6 273e 8009 a4bd a59e 273e
00000280: 1333 1fbe 0aec adbd 3c75 183e bcea 923e
00000290: 8197 aabd 0e03 ccbe 641e 85bd 7275 9abe
000002a0: 9765 75be eb90 b13d 2a42 57bd 01b0 cbbe
000002b0: e690 d2bc 8a82 92be 80b5 aa3d 5208 97be
000002c0: 8254 2dbd befd f33e bdbe 9a3d 4589 b5bd
000002d0: bc31 7d3e bad9 683d b6ed a5be 21c5 11be
000002e0: bfd1 babe cff3 32be 23a0 a83e 4043 56bd
000002f0: c871 26be dccb 53be 32af e1be 1044 183e
00000300: cfab 12be 3eae 3dbe 3938 faba c2be 1cbc
00000310: 5eaf a2be 8729 b6bd 0bfd 8dbd 98cd 4d3e
00000320: c8b7 5b3e ada3 5bbd 24a2 c9be 0cea a73d
00000330: 3c38 8e3e be03 50bd ebce 633e dbbe 813e
00000340: 7f43 b03d 2bd0 043e 35be 0ebf eec4 2e3d
00000350: 82a4 afbd 0092 17be 2472 5cbe 3134 353c
00000360: 5efe 6dbc a31b 323e 0397 83be 215e d6bd
00000370: 2194 573e 891e fd3d 55ac 5dbd 55a4 9e3e
00000380: 06b5 e1bc 747b 0dbe 4fe3 8f3e 40bb c8be
00000390: 6890 dabd 7bcb 0b3e 80d0 08bf 2d23 a63d
000003a0: 504f 373e d0f7 1e3c cce0 b3bd cd14 18be
000003b0: a054 a73d 26df 123d c2e6 cd3d 924b 823e
000003c0: 0e7c 17bf a6d9 16be 5c3b 4dbc 49f0 163d
000003d0: 397a a63d 1a03 07be 64d6 723b eee5 1d3e
000003e0: 1ead 54be c3a9 c13d d9b8 0c3f a6bb d43b
000003f0: ba49 fcbe d7cc 263e 8085 4a3e a35e 83ba

layer1.bias f4 [64]
0.3116091 0.32909685 -0.03886629 0.002738069 0.30307326 0.5309364 -0.10650111 -0.08062459
0.06807742 0.24638256 -0.036644056 0.21384978 0.25135726 0.17304534 0.087664984 0.09678234
-0.34777018 -0.28793952 0.4259604 -0.016250778 0.4094472 -0.050967623 0.36506283 -0.06863184
0.20988311 0.3402438 -0.030941691 0.541225 0.12629114 0.12362112 0.21496396 0.25491825
-0.17183188 -0.08182261 0.27161258 -0.3900502 -0.013148636 0.11712033 -0.2395563 -0.040323287
0.23170963 -0.21810742 -0.032514747 0.17555018 0.10408556 0.12728223 0.4701537 0.21209602
-0.06858189 0.13343985 -0.112762496 -0.16291681 0.038496934 -0.13928667 -0.814769 0.022555137
0.48375693 -0.1655315 -0.101672046 -0.19714786 0.13949853 -0.11217424 0.11181788 0.37461662
00000000: 3a8b 9f3e 627f a83e 4232 1fbd 2d71 333b
00000010: 6b2c 9b3e 73eb 073f 411d dabd 811e a5bd
00000020: 2d6c 8b3d b64b 7c3e 1418 16bd 70fb 5a3e
00000030: e6b1 803e cc32 313e b389 b33d d235 c63d
00000040: ef0e b2be cf6c 93be 7b17 da3e 5a20 85bc
00000050: 10a3 d13e 6dc3 50bd 84e9 ba3e da8e 8cbd
00000060: 99eb 563e 6f34 ae3e 6e79 fdbc b98d 0a3f
00000070: 7752 013e 122d fd3d 831f 5c3e a584 823e
00000080: b2f4 2fbe 9d92 a7bd ce10 8b3e a9b4 c7be
00000090: 606d 57bc c9dc ef3d 3f4e 75be 082a 25bd
000000a0: 4a45 6d3e 8d57 5fbe 2f2e 05bd 6dc3 333e
000000b0: cf2a d53d 4656 023e fcb7 f03e b32f 593e
000000c0: a974 8cbd 75a4 083e 06f0 e6bd aad3 26be
000000d0: f6ae 1d3d 2aa1 0ebe b494 50bf 8dc5 b83c
000000e0: fdae f73e 1781 29be 6f39 d0bd 21e1 49be
000000f0: b4d8 0e3e 9cbb e5bd c600 e53d c0cd bf3e

layer2.weight f4 [64, 64]
-0.033072107 -0.21298684 0.047113914 -0.24446969 -0.14492522 0.110310055 -0.06281977 -0.51992613
0.17237416 -0.17922843 0.03138236 -0.09293592 0.2804841 0.2012688 -0.04168387 -0.1309264
0.16172734 -0.14412309 -0.14403309 0.03400835 -0.21315742 0.40337843 -0.039032727 0.16592188
0.31533524 -0.18260427 0.31502587 -0.38755593 0.019798767 0.10822872 -0.044743173 0.20149449
0.1114082 -0.24851812 0.14606644 0.0794643 -0.123086005 0.32351482 -0.05188072 -0.19890623
0.12741084 -0.07274723 0.14531215 -0.03834793 0.13988978 0.07554607 -0.26932862 0.050809745
0.05607936 -0.41590753 0.072269484 -0.09917239 -0.26130506 0.022388997 0.1471206 -0.12425207
0.05287626 -0.15086235 -0.17844735 0.32537428 -0.117525995 0.33087742 0.15804207 -0.14769763
-0.2725191 -0.0507517 0.0016165766 -0.032841314 -0.08181414 -0.28587845 -0.49539965 -0.12458484
-0.55482537 -0.30656424 -0.2526921 -0.0011534549 0.24791764 -0.25009158 -0.07518487 0.01486737
0.21088494 0.022065865 -0.070729546 0.025619099 -0.07165403 0.07013362 -0.1290517 0.10552118
0.22667375 -0.23626883 0.049391005 -0.39111167 -0.110871114 0.0053103305 -0.04139325 -0.043757126
0.2025216 0.13472171 -0.29149595 0.13928546 -0.020271135 -0.050055962 0.19372354 -0.11985342
-0.14837795 -0.1977301 0.08194606 0.0042243674 0.1287152 -0.053950526 -0.28853333 0.102448866
-0.121783674 0.107484974 0.21027854 -0.08543261 -0.027427204 -0.051559117 -0.6655255 -0.11180764
-0.09347214 -0.107101694 0.07541693 -0.03661808 0.07597213 0.0063271336 0.10478377 0.09097369
0.0013732606 -0.004511203 0.1466887 0.114941396 -0.21641397 -0.15128492 -0.24780957 -0.18332234
0.045094635 -0.01127278 -0.016705362 -0.19390693 0.13620213 0.15181811 -0.26423737 -0.054161236
-0.26019096 -0.04589033 -0.047777135 -0.09167571 -0.035528168 0.09359303 -0.16185716 0.103016995
0.14520991 0.01988742 0.18334761 -0.19493084 -0.17429087 0.08379911 -0.23452905 -0.10974866
0.027343435 -0.2799654 -0.07992595 0.19971944 -0.14095256 0.159902 0.056023866 0.11480739
0.12412224 -0.012488444 0.04611993 -0.08825355 0.13976255 0.04488346 -0.17992055 0.03939782
-0.1665658 0.020713737 -0.048632488 -0.22871415 -0.14335348 -0.14168374 -0.13783947 -0.062261604
0.025698604 -0.14559339 -0.16339244 -0.0650359 0.040427748 -0.035250317 0.13578391 -0.049955137
0.16347039 0.08365973 -0.12854989 0.105489284 0.14558189 0.016768435 -0.16300817 0.11068298
-0.022308713 0.109322265 -0.059030276 -0.011972253 0.035702616 0.1272201 0.06675208 0.18034433
-0.10334417 -0.20191778 0.112270355 0.06940419 0.02426258 -0.14075923 0.1689188 -0.040411536
-0.112005 0.30924976 -0.19260539 0.39704823 0.10300766 0.08671139 0.27383825 0.085262276
-0.25004584 0.18268925 0.03603 -0.31725717 -0.06255214 -0.0844467 -0.009395181 -0.024917388
0.11765434 0.014173348 -0.18557663 0.005430247 0.06103395 0.11224491 0.16351062 0.08926499
0.08567667 0.16090873 -0.09715747 -0.0038534617 0.06909385 0.020150065 -0.8652718 -0.011207609
0.1916039 0.025399096 0.041197564 -0.39487973 0.004290755 -0.23650989 -0.15251993 0.11984797
00000000: 9e76 07bd 3919 5abe 85fa 403d 4356 7abe
00000010: 4767 14be 3dea e13d a7a7 80bd e119 05bf
00000020: da82 303e a887 37be ca8a 003d 3055 bebd
00000030: 9d9b 8f3e 6919 4e3e b5bc 2abd 9211 06be
00000040: da9b 253e 0195 13be 697d 13be 574c 0b3d
00000050: f045 5abe 9e87 ce3e c8e0 1fbd 6de7 293e
00000060: 9f73 a13e 9dfc 3abe 124b a13e bb6d c6be
00000070: 0631 a23c 05a7 dd3d 9e44 37bd 9254 4e3e
00000080: fb29 e43d 897b 7ebe 7192 153e 2ebe a23d
00000090: 8414 fcbd bca3 a53e e180 54bd 13ae 4bbe
000000a0: fd77 023e 80fc 94bd b5cc 143e b812 1dbd
000000b0: 443f 0f3e e6b7 9a3d 71e5 89be e11d 503d
000000c0: 79b3 653d d5f1 d4be 0602 943d e51a cbbd
000000d0: c7c9 85be 2169 b73c c8a6 163e df77 febd
000000e0: c794 583d a97b 1abe e7ba 36be 7597 a63e
000000f0: 78b1 f0bd c468 a93e c8d5 213e 0c3e 17be
00000100: a087 8bbe 04e1 4fbd 4fe3 d33a 9d84 06bd
00000110: 2c8e a7bd a95e 92be 06a5 fdbe 5626 ffbd
00000120: 0909 0ebf fdf5 9cbe dc60 81be 862f 97ba
00000130: 1fde 7d3e 010c 80be 86fa 99bd 4596 733c
00000140: 39f2 573e 79c3 b43c a7da 90bd 25df d13c
00000150: 59bf 92bd 37a2 8f3d 2126 04be 7d1b d83d
00000160: 2a1d 683e 75f0 71be 394e 4a3d ca3f c8be
00000170: 6510 e3bd 4802 ae3b f88b 29bd ac3a 33bd
00000180: d361 4f3e 7df4 093e f53e 95be d9a0 0e3e
00000190: a70f a6bc 7b07 4dbd 775f 463e b675 f5bd
000001a0: 64f0 17be c279 4abe 56d3 a73d 906c 8a3b
000001b0: ebcd 033e 3afb 5cbd a4ba 93be b6d0 d13d
000001c0: b869 f9bd 1521 dc3d 4253 573e 4bf7 aebd
000001d0: 04af e0bc a72f 53bd e15f 2abf 67fb e4bd
000001e0: 526e bfbd 2258 dbbd 3174 9a3d d7fc 15bd
000001f0: 4797 9b3d d853 cf3b e098 d63d 6a50 ba3d
00000200: fbfe b33a b7d2 93bb 9035 163e 6566 eb3d
00000210: a09b 5dbe 6fea 1abe cbc1 7dbe dab8 3bbe
00000220: 27b5 383d 77b1 38bc afd9 88bc 8a8f 46be
00000230: 9278 0b3e 3576 1b3e 1f4a 87be 2cd8 5dbd
00000240: c037 85be 80f7 3bbd f5b1 43bd 7ac0 bbbd
00000250: fc85 11bd b4ad bf3d e2bd 25be 93fa d23d
00000260: e8b1 143e f1ea a23c 7abf 3b3e f39b 47be
00000270: 4e79 32be de9e ab3d 6228 70be e8c3 e0bd
00000280: 57ff df3c a057 8fbe 37b0 a3bd 4183 4c3e
00000290: de55 10be 5abd 233e 4879 653d 2320 eb3d
000002a0: cd33 fe3d 559c 4cbc 40e8 3c3d 47be b4bd
000002b0: ea1d 0f3e b8d7 373d 183d 38be 9c5f 213d
000002c0: 3a90 2abe dbaf a93c dc32 47bd 0b34 6abe
000002d0: 41cb 12be 8b15 11be ca25 0dbe 0606 7fbd
000002e0: e185 d23c 6f16 15be 5950 27be 8b31 85bd
000002f0: 9197 253d a362 10bd f00a 0b3e c29d 4cbd
00000300: c864 273e cb55 ab3d 95a2 03be c40a d83d
00000310: 6b13 153e f55d 893c 9deb 26be c2ad e23d
00000320: c3c0 b6bc 5ae4 df3d bbc9 71bd 4527 44bc
00000330: e83c 123d fc45 023e 51b5 883d 2fac 383e
00000340: 1ca6 d3bd 89c3 4ebe 00ee e53d c923 8e3d
00000350: 51c2 c63c 3023 10be 0df9 2c3e 9186 25bd
00000360: e162 e5bd fc55 9e3e 593a 45be e849 cb3e
00000370: aef5 d23d be95 b13d 8734 8c3e fd9d ae3d
00000380: 0206 80be e412 3b3e 3194 133d 886f a2be
00000390: 561b 80bd 64f2 acbd 3fee 19bc 8d1f ccbc
000003a0: c2f4 f03d 5537 683c cd07 3ebe 37f0 b13b
000003b0: bcfe 793d a9e0 e53d 546f 273e 90d0 b63d
000003c0: 4077 af3d 42c5 243e 7ffa c6bd 5c8a 7cbb
000003d0: 1481 8d3d c011 a53c 7482 5dbf 1fa0 37bc
000003e0: d033 443e c411 d03c c7be 283d ad2d cabe
000003f0: 7699 8c3b a62f 72be 2f2e 1cbe da72 f53d

layer2.bias f4 [64]
-0.14968255 0.042758238 0.076058865 0.31539068 0.15838237 -0.04705929 0.10513456 -0.08133998
-0.0379909 0.26690906 0.03370254 0.09058814 0.37123385 -0.034536224 0.0220182 -0.011734978
-0.015605542 0.06240707 0.015241353 0.08288875 0.06912844 0.14227766 0.057611063 -0.10999948
-0.11216527 0.005576315 -0.05339724 -0.03293245 -0.05699186 -0.0447635 0.09955486 -0.15299882
-0.1339528 -0.07012072 0.116932936 -0.04298727 -0.058608532 0.008560276 -0.058878843 0.21888164
-0.008916552 0.037317324 -0.058130667 0.11041113 0.060020123 0.04958763 -0.086310975 -0.111258276
0.20488594 0.34193063 -0.026064968 0.022186566 0.022418834 -0.06034505 0.122057594 -0.03079646
-0.027514841 -0.05996445 0.088354565 -0.10339041 0.1357255 -0.06249926 0.084071085 0.13154039
00000000: 6246 19be 4323 2f3d c0c4 9b3d e37a a13e
00000010: fd2e 223e 3ec1 40bd ca50 d73d 9395 a6bd
00000020: 599c 1bbd 4ea8 883e ad0b 0a3d 4686 b93d
00000030: 5d12 be3e db75 0dbd 835f b43c 1144 40bc
00000040: 63ae 7fbc 8e9e 7f3d deb6 793c 94c1 a93d
00000050: 3693 8d3d 3cb1 113e 94f9 6b3d 6847 e1bd
00000060: e8b6 e5bd 85b9 b63b 10b7 5abd 2de4 06bd
00000070: 4c70 69bd ef59 37bd 6be3 cb3d b9ab 1cbe
00000080: ec2a 09be 749b 8fbd 897a ef3d 6b13 30bd
00000090: 800f 70bd 6640 0c3c f12a 71bd 8222 603e
000000a0: bb16 12bc 0dda 183d 6c1a 6ebd 3b1f e23d
000000b0: a9d7 753d 661c 4b3d cfc3 b0bd 61db e3bd
000000c0: 9fcd 513e 8811 af3e 3386 d5bc 9ac0 b53c
000000d0: b4a7 b73c 5f2c 77bd 55f9 f93d dc48 fcbc
000000e0: ce66 e1bc 489d 75bd 3df3 b43d 5abe d3bd
000000f0: a0fb 0a3e 39ff 7fbd 762d ac3d 86b2 063e

layer3.weight f4 [2, 64]
0.60803306 0.17051312 0.29447708 -0.46454045 -0.009027787 0.20979425 -0.09156374 0.27850658
0.47301784 -0.18201184 -0.029882332 -0.030633487 -0.28823513 -0.27708277 0.27484822 -0.15546523
0.57927006 -0.051642995 0.23784511 -0.06381348 -0.09218511 0.012797018 -0.2797624 0.43675023
0.19361062 0.16520922 0.03271967 0.10118329 -0.08596469 0.08454363 -0.24167629 0.14136362
0.509713 0.18706754 -0.072593845 0.39846203 -0.055521157 -0.019136788 -0.30374724 -0.3113781
0.17867514 -0.08159152 -0.10743513 0.074140415 0.22407027 -0.025544394 0.08996031 0.2777276
-0.25055328 -0.32723632 0.30296183 0.5172271 0.5069674 -0.1619743 0.012412833 0.19336395
0.102963515 0.36648065 0.21647875 -0.022123385 0.3939491 0.18925911 0.047643743 0.15058927
-0.64073986 -0.274043 -0.29731157 0.45388082 -0.14277618 -0.35391876 0.10309541 -0.37342563
-0.3664463 0.1640357 0.03654166 0.15816632 0.2939593 0.3117701 -0.26897964 -0.014827522
-0.64795756 0.08426799 -0.17638576 0.06969409 -0.045085363 0.030822758 0.35652727 -0.5796846
-0.2916702 -0.18019599 0.07418265 -0.09842867 0.2015678 0.11586384 0.16196242 -0.039260652
-0.5319522 -0.19678704 0.087243564 -0.37047327 0.17066473 -0.047718186 0.23958619 0.2569264
-0.23161158 0.018279059 0.015760856 -0.0056765405 -0.40339997 -0.03709058 -0.10335829 -0.36281368
0.23421334 0.45340812 -0.33311376 -0.44254556 -0.47040975 0.09997379 0.064824015 -0.077641994
-0.1568704 -0.26362944 -0.07941337 -0.011068754 -0.2315975 -0.15754189 0.05913515 0.016282545
00000000: 0ea8 1b3f fe9a 2e3e b3c5 963e 3fd8 edbe
00000010: 48e9 13bc 4ed4 563e c585 bbbd 6a98 8e3e
00000020: 652f f23e 5061 3abe cbcb f4bc 14f3 fabc
00000030: 8e93 93be cbdd 8dbe e8b8 8c3e 4732 1fbe
00000040: 0b4b 143f 9b87 53bd ab8d 733e a4b0 82bd
00000050: 8ccb bcbd 95aa 513c 043d 8fbe ba9d df3e
00000060: dd41 463e 9b2c 293e 1005 063d 2f39 cf3d
00000070: 410e b0bd 3625 ad3d fd79 77be a0c1 103e
00000080: 8d7c 023f a28e 3f3e 15ac 94bd 3703 cc3e
00000090: 276a 63bd c1c4 9cbc c284 9bbe f36c 9fbe
000000a0: 9ef6 363e 7419 a7bd f306 dcbd eed6 973d
000000b0: ad72 653e 7a42 d1bc 1c3d b83d 5032 8e3e
000000c0: 8548 80be 858b a7be d01d 9b3e ff68 043f
000000d0: 9ec8 013f 97dc 25be 325f 4b3c 3301 463e
000000e0: 89de d23d 5aa3 bb3e 9bac 5d3e 1a3c b5bc
000000f0: b2b3 c93e 24cd 413e 1626 433d 1334 1a3e
00000100: 8707 24bf 5d4f 8cbe 3939 98be 1163 e83e
00000110: eb33 12be d734 b5be b023 d33d a531 bfbe
00000120: d99e bbbe f9f8 273e b5ac 153d 5af6 213e
00000130: d581 963e 55a0 9f3e b3b7 89be 23ef 72bc
00000140: 8ce0 25bf b294 ac3d 789e 34be c6bb 8e3d
00000150: 6eab 38bd 0280 fc3c be8a b63e 3666 14bf
00000160: cc55 95be 4c85 38be 13ed 973d f894 c9bd
00000170: ca67 4e3e 054a ed3d 7ad9 253e c7cf 20bd
00000180: 052e 08bf 8b82 49be c1ac b23d acae bdbe
00000190: bcc2 2e3e 2574 43bd 1556 753e db8b 833e
000001a0: 962b 6dbe f7bd 953c e91c 813c 4602 babb
000001b0: 718a cebe 4bec 17bd 83ad d3bd b7c2 b9be
000001c0: 9fd5 6f3e 1c25 e83e e38d aabe 5595 e2be
000001d0: 8cd9 f0be 0fbf cc3d 74c2 843d c402 9fbd
000001e0: a2a2 20be 70fa 86be 7aa3 a2bd b859 35bc
000001f0: e527 6dbe a952 21be b337 723d f962 853c

layer3.bias f4 [2]
-0.12455191 0.094449
00000000: 1215 ffbd 7a6e c13d

exp_avg f4 [64, 10]
-0.00083929603 0.0010594503 -0.0029672561 -0.00028054634 -0.0006264102 3.0352407e-05 0.0022863783 -0.0008913658
0.0021692964 -0.0008845327 0.00093217636 0.0025918954 -0.00015595001 -0.001061376 0.0010074009 -0.00023056714
-0.0004929454 0.00020612327 -0.0012952862 -0.00071340986 -0.00050793553 -0.0011436958 0.0020713299 0.0004342802
-0.00054881215 -0.00048679518 -0.0005284159 0.000117946285 -0.00020313077 0.00059866876 0.00023478505 -0.0006501462
-0.00027174014 0.00020828971 0.00023958668 -9.627266e-05 -0.0006662983 0.00042559442 -0.00047751417 -0.00094185927
0.0013045183 -0.0012830362 -0.0011121492 0.0010354847 0.0012411322 0.001993339 0.0010856407 0.00057907624
-0.0018485534 -0.00040807546 0.0008018414 -0.0013661465 -0.0007137223 0.0007382029 0.0007304303 0.002060817
0.0005465212 0.00045150152 -0.0012882019 -0.0001163308 -0.0005400763 0.0005599059 -0.0005238019 -0.00035632864
-0.0004761443 -0.0011815447 -0.00044597013 0.0001949368 0.0009834061 0.0002523549 0.0010391508 0.0026242158
0.0004045343 -0.0004067425 0.0009892014 -8.5171254e-05 -0.0012576014 0.0003695999 -0.0009660102 -0.0018440204
8.491481e-06 9.487382e-05 -0.00033555168 7.962539e-05 1.924581e-05 0.00029102198 -4.6857378e-05 4.0075698e-05
0.00019976044 -0.00049359613 0.0021016113 0.0037131186 3.2246153e-05 -0.000905314 0.0019172821 -0.002130128
-1.0234912e-05 0.00084847 -0.003599005 -0.0019686597 -2.0681677e-05 -0.00033036934 0.00036457545 0.00043828043
-0.000117053874 0.0006277894 0.00017388978 -0.000112083355 6.5152424e-05 0.0001180466 0.00052592694 0.001244596
-0.0018062145 0.00025750586 0.00051571376 0.00012278665 0.0021828671 -0.0005032183 -0.00018804955 -0.0012724944
-0.0009633142 -0.0039439574 0.0025291608 0.0006176881 -0.0010264519 0.002673876 -0.00082060427 9.024057e-05
0.0007488372 0.0021569694 0.0004757624 0.00064372097 0.00075761473 -2.169266e-05 0.0004663349 -0.00080687477
-0.00032052494 0.00044945083 -0.0011277716 -0.0002565016 -2.111529e-05 -0.00027082468 -0.00036168747 -0.0001088199
9.942468e-06 0.0011559117 0.00021404584 -0.00035873012 0.00038405156 -0.00081788306 0.0011846359 -0.0018932217
-0.0012034929 0.0011662138 0.0010695056 0.0025676154 0.0009873426 0.00026505164 -0.0020500312 -0.00050291885
-0.00025068442 -0.0003836813 0.00052038685 0.00034521878 -0.00038722245 -0.00026198712 0.00044977976 -0.000646051
3.830199e-05 0.00023304681 -0.0011862391 -0.0025130748 0.0005291686 -0.00078268605 -0.0011501972 0.0009641743
-0.00034522358 -0.0008480774 0.002977067 0.00020373108 0.0005639821 0.0012278808 -0.0020335333 -0.0001408122
0.0006020622 -0.00031449765 0.0005834151 8.3691404e-05 -0.00037395384 -0.0003928305 -0.0003246911 -0.0005218203
0.0010849615 -0.0001609743 -0.00033577028 -0.0003591101 -0.0006009174 -5.1162304e-05 0.00023155907 1.642417e-05
8.259957e-05 -0.00017782579 -0.0001499967 -0.00017833972 7.500367e-05 0.00031268926 -0.00046290824 -0.00012680933
-0.00038029623 -8.936123e-05 -0.0011321359 -0.0010106845 0.00316688 -4.0592648e-05 -0.0011205046 -0.0009879624
-0.0005175798 -0.00025422356 0.0005736618 0.00030056492 -0.00066802837 0.0022154814 -0.0010434424 -0.0011027812
-0.00050368736 -0.0017736226 -2.4868501e-05 -0.0004509769 0.00228425 7.225233e-05 -0.0006763383 -0.0023072301
0.0017310891 0.00042151706 -0.0006843593 0.00066905154 -0.00084189035 0.00019434455 0.00045439845 0.00039872897
-0.001879732 -0.0030300491 0.0052647567 -0.0004657814 -0.0018605083 -0.001361578 -0.0030577818 -0.00025127217
0.0018626463 0.00034273858 0.00018797474 0.006829031 -0.0008371684 -0.0017106886 0.00040528522 -0.0038149902
00000000: 3404 5cba 41dd 8a3a 4c76 42bb 4b16 93b9
00000010: ad35 24ba 4c9d fe37 10d7 153b 8caa 69ba
00000020: c12a 0e3b fcdf 67ba 4c5d 743a cadc 293b
00000030: 8386 23b9 de1d 8bba c40a 843a 65c4 71b9
00000040: 0139 01ba cb22 5839 98c6 a9ba 2004 3bba
00000050: fa26 05ba 10e8 95ba 26bf 073b 1ab0 e339
00000060: 29de 0fba 8b38 ffb9 6485 0aba ee59 f738
00000070: 80ff 54b9 fbef 1c3a a230 7639 936e 2aba
00000080: 5878 8eb9 5868 5a39 8f39 7b39 fee5 c9b8
00000090: 86aa 2eba 5122 df39 de5a fab9 1be7 76ba
000000a0: 5ffc aa3a 8d2b a8ba 89c5 91ba 1ab9 873a
000000b0: 7cad a23a aea2 023b 0f4c 8e3a 26cd 173a
000000c0: 294b f2ba f6f2 d5b9 aa32 523a 4510 b3ba
000000d0: 1819 3bba f583 413a 597a 3f3a c60e 073b
000000e0: 6b44 0f3a 82b7 ec39 e2d8 a8ba 9ff6 f3b8
000000f0: e893 0dba a6c6 123a c04f 09ba 9fd1 bab9
00000100: 02a3 f9b9 10de 9aba 19d1 e9b9 f367 4c39
00000110: a2e5 803a 804e 8439 1d34 883a 09fb 2b3b
00000120: ad17 d439 0e40 d5b9 17a8 813a f89d b2b8
00000130: 1ad6 a4ba dcc6 c139 d93b 7dba 0fb3 f1ba
00000140: a276 0e37 fff6 c638 fcec afb9 8efc a638
00000150: 1072 a137 4f94 9839 ba88 44b8 f416 2838
00000160: c976 5139 ad64 01ba 30bb 093b cb57 733b
00000170: 0b40 0738 9852 6dba 504d fb3a 9e99 0bbb
00000180: 9db6 2bb7 dc6b 5e3a 49dd 6bbb a104 01bb
00000190: 907d adb7 6c35 adb9 7d24 bf39 01c9 e539
000001a0: d27a f5b8 3c92 243a 2f56 3639 4b0e ebb8
000001b0: 71a2 8838 c98f f738 5cde 093a b621 a33a
000001c0: 80be ecba da01 8739 f730 073a 4ac0 0039
000001d0: 6f0e 0f3b 69ea 03ba 2b2f 45b9 d4c9 a6ba
000001e0: ec86 7cba 503c 81bb 47c0 253b 59ec 213a
000001f0: 038a 86ba 323c 2f3b d21d 57ba 8a3f bd38
00000200: 9d4d 443a f15b 0d3b c06f f939 62bf 283a
00000210: aa9a 463a a2f8 b5b7 697e f439 7384 53ba
00000220: 210c a8b9 45a4 eb39 bcd1 93ba 107b 86b9
00000230: bd20 b1b7 79fd 8db9 dfa0 bdb9 3d36 e4b8
00000240: 93ce 2637 f681 973a 7e71 6039 f113 bcb9
00000250: 875a c939 3467 56ba c945 9b3a fb25 f8ba
00000260: 85be 9dba a4db 983a a72e 8c3a 7045 283b
00000270: b869 813a a1f6 8a39 d159 06bb 50d6 03ba
00000280: 4b6e 83b9 d528 c9b9 926a 083a 7bfe b439
00000290: 1e04 cbb9 515b 89b9 6bd0 eb39 c05b 29ba
000002a0: 73a6 2038 075e 7439 947b 9bba 66b2 24bb
000002b0: e7b7 0a3a 2c2d 4dba 37c2 96ba a4c0 7c3a
000002c0: 20ff b4b9 8351 5eba e51a 433b a5a0 5539
000002d0: 33d8 133a d8f0 a03a 0745 05bb fda6 13b9
000002e0: b6d3 1d3a 29e3 a4b9 53f0 183a 7b83 af38
000002f0: 3c0f c4b9 d1f4 cdb9 4d3b aab9 c4ca 08ba
00000300: 4435 8e3a 36cb 28b9 530a b0b9 f146 bcb9
00000310: e286 1dba 1b97 56b8 aace 7239 a3c6 8937
00000320: 4e39 ad38 bf76 3ab9 6f48 1db9 b400 3bb9
00000330: 4a4b 9d38 71f0 a339 7eb2 f2b9 1ff8 04b9
00000340: 7f62 c7b9 7267 bbb8 2d64 94ba f278 84ba
00000350: 6e8b 4f3b 0642 2ab8 e5dd 92ba 847e 81ba
00000360: 31ae 07ba 4f49 85b9 cb61 163a 2495 9d39
00000370: a01e 2fba 9c31 113b 1ec4 88ba 328b 90ba
00000380: e309 04ba e678 e8ba b39c d0b7 1871 ecb9
00000390: 5bb3 153b 2d86 9738 4c4c 31ba e634 17bb
000003a0: b6e5 e23a 10ff dc39 9366 33ba 4a63 2f3a
000003b0: 4eb2 5cba f8c8 4b39 543c ee39 7f0c d139
000003c0: 5761 f6ba ca93 46bb fb83 ac3b 1f34 f4b9
000003d0: 4ddc f3ba fa76 b2ba 1165 48bb 2ebd 83b9
000003e0: 0a24 f43a 98b1 b339 161b 4539 10c6 df3b
000003f0: 6c75 5bba 2f39 e0ba 767c d439 ea04 7abb

exp_avg_sq f4 [64, 10]
3.032397e-05 6.593148e-05 3.5979923e-05 2.1165719e-05 2.7224492e-05 7.830859e-05 3.279325e-05 2.2961724e-05
0.00011486367 7.6743e-05 1.9617768e-05 4.4556946e-05 2.468209e-05 1.5339596e-05 1.7757457e-05 4.2474327e-05
2.491956e-05 1.564345e-05 5.451968e-05 1.3201194e-05 2.0607673e-05 4.394081e-05 2.696693e-05 1.5912314e-05
1.8015538e-05 4.6489644e-05 2.4945364e-05 1.3861478e-05 6.594014e-05 9.742279e-06 1.5931661e-06 5.318581e-06
1.7743224e-06 1.3728228e-06 1.3868163e-06 4.6092837e-06 1.6548292e-06 1.166413e-06 9.633228e-06 7.07376e-06
6.78183e-06 1.703549e-05 9.42784e-06 5.5293317e-06 6.0196526e-06 1.6473285e-05 9.162164e-06 5.339065e-06
2.1030113e-05 2.604185e-06 7.3791016e-06 1.8373616e-05 8.597771e-06 4.4054636e-06 6.5865006e-06 1.937602e-05
7.945821e-06 5.692461e-06 3.181286e-05 1.6144666e-05 1.1094863e-06 1.9093616e-06 1.42977e-06 1.2292518e-06
9.0733903e-07 4.1334556e-06 1.2764472e-06 3.7753196e-07 5.230154e-06 1.5275404e-05 8.1527605e-06 1.8777393e-05
9.741803e-06 5.933774e-06 7.03941e-06 1.880591e-05 1.13800015e-05 6.394335e-06 2.319371e-05 4.010995e-05
6.777004e-07 9.806573e-07 1.0568465e-06 7.677341e-07 5.525995e-07 2.37732e-06 1.2169977e-06 6.5474643e-07
1.8332221e-06 1.7108396e-05 2.732395e-05 6.130364e-05 3.1582524e-05 1.889343e-05 2.445529e-05 6.35816e-05
3.2873562e-05 2.181241e-05 9.835489e-05 6.323958e-05 1.5854455e-06 3.665991e-06 3.8804214e-06 1.2382051e-06
1.3072836e-06 4.2379024e-06 1.6890688e-06 1.2426796e-06 4.3481273e-06 5.331491e-07 2.026587e-05 5.1958235e-05
2.1620779e-05 1.4582579e-05 1.784707e-05 4.657897e-05 2.315086e-05 1.4628331e-05 8.079964e-05 2.8063221e-05
4.259385e-05 8.72664e-05 4.9988532e-05 2.971645e-05 3.807883e-05 9.933306e-05 4.7400674e-05 3.2640844e-05
0.00013412692 9.695451e-05 2.0588686e-06 7.5016055e-06 2.2135184e-06 1.0164955e-06 1.7215149e-06 6.33003e-06
2.353181e-06 1.0434069e-06 1.3710535e-05 5.610039e-07 4.2574616e-06 8.690183e-06 4.8108354e-06 2.9015243e-06
3.6225704e-06 1.2279325e-05 4.7110034e-06 2.609772e-06 1.8372397e-05 1.0576393e-05 6.7448086e-06 1.6541919e-05
7.98913e-06 5.410277e-06 5.8700393e-06 1.7731847e-05 8.648878e-06 4.4086005e-06 2.5769283e-05 2.5162433e-06
8.307969e-06 1.1506172e-05 1.0870495e-05 5.954416e-06 8.257363e-06 2.9625911e-05 1.0048591e-05 1.0516674e-05
2.908528e-05 4.4123102e-05 6.7706237e-06 3.2080192e-05 7.253334e-06 6.2116687e-06 5.7594348e-06 1.4196433e-05
7.761453e-06 3.7877776e-06 4.540338e-05 4.2259417e-06 1.1964991e-05 2.789673e-05 1.754935e-05 1.0315913e-05
1.07014175e-05 2.88891e-05 1.6459766e-05 9.417995e-06 4.2350726e-05 8.215869e-06 5.3050435e-06 1.2698204e-05
6.671066e-06 4.3712766e-06 4.6967234e-06 1.3545119e-05 5.2258265e-06 3.7144357e-06 1.968209e-05 3.160684e-06
1.6429689e-06 3.8724165e-06 2.3215728e-06 1.5239782e-06 1.4950962e-06 3.7672844e-06 2.4090168e-06 1.6279e-06
5.6756858e-06 5.1415427e-06 2.4384279e-05 4.9792696e-05 3.271552e-05 2.1062382e-05 2.192363e-05 5.0499253e-05
3.3196426e-05 1.9214283e-05 5.602376e-05 1.0094336e-05 7.817292e-06 2.2099637e-05 9.881498e-06 5.327382e-06
6.915251e-06 1.6662192e-05 9.415601e-06 5.8651076e-06 3.0676645e-05 3.1262778e-06 2.241229e-05 5.1391846e-05
2.5767305e-05 1.5683763e-05 1.951412e-05 5.3691467e-05 2.5361784e-05 1.4160852e-05 8.382241e-05 1.40413e-05
7.9195575e-05 0.00015835321 0.000100223304 6.129926e-05 6.902701e-05 0.00017008843 9.712502e-05 5.5993303e-05
0.0002390416 7.861692e-05 4.7458685e-05 0.00012224658 6.0866598e-05 3.3428114e-05 4.1361833e-05 0.00011482108
00000000: 3b60 fe37 b244 8a38 26e9 1638 098d b137
00000010: 2760 e437 9b39 a438 7c8b 0938 ed9d c037
00000020: f7e2 f038 16f1 a038 d690 a437 a8e2 3a38
00000030: 620c cf37 88ad 8037 d9f5 9437 7626 3238
00000040: 590a d137 0e3a 8337 10ac 6438 b27a 5d37
00000050: a4de ac37 164d 3838 0b37 e237 6f7b 8537
00000060: 1320 9737 e0fd 4238 c341 d137 988e 6837
00000070: 5849 8a38 c572 2337 c5d4 d535 4376 b236
00000080: 4125 ee35 d541 b835 a522 ba35 72a9 9a36
00000090: 801b de35 a58d 9c35 669e 2137 235b ed36
000000a0: 7a8f e336 70e7 8e37 442c 1e37 9988 b936
000000b0: 6cfc c936 1c30 8a37 32b7 1937 3826 b336
000000c0: d369 b037 8fc3 2e36 009a f736 0a21 9a37
000000d0: 253f 1037 a5d2 9336 9c01 dd36 b089 a237
000000e0: 0b4f 0537 de01 bf36 cc6e 0538 686e 8737
000000f0: a9e9 9435 9522 0036 86e6 bf35 c5fc a435
00000100: dd8f 7335 1db2 8a36 6452 ab35 99af ca34
00000110: ae7e af36 ae23 8037 d7c7 0837 2584 9d37
00000120: ba70 2337 bb1a c736 1234 ec36 62c1 9d37
00000130: bcec 3e37 eb8e d636 1d90 c237 bb3b 2838
00000140: 38eb 3535 219f 8335 f8d8 8d35 4916 4e35
00000150: 5956 1435 0c8a 1f36 b957 a335 d5c1 2f35
00000160: 080d f635 0084 8f37 bc35 e537 2490 8038
00000170: 7a77 0438 557d 9e37 5625 cd37 1d57 8538
00000180: b8e1 0938 cbf9 b637 e143 ce38 7e9f 8438
00000190: 7ecb d435 3f05 7636 9134 8236 6730 a635
000001a0: ec75 af35 4e33 8e36 f6b3 e235 25ca a635
000001b0: 21e6 9136 ba1d 0f35 a000 aa37 bbed 5938
000001c0: 455e b537 b3a7 7437 4ab6 9537 ca5d 4338
000001d0: 1834 c237 346c 7537 fa72 a938 4f69 eb37
000001e0: cca6 3238 cb02 b738 c7aa 5138 9747 f937
000001f0: d5b6 1f38 0851 d038 16d0 4638 d7e7 0838
00000200: 6ca4 0c39 0e54 cb38 182b 0a36 4db6 fb36
00000210: f58b 1436 856e 8835 cd0e e735 8b66 d436
00000220: 57eb 1d36 300b 8c35 4d06 6637 e597 1635
00000230: 51db 8e36 0dcc 1137 c36c a136 cfb7 4236
00000240: 491b 7336 4d03 4e37 3613 9e36 8b23 2f36
00000250: 6c1e 9a37 4371 3137 7751 e236 80c3 8a37
00000260: 0d09 0637 ed89 b536 41f7 c436 dabe 9437
00000270: a61a 1137 97ed 9336 1d2b d837 bbdc 2836
00000280: 7562 0b37 a20a 4137 6c60 3637 0bcc c736
00000290: 1b89 0a37 2985 f837 5f96 2837 c570 3037
000002a0: 2afc f337 d210 3938 372f e336 d88d 0638
000002b0: aa61 f336 d46d d036 2b41 c136 372d 6e37
000002c0: 3037 0237 8631 7e36 826f 3e38 90cc 8d36
000002d0: 3fbd 4837 c603 ea37 f136 9337 8212 2d37
000002e0: 3d8a 3337 df56 f237 1413 8a37 fb01 1e37
000002f0: bfa1 3138 e3d6 0937 fa01 b236 5f0a 5537
00000300: 05d8 df36 fbac 9236 8c98 9d36 d83f 6337
00000310: 8259 af36 8545 7936 f71a a537 231c 5436
00000320: fb83 dc35 ceef 8136 51cc 1b36 7e8b cc35
00000330: 1dab c835 74d1 7c36 98aa 2136 387e da35
00000340: c571 be36 8485 ac36 d78c cc37 80d8 5038
00000350: 0638 0938 1faf b037 a3e8 b737 29cf 5338
00000360: 643c 0b38 5c2e a137 0efb 6a38 d85a 2937
00000370: 0327 0337 9c62 b937 b6c8 2537 ddc1 b236
00000380: 8e09 e836 c9c5 8b37 b3f7 1d37 e4cc c436
00000390: ccaa 0038 0bcd 5136 0702 bc37 938d 5738
000003a0: de26 d837 a090 8337 41b2 a337 c632 6138
000003b0: 04c0 d437 6594 6d37 d0c9 af38 ed92 6b37
000003c0: cd15 a638 9e0b 2639 fa2e d238 ca8d 8038
000003d0: 98c2 9038 c459 3239 99af cb38 5ada 6a38
000003e0: 3ea7 7a39 23df a438 600e 4738 512f 0039
000003f0: 034b 7f38 2a35 0c38 ee7b 2d38 19cc f038

exp_avg f4 [64]
0.0010445551 -0.0013338769 0.000681219 -0.0002343151 -0.0015287175 -0.00077140145 0.0006271862 -0.0015543612
1.6023096e-05 -0.0026484767 -7.931045e-05 -0.0006688612 0.0012312103 -0.0004965111 6.541888e-05 -0.0012403845
0.00024304612 0.000974924 -0.0006820943 0.00030970338 -0.00021322037 0.001567765 0.00069677434 0.00082418416
0.0021625834 -9.087743e-05 0.0008795639 0.00014910552 -0.0003531632 0.00054026063 -0.0006383382 0.0004825394
0.0012247119 0.00014294928 0.0005401222 -0.00017687694 0.00011004366 0.0009982385 -3.1215066e-05 -0.0002767508
0.0003365485 -7.652793e-05 0.00042123205 0.0004265606 0.00043433855 0.00063497847 -0.0023917938 -0.00040375232
0.00017196374 -0.00033507438 0.0002697149 0.0006318044 0.00011754149 0.0007575331 6.940138e-05 -0.00053228054
-0.00017787532 -0.00063244905 0.00036156588 9.356942e-05 1.9580477e-05 0.00048198953 0.0012712519 -0.0008025474
00000000: 74e9 883a 7bd5 aeba d593 323a 7bb2 75b9
00000010: 3f5f c8ba e037 4aba c169 243a b5bb cbba
00000020: 5669 8637 1192 2dbb 7953 a6b8 8456 2fba
00000030: 9060 a13a 4c28 02ba 7e31 8938 6694 a2ba
00000040: 32da 7e39 0b92 7f3a 93ce 32ba af5f a239
00000050: e893 5fb9 777d cd3a bca7 363a 100e 583a
00000060: 21ba 0d3b 7395 beb8 8992 663a 3559 1c39
00000070: c328 b9b9 47a0 0d3a 2756 27ba 58fd fc39
00000080: 8386 a03a a8e4 1539 fd96 0d3a 0b78 39b9
00000090: 3dc7 e638 53d7 823a ecec 02b8 dd18 91b9
000000a0: c672 b039 9f7d a0b8 cfd8 dc39 ffa3 df39
000000b0: efb7 e339 af74 263a a4bf 1cbb b8ae d3b9
000000c0: 2a51 3439 ecac afb9 8568 8d39 ad9f 253a
000000d0: 9b80 f638 3095 463a 958b 9138 be88 0bba
000000e0: 0b84 3ab9 f0ca 25ba 8d90 bd39 b33a c438
000000f0: c140 a437 8ab3 fc39 23a0 a63a 0b62 52ba

exp_avg_sq f4 [64]
3.710119e-05 2.6873278e-05 2.7618717e-05 1.8184386e-06 9.253068e-06 8.500807e-06 1.3273404e-06 1.0731277e-05
1.1095705e-06 3.381787e-05 2.7527185e-06 2.4326953e-05 5.2569743e-05 2.4187716e-06 5.1299344e-06 8.3795585e-06
1.0958546e-05 7.6196966e-06 1.6831451e-05 5.995558e-06 2.4255182e-06 3.4071596e-05 9.680115e-06 2.7231656e-05
0.00010544213 6.129257e-05 6.926427e-05 0.00018781229 4.15052e-06 4.937206e-06 2.921326e-05 1.965507e-06
1.493786e-05 2.085897e-06 2.084431e-06 3.226542e-05 6.9537003e-07 5.3908952e-05 1.8095913e-06 1.6632034e-06
2.2518993e-06 4.5656184e-06 1.84944e-05 4.697722e-06 4.5932907e-06 3.3770127e-06 4.739046e-05 1.942757e-06
4.639396e-06 1.337367e-05 1.8136185e-05 1.1437871e-05 1.9353422e-05 3.576194e-06 5.3386226e-05 3.0065328e-06
1.4493269e-06 1.4808324e-05 7.3668025e-06 5.748621e-05 8.461086e-06 4.5735895e-05 4.2242937e-05 3.3279307e-06
00000000: 199d 1b38 ed6d e137 beae e737 1311 f435
00000010: a03d 1b37 b09e 0e37 1227 b235 7c0a 3437
00000020: 8dec 9435 a9d7 0d38 58bb 3836 bc11 cc37
00000030: 557e 5c38 2e52 2236 cd21 ac36 ee95 0c37
00000040: 99da 3737 b2ac ff36 4431 8d37 732d c936
00000050: 16c6 2236 19e8 0e38 c767 2237 896f e437
00000060: d020 dd38 338a 8038 f941 9138 7aef 4439
00000070: b244 8b36 47aa a536 000f f537 27e7 0336
00000080: 9f9d 7a37 70fb 0b36 40e2 0b36 bb54 0738
00000090: 77a9 3a35 4c1c 6238 15e1 f235 3c3b df35
000000a0: 561f 1736 5d32 9936 6c24 9b37 20a1 9d36
000000b0: 1120 9a36 a3a0 6236 1ec5 4638 5060 0236
000000c0: 1cac 9b36 7a5f 6037 2923 9837 48e5 3f37
000000d0: 2859 a237 8cfe 6f36 06eb 5f38 d7c3 4936
000000e0: 7e86 c235 4471 7837 5a30 f736 591d 7138
000000f0: 16f4 0d37 8bd4 3f38 022e 3138 6a55 5f36

exp_avg f4 [64, 64]
0.00048377315 0.0004176504 0.00048186816 0.00024326339 0.00067822455 0.0004539402 3.448571e-05 0.0004574239
-3.230266e-05 0.00024063802 2.2411963e-05 0.00106408 0.0006265226 0.00041945564 0.00033625576 0.00052013027
0.00034304644 0.00016077791 3.218604e-05 0.0003801504 0.00025275175 0.00017347936 0.0003972728 0.000992078
0.00066492753 0.00028733304 0.00015195317 0.0004299157 0.0006914184 0.000820116 0.00035453885 0.0007814335
0.000706181 3.7112946e-05 0.00033324226 0.00064423104 0.00010612088 0.00035190696 0.00025737454 0.00013753094
1.23788295e-05 0.00025192223 0.00011180419 0.0004676757 0.00015336538 0.00068598014 0.00030977384 0.0002139778
0.00062573305 6.2773506e-05 0.0007517962 0.00010955914 -2.555891e-05 0.00024774042 4.0135014e-06 0.0002938726
0.0004760697 0.0003523165 8.4655825e-05 0.00035975748 4.0052575e-05 0.0005138864 0.00045892425 0.00033054533
-0.00017729233 9.646982e-05 -0.00017018791 -5.577768e-05 -0.00013015528 -5.329973e-05 -1.1908404e-06 0.00023064345
2.5415811e-06 6.427619e-05 4.596537e-06 -2.0771147e-05 -2.1303978e-05 2.052361e-05 7.913657e-05 -2.513746e-05
-2.6366217e-06 8.90647e-05 -0.00029656175 -4.77363e-05 -3.713755e-05 -4.5502293e-05 -0.00023532182 -0.00018190789
9.130766e-06 -3.274767e-05 -8.048971e-05 -2.233394e-05 0.0002018104 -2.0473153e-05 0.00014404181 -0.00018671757
0.000109614775 -3.0812815e-05 -2.4575957e-05 -0.00019812526 -9.367926e-05 1.6252465e-05 5.47486e-05 -1.033615e-06
3.5249996e-05 1.4015412e-05 -4.9590402e-05 -9.601637e-05 8.512661e-05 6.075349e-06 -3.1819134e-05 -8.842349e-05
-1.2576824e-05 -0.0002508249 0.000120448305 -0.00012088565 -5.3182857e-06 -0.000110212146 -3.1691783e-05 0.00011879682
-2.0943959e-05 2.511347e-05 -0.00024762782 5.1076193e-05 0.00015153649 -8.018256e-05 7.9925565e-05 -0.0002525022
-0.00016669718 9.788768e-06 -2.7414659e-05 -1.0323927e-05 2.5568495e-05 -5.45573e-06 -4.5961064e-05 0.0001304039
-6.6589564e-05 -5.679128e-05 -9.508804e-07 -4.0942352e-05 9.7418866e-05 9.173061e-05 -8.2815e-05 -1.5057293e-05
-1.29974105e-05 2.0044501e-05 -0.00014284838 -0.00010810878 -3.753757e-05 -9.745116e-05 5.944424e-05 -6.62007e-05
-2.5159723e-05 2.1079009e-06 2.67691e-05 -0.00010791313 -0.00010566996 -3.8087754e-05 -0.0001238148 -0.000111178604
-6.103657e-05 -3.3643995e-05 3.2018186e-05 -1.2915856e-05 -3.1289862e-06 -2.2897158e-05 5.777406e-05 -3.6195364e-05
-0.00023053611 -7.6090255e-05 -5.4634696e-05 3.120497e-05 -6.733725e-05 -7.506801e-05 -1.1135912e-05 8.506595e-06
1.1434674e-05 7.710768e-06 5.0304818e-05 -2.5715215e-05 -2.6505131e-05 1.660399e-05 -8.396809e-06 -0.000103044586
-1.4735045e-05 -5.0869916e-05 -2.8694105e-05 -5.2662686e-05 -0.00011030398 -7.441149e-05 -0.00021577443 2.5392676e-05
-8.274615e-06 -0.00015324746 1.7774786e-05 -0.0002535886 -0.00070670655 -0.0002816693 0.00017147136 -0.00013912615
-8.0423135e-09 -0.00017764853 0.00013237892 -0.0006402257 -0.00052196725 -0.00029465207 -0.00033275306 -0.00042611407
-0.00021647617 -0.0001547066 0.0003896712 -0.0001567789 0.00026307168 -8.038477e-05 1.8100198e-05 -0.00044620153
-0.000503633 0.00015272878 8.120868e-05 -0.00029368675 -0.00034628244 -0.00057793915 -9.579783e-06 -0.00045966197
-0.00047082294 0.000105612045 0.00012535523 -0.00012321456 0.00010854811 -0.00025049422 -0.00053587346 -8.8739514e-05
0.00033478264 -8.356447e-05 0.0002782411 -0.0002536861 -2.3431952e-05 -0.00036000766 -0.00025226336 -0.00011366791
-0.00050240796 3.6457805e-05 -0.00042225333 -0.00011751109 0.00021871607 8.022544e-06 7.4690274e-06 0.00014503379
-0.0005838393 -0.00022691605 -5.1160616e-05 -0.00030793872 0.00040874266 -0.00034431845 0.00020624761 0.0001051115
00000000: efa2 fd39 16f8 da39 40a3 fc39 8514 7f39
00000010: e1ca 313a d3fe ed39 c0a4 1038 66d2 ef39
00000020: b87c 07b8 c753 7c39 5301 bc37 9a78 8b3a
00000030: 383d 243a 62ea db39 7c4b b039 5a59 083a
00000040: eada b339 7e96 2839 7fff 0638 ec4e c739
00000050: c483 8439 03e8 3539 0d49 d039 9d08 823a
00000060: 884e 2e3a 30a5 9639 9e55 1f39 4f66 e139
00000070: 4e40 353a 0efd 563a 66e1 b939 1dd9 4c3a
00000080: 011f 393a b9a9 1b38 05b7 ae39 9de1 283a
00000090: 378d de38 2780 b839 3af0 8639 2e36 1039
000000a0: abae 4f37 6e14 8439 6b78 ea38 5f32 f539
000000b0: b5d0 2039 59d3 333a 2469 a239 3a5f 6039
000000c0: 3c08 243a 45a5 8338 3014 453a 1ec3 e538
000000d0: 5767 d6b7 28e3 8139 b7ab 8636 ea12 9a39
000000e0: fe98 f939 1fb7 b839 4089 b138 d59d bc39
000000f0: 20fe 2738 55b6 063a c59b f039 0b4d ad39
00000100: 8ce7 39b9 d74f ca38 7874 32b9 d4f2 69b8
00000110: 4b7a 08b9 268e 5fb8 f7d4 9fb5 e1d8 7139
00000120: 0890 2a36 04cc 8638 f43b 9a36 b33d aeb7
00000130: f2b5 b2b7 1e2a ac37 1ff6 a538 49de d2b7
00000140: d1f0 30b6 3fc8 ba38 d87b 9bb9 7638 48b8
00000150: 24c4 1bb8 b7d9 3eb8 b8c0 76b9 87be 3eb9
00000160: 5730 1937 8b5a 09b8 96cc a8b8 c559 bbb7
00000170: 119d 5339 c3bd abb7 ee09 1739 9ec9 43b9
00000180: fce0 e538 023d 01b8 7728 ceb7 d8bf 4fb9
00000190: ab75 c4b8 e755 8837 dda1 6538 beba 8ab5
000001a0: 65d9 1338 bc23 6b37 4aff 4fb8 655c c9b8
000001b0: 0086 b238 dada cb36 8975 05b8 0070 b9b8
000001c0: 0c01 53b7 2681 83b9 3199 fc38 fd83 fdb8
000001d0: ba73 b2b6 b221 e7b8 cbec 04b8 8f22 f938
000001e0: cfb0 afb7 c4aa d237 0bd4 81b9 a53a 5638
000001f0: c4e5 1e39 af27 a8b8 b69d a738 4662 84b9
00000200: 6fcb 2eb9 703a 2437 88f8 e5b7 ee34 2db7
00000210: ed7b d637 5d10 b7b6 51c6 40b8 08bd 0839
00000220: 00a6 8bb8 2c33 6eb8 0140 7fb5 84b9 2bb8
00000230: 5b4d cc38 7f5f c038 f7ac adb8 959e 7cb7
00000240: 740f 5ab7 3d25 a837 92c9 15b9 76b8 e2b8
00000250: a971 1db8 b15e ccb8 c453 7938 3bd5 8ab8
00000260: 180e d3b7 7675 0d36 348e e037 6c4f e2b8
00000270: 219b ddb8 6ac0 1fb8 48d4 01b9 8f28 e9b8
00000280: c200 80b8 f71c 0db8 444b 0638 2eb1 58b7
00000290: 93fb 51b6 4613 c0b7 6d52 7238 7ad0 17b8
000002a0: 11bc 71b9 a592 9fb8 8f27 65b8 15e2 0238
000002b0: 6937 8db8 d56d 9db8 61d4 3ab7 8cb7 0e37
000002c0: 8dd7 3f37 7f5d 0137 63fe 5238 01b7 d7b7
000002d0: 5657 deb7 cc48 8b37 05e0 0cb7 a419 d8b8
000002e0: 8936 77b7 285d 55b8 1fb4 f0b7 21e2 5cb8
000002f0: 0053 e7b8 5d0d 9cb8 8241 62b9 5b02 d537
00000300: 33d3 0ab7 0db1 20b9 101b 9537 16f4 84b9
00000310: 4642 39ba 03ad 93b9 fecc 3339 64e2 11b9
00000320: 782a 0ab2 2a47 3ab9 32cf 0a39 d2d4 27ba
00000330: a1d4 08ba 887b 9ab9 5c75 aeb9 1068 dfb9
00000340: e1fd 62b9 bd38 22b9 c84c cc39 0465 24b9
00000350: e2ec 8939 3f94 a8b8 e1d5 9737 28f0 e9b9
00000360: 3d06 04ba d225 2039 944e aa38 f8f9 99b9
00000370: 3e8d b5b9 d780 17ba dbb8 20b7 c9fe f0b9
00000380: c9d8 f6b9 097c dd38 ca71 0339 2833 01b9
00000390: 53a4 e338 c454 83b9 dc79 0cba aa19 bab8
000003a0: c485 af39 553f afb8 e3e0 9139 2c01 85b9
000003b0: bc8f c4b7 69bf bcb9 3742 84b9 ff60 eeb8
000003c0: 07b4 03ba 45ea 1838 e261 ddb9 4970 f6b8
000003d0: 2657 6539 9098 0637 759e fa36 3614 1839
000003e0: cb0c 19ba 50f0 6db9 4b95 56b8 d672 a1b9
000003f0: 834c d639 a485 b4b9 2c44 5839 4f6f dc38

exp_avg_sq f4 [64, 64]
3.9014244e-06 3.4662448e-06 2.344867e-06 8.432002e-07 3.565533e-06 1.9512988e-06 3.631064e-07 4.869828e-07
6.8827046e-07 9.775067e-07 2.9264712e-07 4.596485e-06 2.7655278e-06 6.3388427e-07 1.4643691e-06 1.0170136e-06
5.509206e-07 4.5796622e-07 6.041585e-06 4.471085e-06 1.391236e-06 1.6432635e-06 2.301141e-06 5.144976e-06
2.0582272e-06 1.3460487e-06 1.4205398e-06 1.5048547e-06 3.465611e-06 3.1615248e-06 1.631074e-06 6.313101e-06
2.838206e-06 1.5355512e-07 1.0906923e-06 4.3333025e-06 6.2211797e-07 1.0452269e-06 1.7253935e-06 4.7863944e-07
9.4823135e-06 8.2902193e-07 4.0787995e-06 1.8231408e-06 2.130668e-06 3.8365397e-06 9.80941e-07 8.087983e-07
1.5359924e-06 1.6485686e-06 4.160725e-06 1.7754263e-06 1.1773114e-06 7.9534846e-07 1.825549e-07 1.6070105e-06
1.7430839e-06 2.4998974e-06 1.6999784e-06 2.3232235e-06 6.4225e-06 2.486237e-06 6.916639e-06 1.7193241e-06
4.7320088e-07 1.1417451e-06 3.3351714e-07 3.7362574e-07 7.7276826e-07 7.8461504e-08 5.635414e-10 4.0280946e-07
6.8703286e-11 5.4804826e-08 1.5107362e-09 9.0797914e-07 2.7129386e-07 1.0359856e-08 4.8838984e-07 4.2092033e-08
4.6887457e-08 4.4914632e-08 8.3895577e-07 3.8452353e-07 9.3816e-08 1.2619562e-07 2.1969065e-07 9.812914e-07
6.527713e-08 2.7683924e-08 4.4075009e-07 8.896803e-09 3.585917e-07 1.6691719e-07 2.538733e-07 3.7902632e-07
3.9977962e-07 3.031255e-08 1.6859694e-08 1.2353954e-06 9.7281664e-08 1.3579536e-07 5.3412526e-07 6.772825e-09
6.225692e-07 1.1823618e-08 9.194341e-07 3.2097514e-08 9.176272e-08 1.9704053e-07 3.125552e-08 1.4569856e-07
6.16372e-08 1.4425001e-06 1.085889e-06 2.5149666e-07 5.363769e-07 4.3870706e-08 2.025611e-08 3.1563033e-07
1.5291393e-07 9.592782e-07 1.1870046e-06 6.023646e-07 1.0129359e-06 3.5420402e-07 4.157365e-07 8.1464884e-07
3.4627206e-07 6.4780494e-07 4.3661063e-07 2.6552431e-08 3.2910467e-08 2.2608031e-08 1.6559614e-08 3.542645e-07
3.7800433e-08 1.8737929e-07 6.377541e-08 6.563735e-08 2.6760438e-07 1.3130179e-07 4.9712266e-08 1.2361297e-08
1.4226831e-09 1.02522915e-08 7.819671e-07 1.9013004e-07 2.6486615e-07 1.6891644e-07 2.345201e-07 2.402294e-07
1.2481547e-07 2.581242e-07 3.1322068e-07 1.0435455e-07 4.2336103e-07 9.0499505e-08 1.2172706e-07 4.2319107e-07
6.375432e-08 1.7739303e-08 1.334194e-07 4.2965507e-07 2.8624034e-09 7.793888e-08 1.050147e-07 4.2271683e-08
1.8472487e-06 1.0139403e-07 8.265089e-07 1.0481594e-07 3.5095087e-07 1.6487952e-07 1.3179344e-08 2.5696949e-08
6.125375e-08 6.508288e-08 6.50812e-07 1.713281e-08 3.3210907e-07 1.8986121e-08 7.0236856e-09 8.152878e-08
3.4355526e-08 8.364629e-08 9.336025e-08 1.20843e-07 2.218883e-06 1.15548694e-07 1.2160805e-06 1.2297514e-07
3.479184e-06 4.296152e-06 2.249589e-06 1.9178365e-06 3.1353172e-06 2.140519e-06 5.2234947e-07 3.012078e-06
5.5384874e-07 8.796886e-07 2.9175737e-07 4.6660034e-06 2.429675e-06 8.6271046e-07 1.9091337e-06 1.1038059e-06
3.8746896e-07 5.066605e-07 5.2959954e-06 3.3496574e-06 2.0217308e-06 1.0258512e-06 2.0768996e-06 5.1055063e-06
1.3765767e-06 1.5658239e-06 2.105641e-06 1.0533079e-06 3.6244571e-06 1.9132585e-06 1.8037391e-06 4.0827067e-06
2.3658708e-06 4.1360926e-07 1.4309243e-06 5.0009708e-06 7.47774e-07 8.361414e-07 1.7101974e-06 4.0226843e-07
6.7723563e-06 5.8761947e-07 4.219798e-06 1.1819922e-06 1.7251626e-06 2.9117596e-06 1.1512891e-06 1.1059917e-06
1.0690794e-06 4.320564e-06 4.539061e-06 1.3526958e-06 2.6396106e-06 6.229631e-07 8.3158916e-08 2.0302089e-06
1.6768228e-06 3.1659367e-06 3.0351882e-06 2.5357394e-06 8.450655e-06 1.8833014e-06 5.58067e-06 3.530022e-06
00000000: fbe8 8236 a29d 6836 825c 1d36 4758 6235
00000010: 6447 6f36 0ff3 0236 f7f0 c234 34b9 0235
00000020: 96c1 3835 e032 8335 1d1d 9d34 813b 9a36
00000030: 6897 3936 3228 2a35 578b c435 5280 8835
00000040: fae2 1335 66de f534 d2b8 ca36 5406 9636
00000050: 81ba ba35 1b8e dc35 4d6d 1a36 02a3 ac36
00000060: 1320 0a36 e2a9 b435 60a9 be35 6afa c935
00000070: be92 6836 952a 5436 47eb da35 20d5 d336
00000080: 0278 3e36 e9e0 2434 e763 9235 c966 9136
00000090: 9fff 2635 b949 8c35 1294 e735 da7b 0035
000000a0: 3a16 1f37 f489 5e35 9fdc 8836 a4b2 f435
000000b0: 99fc 0e36 a0bb 8036 e0a8 8335 321c 5935
000000c0: 4c28 ce35 6344 dd35 5b9c 8b36 2f4b ee35
000000d0: 1d04 9e35 ee7f 5535 4f04 4434 76b0 d735
000000e0: e8f3 e935 e9c3 2736 d02a e435 ade8 1b36
000000f0: db80 d736 3ad9 2636 7a15 e836 87c3 e635
00000100: 3c0c fe34 103e 9935 3f0e b334 bb96 c834
00000110: 3b70 4f35 ab7e a833 b3e7 1a30 b641 d834
00000120: 8314 972e 8b62 6b33 4ea2 cf30 dabb 7335
00000130: 58a6 9134 21fb 3132 e519 0335 aec8 3433
00000140: 4e61 4933 29e8 4033 9a34 6135 8370 ce34
00000150: e477 c933 6380 0734 1be4 6b34 eab4 8335
00000160: 7b2e 8c33 98cd ed32 3ba0 ec34 8ed8 1832
00000170: 7884 c034 d939 3334 154c 8834 fb7c cb34
00000180: 4ba1 d634 0031 0233 dcd2 9032 ddcf a535
00000190: 29e9 d033 25cf 1134 cf60 0f35 66b6 e831
000001a0: a11e 2735 d220 4b32 08cf 7635 97db 0933
000001b0: 170f c533 1792 5334 cf3d 0633 5171 1c34
000001c0: 695d 8433 ed9b c135 ddbe 9135 7005 8734
000001d0: 8afb 0f35 5a6c 3c33 a8ff ad32 e773 a934
000001e0: a930 2434 8cc0 8035 2b51 9f35 2eb2 2135
000001f0: 36f4 8735 6e29 be34 6432 df34 3eae 5a35
00000200: 45e7 b934 d1e4 2d35 4f67 ea34 6a15 e432
00000210: 7159 0d33 9633 c232 fa3e 8e32 be31 be34
00000220: 045a 2233 6d32 4934 e7f4 8833 84f4 8c33
00000230: 44ab 8f34 f6fb 0c34 3783 5533 8f5d 5432
00000240: 3688 c330 0e22 3032 5fe8 5135 8c26 4c34
00000250: ed32 8e34 665f 3534 65d0 7b34 e1f8 8034
00000260: 0405 0634 5294 8a34 b928 a834 8519 e033
00000270: 4c4a e334 a158 c233 14b4 0234 f032 e334
00000280: 4fe9 8833 2461 9832 0c42 0f34 58ab e634
00000290: efb3 4431 5a5f a733 7184 e133 358e 3533
000002a0: fbee f735 f5bd d933 42dd 5d35 2c17 e133
000002b0: 526a bc34 bd09 3134 5e6b 6232 30bc dc32
000002c0: 9b8a 8333 b1c3 8b33 76b3 2e35 732b 9332
000002d0: b94c b234 ec16 a332 fe54 f131 ec14 af33
000002e0: 4d8e 1333 09a1 b333 577d c833 12c1 0134
000002f0: 1fe8 1436 9123 f833 3538 a335 260b 0434
00000300: ed7b 6936 aa27 9036 a5f7 1636 2eb4 0036
00000310: 5768 5236 d6a5 0f36 9537 0c35 1b23 4a36
00000320: 32ac 1435 be23 6c35 d4a2 9c34 aa90 9c36
00000330: 800d 2336 0395 6735 ab1e 0036 7b26 9435
00000340: 5405 d034 7201 0835 41b4 b136 adca 6036
00000350: 12ad 0736 fbaf 8935 dd60 0b36 f74f ab36
00000360: d1c2 b835 4d29 d235 a34e 0d36 625f 8d35
00000370: b33b 7336 8865 0036 0118 f235 2ffe 8836
00000380: 5ac5 1e36 060e de34 2f0e c035 03ce a736
00000390: a3ba 4835 3373 6035 ef89 e535 5af7 d734
000003a0: 193e e336 e7bc 1d35 ca97 8d36 f1a4 9e35
000003b0: 238c e735 a667 4336 fe85 9a35 9671 9435
000003c0: 4a7d 8f35 5df9 9036 3d4e 9836 468e b535
000003d0: 2a24 3136 b339 2735 1995 b233 b93e 0836
000003e0: 310f e135 6176 5436 23b0 4b36 ac2b 2a36
000003f0: 49c7 0d37 bec5 fc35 9741 bb36 51e5 6c36
