simple_mlp_zprime/version_5/checkpoints/epoch=49-step=11750.ckpt (torch, 69720 bytes, 18 tensors)

layer1.weight f4 [64, 10]
0	0xbeaff6ab	-0.3436788
1	0xbd6b5b29	-0.057459984
2	0xbc3583bd	-0.011078772
3	0x3e5d89e0	0.21634626
4	0x3e47aabe	0.19498727
5	0xbee18c52	-0.44052368
6	0xbc21c617	-0.009873888
7	0xbeabe3e5	-0.33572307
8	0xbe9925b4	-0.29911578
9	0x3e09dfcb	0.13464276
10	0xbeeca67e	-0.46220773
11	0xbe31f41c	-0.17378277
12	0x3d39a9ba	0.04532788
13	0xbdb2266c	-0.08698735
14	0xbd59b64c	-0.053152367
15	0xbe97c937	-0.29645702
16	0x3d5dfc39	0.054195616
17	0x3ec6ce47	0.38829252
18	0xbd4cee2a	-0.05003182
19	0x3e005e85	0.12536056
20	0x3f133330	0.5749998
21	0x3de1777f	0.1100912
22	0xbe5e4101	-0.21704485
23	0xbe305b0a	-0.17222229
24	0xbea9a479	-0.33133295
25	0xbe291ec5	-0.16515644
26	0x3e5e8853	0.21731691
27	0xbcce1243	-0.025155192
28	0xbd2a300f	-0.04154974
29	0x3e0c257d	0.13686176
30	0x3f0070b6	0.50171983
31	0x3ce4b54f	0.027918486
32	0x3ee087bf	0.43853566
33	0x3f0ce325	0.55034095
34	0xbe8c0353	-0.27346286
35	0xbdc4922a	-0.09598191
36	0x3e076d7d	0.1322536
37	0xbd963e32	-0.073360816
38	0xbe2cb6d2	-0.16866615
39	0xbdeb37e1	-0.114852674
40	0xbf43fb9a	-0.7655579
41	0x3dae8091	0.08520616
42	0xbe7467f2	-0.23867777
43	0xbe3cbbeb	-0.1843106
44	0x3d983e2e	0.07433735
45	0x3d869ccf	0.065728776
46	0xbe3173e4	-0.17329365
47	0x3e39e774	0.18154699
48	0xbe9bb78c	-0.30413473
49	0x3d9944d6	0.074838325
50	0xbed92f1a	-0.42418748
51	0xbd1141bd	-0.035463084
52	0x3ce60e4c	0.02808299
53	0x3e00cc4c	0.12577933
54	0x3ea32d08	0.31870294
55	0xbcdd4128	-0.027008608
56	0xbd50afae	-0.05094879
57	0x3e446901	0.19180681
58	0x3e344bb3	0.17607002
59	0xbb138cba	-0.00225143
60	0xbf4eafac	-0.80736804
61	0xbb56f258	-0.0032798257
62	0xbbafbdb4	-0.0053631905
63	0xbb268d72	-0.0025413898
64	0xbae15f54	-0.0017194548
65	0xbae665ab	-0.0017577907
66	0xbb3e4561	-0.0029033052
67	0xbc3eb6c0	-0.011640251
68	0xbe875f18	-0.26439738
69	0x3ca1b1bf	0.019738076
70	0xbf034e45	-0.51291305
71	0xbea866ab	-0.3289083
72	0x3e1bc0c1	0.15210249
73	0xbc2a9014	-0.010410327
74	0x3db329e0	0.087482214
75	0xbe1109e8	-0.14163935
76	0x3e32968a	0.17440239
77	0xbe3212aa	-0.17389932
78	0xbde0e968	-0.10982019
79	0x3d6d9f7f	0.058013435
80	0x3f07a5e7	0.5298752
81	0x3c20dfc9	0.00981898
82	0xbedfd061	-0.43713668
83	0x3e1006f3	0.14065151
84	0x3e536280	0.20643044
85	0x3ad3cf02	0.0016159716
86	0x3ef6dfca	0.48217613
87	0x3e2366c6	0.15957174
88	0xbded6a83	-0.11592581
89	0xbd4bb8b5	-0.049736697
90	0xbe8bc640	-0.2729969
91	0xbdd4af84	-0.103850394
92	0x3e9f6799	0.31133726
93	0xbeb14e25	-0.34629932
94	0x3d51227f	0.05105829
95	0xbe03d262	-0.12873223
96	0x3e6e7e8d	0.23290463
97	0x3ef62103	0.4807206
98	0xbee4d5d0	-0.44694376
99	0xbcd02daa	-0.0254124
100	0x3dfc733f	0.12326669
101	0xbe02e11b	-0.12781183
102	0xbe219f0d	-0.1578333
103	0xbead8cf4	-0.338966
104	0xbeea2bfa	-0.45736676
105	0xb96a4ef5	-0.00022345393
106	0x3e242b0b	0.16032045
107	0xbeb9ea87	-0.36311743
108	0xbe0403c1	-0.12892057
109	0xbe475898	-0.1946739
110	0xbe20405b	-0.1564955
111	0x3e839513	0.25699672
112	0x3ec69d5f	0.3879194
113	0x3dafef1b	0.085905276
114	0xbe131822	-0.14364675
115	0x3ea652f2	0.32485157
116	0x3e8b72a0	0.2723589
117	0x3c361155	0.011112531
118	0xbdaf82c9	-0.08569867
119	0xbdd02c2f	-0.10164677
120	0xbcd07af6	-0.025449257
121	0x3d26ce2a	0.040723957
122	0x3cfe947a	0.031076659
123	0x3e92cec9	0.2867339
124	0x3ec573cc	0.38564909
125	0x3ee77143	0.452036
126	0xbda00504	-0.07813457
127	0xbee15b1b	-0.4401482
128	0xbdc97297	-0.098363094
129	0x3d9010a5	0.07034425
130	0x3ec7aac3	0.38997468
131	0x3dbe2098	0.092835605
132	0x3d4c92c8	0.04994467
133	0xbc821122	-0.01587731
134	0x3e7525ba	0.23940173
135	0x3da711c3	0.08157685
136	0x3e81723d	0.2528247
137	0xbbd541a5	-0.0065080696
138	0x3e65a197	0.22424923
139	0x3d55be4e	0.05218344
140	0x3e2b7682	0.16744426
141	0xbd59d797	-0.053184118
142	0xbe05b9a3	-0.13059096
143	0x3f3ba09e	0.7329196
144	0x3e136d95	0.14397271
145	0x3d965025	0.07339505
146	0xbe561472	-0.20906237
147	0xbe920cd6	-0.28525418
148	0xbcd57dd6	-0.02606098
149	0x3e408034	0.18798906
150	0xbe68aebe	-0.22722909
151	0xbea4e0b5	-0.32202688
152	0x3cc20252	0.023682747
153	0x3f0ced9a	0.5505005
154	0x3c79b254	0.015240271
155	0xbe0af25a	-0.13569012
156	0xbd88d75f	-0.06681704
157	0xbd847c34	-0.06469002
158	0x3dcc01ad	0.09961257
159	0xbdd063ab	-0.1017526
160	0x3efcbaea	0.49361354
161	0xbd6ab5ae	-0.05730217
162	0x3eaa56ac	0.3326925
163	0xbdb4cec7	-0.08828502
164	0x3da2225d	0.079167105
165	0xbdc0a381	-0.09406186
166	0xbe40e635	-0.18837817
167	0xbe3c3a1a	-0.18381539
168	0x3d017f0d	0.031615306
169	0xbd8954e0	-0.06705642
170	0xbef744af	-0.4829459
171	0x3e9a3b7c	0.30123508
172	0xbd9df86b	-0.077133976
173	0x3e81a072	0.25317723
174	0xbe86b9ee	-0.26313728
175	0x3e21a552	0.15785721
176	0xbab49a9e	-0.001377899
177	0xbe020093	-0.12695532
178	0xbe2b0dfb	-0.16704552
179	0xbe075bb3	-0.13218574
180	0x3dd24da5	0.10268716
181	0x3cbe9a94	0.023267068
182	0xbdc8ba2b	-0.09801134
183	0xbe80b562	-0.25138384
184	0xbe2c6b8e	-0.16837904
185	0x3d9732f4	0.073827654
186	0xbdec063b	-0.11524626
187	0x3d4b4ea7	0.049635556
188	0x3e8aea28	0.27131772
189	0xbc0391ff	-0.008030414
190	0x3e9e737a	0.30947477
191	0x3ea1cd29	0.31601837
192	0x3e9ada96	0.30244893
193	0x3e078270	0.13233352
194	0x3c57954c	0.013158154
195	0xbe8bdd3c	-0.27317226
196	0xbdffb0d9	-0.12484903
197	0xbeecbd00	-0.46237946
198	0xbcc1e426	-0.02366836
199	0x3e3ac51b	0.18239252
200	0x3eb26579	0.34843042
201	0xbd4ecbf7	-0.050487485
202	0x3d01d5fb	0.03169821
203	0xbdae2269	-0.08502657
204	0x3dc04773	0.09388628
205	0x3d69142e	0.05690401
206	0x3ea2f143	0.31824693
207	0xbe8c751c	-0.27433097
208	0x3e336086	0.1751729
209	0x3eaa8f2a	0.3331235
210	0xbe365b00	-0.17808151
211	0xbd1ca47c	-0.038242802
212	0x3da15843	0.07878163
213	0xbe886b5c	-0.2664441
214	0xbdd921d8	-0.10602158
215	0xbeb41d76	-0.35178727
216	0xbda9528a	-0.08267696
217	0x3ea19863	0.31561574
218	0x3df72019	0.12066669
219	0xbd931424	-0.07181576
220	0xbef7e7a8	-0.48418927
221	0x3e3ce44b	0.18446462
222	0xbcb2faf8	-0.021848187
223	0x3dc40954	0.09572092
224	0xbe274788	-0.16335881
225	0x3e0cead9	0.13761462
226	0x3dfc6d43	0.123255275
227	0x3e097e22	0.13427022
228	0x3e320088	0.17383015
229	0xbdc67c7f	-0.096917145
230	0x3b06518c	0.0020495383
231	0xbe1fe2c5	-0.1561385
232	0xbe6ec544	-0.23317438
233	0x3e51d1df	0.20490216
234	0xbe8bc5c2	-0.27299315
235	0x3e208ddc	0.15679115
236	0xbd2baa66	-0.04191055
237	0xbdc161bc	-0.094424695
238	0x3dc61b7e	0.096732125
239	0x3d060f40	0.032729387
240	0x3efe69f0	0.496902
241	0xbe181e8d	-0.14855404
242	0x3e9bf4ce	0.3046021
243	0x3db94f4c	0.09048328
244	0xbcd1a4ba	-0.025591243
245	0xbc7be88d	-0.015375269
246	0xbeb10b8c	-0.34579122
247	0x3e010954	0.12601215
248	0x3e418713	0.18899183
249	0x3da2f7d2	0.07957424
250	0x3ef08410	0.46975756
251	0x3e467c00	0.1938324
252	0xbd1a3837	-0.037651267
253	0xbe03e7fe	-0.12881467
254	0xbdacf2a4	-0.084447175
255	0xbe82f0ba	-0.25574285

layer1.bias f4 [64]
0	0xbe007f7b	-0.1254863
1	0x3eac4806	0.336487
2	0x3e918e70	0.28428984
3	0xbda0bf52	-0.078489915
4	0x3e5bfcf6	0.21483216
5	0x3dcc27b7	0.099685125
6	0xbe8f3a28	-0.27974057
7	0x3e2d32ed	0.16913958
8	0x3f0062e9	0.50150925
9	0xbe8315fc	-0.2560271
10	0xbe2c5712	-0.1683009
11	0xbe92dd2c	-0.28684366
12	0xbe25dc5c	-0.16197342
13	0x3d933f01	0.071897514
14	0x3de22194	0.11041561
15	0x3e9965d0	0.2996049
16	0x3decb21b	0.115574084
17	0x3dd4a07c	0.103821725
18	0xbdfebcb6	-0.124383375
19	0xbe839d44	-0.25705922
20	0x3d8ca877	0.068680696
21	0xbd34ea74	-0.044168904
22	0xbe0a4b0c	-0.1350519
23	0x3ea7f610	0.32804918
24	0x3cf5b81c	0.029995017
25	0x3e21dc33	0.15806656
26	0xbd8a7554	-0.0676066
27	0x3e82230c	0.25417364
28	0x3dd5eb00	0.10445213
29	0x3c0ece47	0.008716173
30	0x3d96fcf9	0.073724695
31	0xbe0410b8	-0.12897003
32	0xbe890a4d	-0.2676567
33	0xbd5f8baf	-0.054576572
34	0xbd565453	-0.05232651
35	0x3e6e7f94	0.23290855
36	0x3e086876	0.13321099
37	0x3e885c32	0.2663284
38	0xbeb2a09b	-0.34888157
39	0x3e8a628d	0.27028313
40	0xbdc3ef4e	-0.09567128
41	0xbe9252e9	-0.2857888
42	0x3e7561ce	0.23963091
43	0x3efafa4a	0.4901908
44	0x3e20bbd4	0.1569665
45	0x3dc0e0fb	0.094179116
46	0x3e08aa7b	0.13346283
47	0x3ca8ba65	0.020596692
48	0xbe9e4e6d	-0.3091921
49	0xbcd272a3	-0.025689429
50	0x3de35dd5	0.111018814
51	0xbdc07f77	-0.09399312
52	0x3b3aee6c	0.0028523458
53	0xbd53fce6	-0.051754855
54	0xbe7a8c60	-0.24467611
55	0xbe994af5	-0.2994
56	0x3ea1cd8a	0.31602126
57	0x3e765fd5	0.24059995
58	0xbea98ed8	-0.33116794
59	0x3e7399e3	0.23789172
60	0xbc8e3d87	-0.017363323
61	0x3e9f0a9a	0.31062776
62	0x3d9ffc82	0.07811834
63	0x3e92711f	0.2860193

layer2.weight f4 [64, 64]
0	0x3e14089c	0.14456409
1	0x3e28a6df	0.16469906
2	0xbe384af8	-0.17997348
3	0x3d7c06bd	0.061529864
4	0x3d4b53c0	0.049640417
5	0x3e7de891	0.24795748
6	0x3f19a3e5	0.6001571
7	0xbbbba160	-0.0057260245
8	0xbf345e62	-0.70456517
9	0xbb69fa89	-0.003570231
10	0x3c4e03c6	0.012574142
11	0x3e0851d4	0.13312465
12	0x3edd3149	0.43201664
13	0x3e0b2aee	0.13590595
14	0xbe08a1bd	-0.13342948
15	0x3d9b1699	0.075726695
16	0x3d693002	0.05693055
17	0x3e3c3578	0.18379772
18	0x3e13d019	0.14434852
19	0xbc9c800a	-0.019104023
20	0xbd85882d	-0.06520114
21	0x3e087bf0	0.13328528
22	0x3e43fb21	0.19138767
23	0x3e086894	0.13321143
24	0xbe08e17c	-0.13367265
25	0xbe139e8a	-0.14415947
26	0x3ddd224b	0.107975565
27	0x3e41fb54	0.1894353
28	0xbd3a9b83	-0.045558464
29	0x3ca12ef4	0.01967571
30	0xbe0cad04	-0.13737875
31	0x3ddc4db2	0.10757007
32	0xbd624018	-0.055236906
33	0x3e238433	0.15968399
34	0xbdecb1bc	-0.11557338
35	0xbd929753	-0.07157769
36	0xbeb44102	-0.35205847
37	0x3cb01387	0.021493686
38	0xbcc2c6ef	-0.0237765
39	0x3d95d98f	0.07316887
40	0xbd451e79	-0.048124764
41	0xbe564107	-0.20923243
42	0x3de6b568	0.11265069
43	0x3c5edf60	0.013603061
44	0xbf551c98	-0.83246756
45	0xbeaa2482	-0.33230978
46	0xbca0eac3	-0.019643193
47	0x3c6aaf82	0.014324071
48	0xbdc6e902	-0.097124115
49	0x3d87688e	0.06611739
50	0xbdfb9c36	-0.12285654
51	0x3b5a9cc4	0.00333576
52	0xbcc5f0d1	-0.024162682
53	0xbe7e1447	-0.24812423
54	0xbe8ab1ac	-0.27088678
55	0xbdc9ea82	-0.09859182
56	0xbe67726a	-0.22602239
57	0xbf3e311c	-0.74293685
58	0x3e0791b3	0.13239174
59	0x3994c995	0.0002837895
60	0xbe4ae7ab	-0.19814937
61	0xbe102b04	-0.14078909
62	0xbcc41e84	-0.023940332
63	0xbd856c43	-0.0651479
64	0xbe2d042d	-0.16896124
65	0xbd8d1be7	-0.068900876
66	0xbc53da00	-0.012930393
67	0xbe81c28e	-0.25343746
68	0x3dbba65d	0.09162591
69	0xbe356271	-0.17713334
70	0xbed286a1	-0.4111834
71	0xbda73a97	-0.08165472
72	0x3e111c7f	0.14171027
73	0x3e986673	0.29765663
74	0x3e2216c6	0.15829
75	0xbe375f48	-0.1790744
76	0xbe8c145e	-0.2735929
77	0xbe360daf	-0.17778657
78	0xbe17907a	-0.14801207
79	0xbe003e90	-0.12523866
80	0x3c5475d2	0.012967544
81	0xbe0f4ceb	-0.13994186
82	0x3e391739	0.18075265
83	0x3d7c7562	0.061635382
84	0x3dfc84d6	0.12330024
85	0x3c6939f4	0.0142350085
86	0xbd97692b	-0.07393106
87	0x3cd42136	0.025894742
88	0xbc75adc2	-0.01499504
89	0xbcce1333	-0.02515564
90	0x3cd30e5b	0.025763681
91	0xbdc495bf	-0.09598874
92	0x3b9088bf	0.0044108327
93	0x3e174753	0.14773302
94	0x3af6fde3	0.0018843975
95	0xbe3abf13	-0.18236952
96	0x3d7fa37a	0.062411763
97	0xbe16ac44	-0.14714152
98	0xbd35aef5	-0.044356305
99	0xbafc5f05	-0.0019254392
100	0x3e8776ac	0.26457727
101	0x3e1922a3	0.14954619
102	0x3d70b026	0.05876174
103	0x3d195f0f	0.03744417
104	0x3d8ccaf9	0.068746515
105	0x3bf0ec79	0.0073524085
106	0xbd82a463	-0.063790105
107	0xbc3644ce	-0.011124803
108	0x3e588ae6	0.21146736
109	0x3d8840d9	0.06652994
110	0x3e481781	0.19540216
111	0x3e16ab68	0.14713824
112	0x3df8148b	0.12113293
113	0xbd6c07ca	-0.057624616
114	0x3d9ce592	0.076609746
115	0xbe5890cf	-0.2114899
116	0x3e4387e7	0.19094811
117	0xbc82bf2b	-0.015960297
118	0x3c97374b	0.018458983
119	0x3d8b2c2c	0.067955345
120	0x3e1b70c0	0.1517973
121	0x3ea69d7c	0.32542026
122	0xbd7b7a64	-0.061396018
123	0xbe05d83c	-0.13070768
124	0xbd91214c	-0.07086429
125	0xbc8f1730	-0.017467111
126	0x3da2e1db	0.07953235
127	0x3d4c78f5	0.04992004
128	0xbea3db39	-0.3200319
129	0xbdb43f8b	-0.08801182
130	0x3e23743e	0.15962312
131	0xbe0285d9	-0.12746371
132	0xbb462499	-0.0030234216
133	0xbe069938	-0.13144386
134	0xbef8001a	-0.48437577
135	0x3dbcba8d	0.09215269
136	0x3e5bd1a5	0.21466692
137	0x3eabbeaa	0.33543903
138	0x3cb8f4e8	0.022577718
139	0xbd31dee2	-0.04342545
140	0xbdef7138	-0.11691517
141	0xbdbe4d46	-0.092920825
142	0x3cf78060	0.030212581
143	0xbca28d3f	-0.019842742
144	0xbd554c39	-0.052074645
145	0xbe2948eb	-0.16531722
146	0xbceb147a	-0.028696287
147	0x3e527f3c	0.20556349
148	0xbde179b3	-0.110095404
149	0xbdda36a1	-0.10654951
150	0x3ddad48e	0.10685073
151	0x3de3c939	0.111223646
152	0x3d62f77e	0.05541181
153	0xbca7942a	-0.020456392
154	0xbd59dab6	-0.053187095
155	0xbdcb62d8	-0.09930962
156	0xbb5908f3	-0.0033116906
157	0x3e09d44a	0.13459888
158	0x3de98b8b	0.11403569
159	0xbdb92cdd	-0.0904176
160	0xbe014302	-0.12623218
161	0xbdac37b5	-0.08409063
162	0xbd8dc9fd	-0.06923292
163	0x3dc0cfc8	0.09414631
164	0x3e2733da	0.16328374
165	0x3d973a16	0.07384126
166	0x3dc4c7b6	0.09608404
167	0xbdcccf62	-0.10000493
168	0x3da3099e	0.07960819
169	0x3d4f8bd1	0.05067045
170	0xbe07f122	-0.13275579
171	0xbdbdaac2	-0.09261085
172	0x3e8a4d84	0.27012265
173	0x3dba71b7	0.09103721
174	0x3db5b44e	0.08872281
175	0x3de60784	0.11231902
176	0x3dcae71b	0.09907361
177	0x3e3ff7d7	0.18746887
178	0x3daf028d	0.085454084
179	0xbd9e95a5	-0.07743386
180	0x3db94ea5	0.090482034
181	0xbb89ff98	-0.0042113774
182	0x3d406895	0.046974737
183	0x3d17adf8	0.037031144
184	0xbce4337f	-0.027856587
185	0x3e98e44d	0.2986168
186	0xbd3207a8	-0.043464333
187	0xbdc6410d	-0.09680376
188	0xbe983b51	-0.29732755
189	0x3e2881bc	0.1645574
190	0x3d9b0c5f	0.07570719
191	0x3db17424	0.0866473
192	0xbe9f1b5f	-0.3107557
193	0xbe1043a5	-0.14088304
194	0x3d93b08a	0.072114065
195	0xbe25dba1	-0.16197063
196	0xbde1f4ce	-0.11033021
197	0xbdbec96d	-0.09315763
198	0xbf1d8e03	-0.6154482
199	0xbdcfd41a	-0.10147877
200	0x3ec365de	0.38163656
201	0x3e9390b2	0.2882133
202	0x3d8ea514	0.0696508
203	0xbde13146	-0.10995726
204	0xbd904a2d	-0.07045398
205	0x3cd2418c	0.02566602
206	0x3ceebb93	0.029142177
207	0xbdabfa4f	-0.08397352
208	0xbc09ea11	-0.008417622
209	0x3cdb1dc9	0.026747601
210	0x3bcb1923	0.006198065
211	0x3e679a9d	0.22617574
212	0x3ca648b5	0.020298341
213	0x3b9f0f3a	0.00485411
214	0x3c836be4	0.016042657
215	0x3c0a4261	0.0084386775
216	0xbe183edb	-0.14867727
217	0x3d1d891d	0.03846084
218	0xbe0a680b	-0.13516252
219	0xbd6d6e47	-0.057966497
220	0xbd8a43b6	-0.06751196
221	0x3e014424	0.1262365
222	0x3e0ca01e	0.13732955
223	0xbe355078	-0.17706478
224	0x3c8308d6	0.015995424
225	0xbd42fa36	-0.0476019
226	0xbceefceb	-0.029173335
227	0x3dad5600	0.08463669
228	0x3e09aece	0.13445589
229	0x3e46d02f	0.19415353
230	0xbc6d8a7b	-0.014498348
231	0xbd148e10	-0.036268294
232	0x3b63fe90	0.0034789182
233	0x3a3a3a6d	0.0007104043
234	0xbdef6a1d	-0.116901614
235	0x3da1c563	0.07898977
236	0x3e748bbb	0.23881428
237	0x3e443cdd	0.19163842
238	0x3e05fd8d	0.13085003
239	0x3e00648a	0.12538353
240	0x3e25b7ea	0.16183439
241	0x3e474319	0.1945919
242	0xbd88126b	-0.06644138
243	0xbd9ea99f	-0.077471964
244	0x3d93252c	0.07184824
245	0xbcf55710	-0.029948741
246	0x3d83a947	0.064287715
247	0x3d92236b	0.07135662
248	0x3d58eb15	0.052958567
249	0x3eb37d76	0.35056657
250	0x3dbb6b02	0.091512695
251	0xbaa8445d	-0.0012837757
252	0xbe664a43	-0.22489266
253	0x3e32dcec	0.17467088
254	0x3d03c5d3	0.03217108
255	0xbd2db07f	-0.042404648

layer2.bias f4 [64]
0	0x3dc2349a	0.09482689
1	0x3dfd6819	0.12373371
2	0x3dd39c51	0.10332549
3	0x3dcac647	0.099011
4	0x3cc0fee9	0.02355905
5	0x3da5b02a	0.08090241
6	0xbc1b7aa7	-0.009489692
7	0x3e059052	0.13043335
8	0x3d2d8493	0.04236276
9	0x3bd3e9cc	0.0064670797
10	0xbd9e4034	-0.077270895
11	0x3ce9534a	0.028482098
12	0xbd07b5c5	-0.033132333
13	0x3da95c5f	0.082695715
14	0x3e180953	0.14847307
15	0x3d548605	0.051885623
16	0x3d0ba266	0.034090422
17	0x3d7c0675	0.061529595
18	0x3d971089	0.07376201
19	0xbdc805ab	-0.09766706
20	0x3df73415	0.12070481
21	0x3d33db72	0.04391045
22	0x3d7b3f31	0.06133956
23	0x3ce30638	0.027712926
24	0x3e0534f5	0.13008483
25	0x3dab5b76	0.08367054
26	0xbca829d0	-0.02052775
27	0x39af9665	0.00033490654
28	0x3e089f99	0.13342132
29	0x3df69b3f	0.120413296
30	0x3d4fe337	0.0507538
31	0x3c6e1f53	0.014533835
32	0x3d61d5bc	0.055135474
33	0x3c3c2577	0.011483542
34	0xbd21537e	-0.039386265
35	0x3dc35619	0.09537906
36	0x3d3b175f	0.045676585
37	0xbdb95b6a	-0.09050639
38	0x3e10ca58	0.14139688
39	0x3d11deb1	0.035612766
40	0xbd59ef99	-0.053207014
41	0x3dec11b9	0.11526818
42	0x3e038f08	0.12847531
43	0xbe027bd9	-0.12742557
44	0xbda08e5e	-0.078396544
45	0xbd612983	-0.05497123
46	0x3d89c28a	0.067265585
47	0x3cb2c29b	0.02182131
48	0x3e1d7b2f	0.15379022
49	0x3dec2a70	0.11531532
50	0x3d70f94b	0.058831494
51	0xbd19d121	-0.037552956
52	0x3cc58f86	0.024116289
53	0xbb9d8bb0	-0.004807912
54	0x3e629f67	0.2213112
55	0x3dd1d4c9	0.10245664
56	0xbdb6a7ca	-0.08918722
57	0x3eb0bd29	0.34519318
58	0xbc9c452c	-0.019075952
59	0x3e1fd6cd	0.15609284
60	0x3dcc9e59	0.0999114
61	0xbc919f87	-0.017776264
62	0x3de35def	0.11101901
63	0x3ccbfde6	0.024901342

layer3.weight f4 [2, 64]
0	0x3e76c046	0.24096784
1	0xbe03d35b	-0.12873594
2	0xbdc6c32b	-0.09705194
3	0x3cdea2e3	0.02717728
4	0xbe8067a2	-0.25079066
5	0xbe2537b7	-0.16134535
6	0x3d76c283	0.060244095
7	0x3e1cf9aa	0.15329614
8	0x3f230b41	0.6368905
9	0x3e8eb7ec	0.27874696
10	0xbc948fde	-0.018135007
11	0x3d0e9c23	0.034816872
12	0x3df136d2	0.11778034
13	0xbeb7e32d	-0.3591551
14	0xbe0e4ff1	-0.13897683
15	0xbe2d069b	-0.16897051
16	0x3e00523d	0.12531371
17	0x3dbcc748	0.092176974
18	0x3cf02462	0.029314224
19	0xbe435f7f	-0.19079398
20	0x3e496a71	0.1966951
21	0x3ea83223	0.3285075
22	0xbe35b148	-0.17743409
23	0x3c82ef2b	0.015983185
24	0x3e96958c	0.2941097
25	0xbd8a2a7b	-0.06746384
26	0xbdc13f23	-0.094358705
27	0x3e48adc3	0.19597535
28	0xbd0e96a8	-0.034811646
29	0x3daf7b5b	0.0856845
30	0x3e913bab	0.28365836
31	0x3e6510b1	0.22369649
32	0xbebb1bae	-0.36544555
33	0xbd70a686	-0.05875256
34	0xbc2010ed	-0.00976966
35	0xbd5a03d6	-0.053226314
36	0x3d621482	0.05519534
37	0x3f146b7e	0.5797652
38	0x3e940eea	0.2891763
39	0x3e859cd1	0.26096204
40	0xbcae17dc	-0.021251611
41	0x3f1f273e	0.62169254
42	0x3d0b69fb	0.034036618
43	0x3da2ea51	0.079548486
44	0x3de06883	0.10957434
45	0xbe23dee7	-0.16002999
46	0x3e2df10f	0.16986488
47	0x3c911a64	0.01771278
48	0x3f1039f2	0.5633842
49	0xbda225f9	-0.07917399
50	0x3e7ffb58	0.24998224
51	0xbda7d0cd	-0.081941225
52	0xbe2789a6	-0.16361102
53	0xb9b78a4a	-0.00035007513
54	0xbe09a2c2	-0.13440993
55	0x3d10810a	0.03527931
56	0x3d5c2e24	0.05375494
57	0xbebb54c6	-0.36588115
58	0xbe35a82d	-0.17739935
59	0x3e812dff	0.25230405
60	0xbeaf9285	-0.34291473
61	0xbc793293	-0.015209812
62	0xbd823286	-0.06357293
63	0xbe0a94c2	-0.13533309
64	0xbea04b56	-0.31307477
65	0x3d59556b	0.053059977
66	0x3da38e61	0.07986141
67	0x3e25ecac	0.16203564
68	0x3e43d5a1	0.19124462
69	0x3d9ed752	0.07755913
70	0x3dc97635	0.09836999
71	0xbe97923c	-0.29603755
72	0xbf01b35a	-0.50664294
73	0xbed43bf8	-0.41452003
74	0x3d6f05a8	0.058355004
75	0x3dbc31b0	0.09189165
76	0xbd5900dc	-0.052979335
77	0x3e25fd83	0.16209988
78	0x3e35243d	0.17689605
79	0x3e464989	0.19363989
80	0xbdf12869	-0.11775286
81	0xbdd4fc5e	-0.10399698
82	0xbd936287	-0.07196527
83	0x3d3b1208	0.045671493
84	0xbe60ad16	-0.21941027
85	0xbe3d8049	-0.18505968
86	0x3e379ca2	0.17930844
87	0x3d8716fd	0.065961815
88	0xbea037a8	-0.31292462
89	0x3d4d7a34	0.05016537
90	0x3d82d857	0.0638892
91	0xbeb052d7	-0.34438202
92	0x3e3a53f3	0.18196087
93	0xbe486c52	-0.19572571
94	0xbe55d657	-0.20882545
95	0xbe41fc2f	-0.18943857
96	0x3e3139d9	0.17307223
97	0xbc7ba3fe	-0.015358923
98	0x3d99f76d	0.07517896
99	0x3db07d14	0.08617607
100	0xbd800d64	-0.06252554
101	0xbf0f3367	-0.5593781
102	0xbea23765	-0.31682888
103	0xbe541297	-0.20710216
104	0x3d631f1c	0.05544959
105	0xbf0f9f52	-0.5610248
106	0xbe1e2200	-0.15442657
107	0x3d29a159	0.04141364
108	0xbe0b9242	-0.13630012
109	0x3e36df52	0.17858627
110	0xbe11b700	-0.14229965
111	0x3db70fba	0.089385465
112	0xbefa0b78	-0.48836875
113	0x3e653930	0.22385097
114	0xbe853a2f	-0.26020953
115	0x3e8b789d	0.27240458
116	0x3e869885	0.26288238
117	0xbd70d9c9	-0.058801446
118	0x3ea04a55	0.3130671
119	0xbe039553	-0.12849931
120	0xbddda76a	-0.10822947
121	0x3f04dcfd	0.518997
122	0x3e51a91d	0.20474668
123	0xbedf05fe	-0.4355926
124	0x3e505983	0.20346646
125	0x3d8f3f3f	0.06994485
126	0x3cc60129	0.024170475
127	0x3e57bd98	0.21068418

layer3.bias f4 [2]
0	0x3d8fb97a	0.07017799
1	0x3d909168	0.07058984

exp_avg f4 [64, 10]
0	0xbb034d7f	-0.0020035205
1	0x3b7cb7e4	0.0038561756
2	0xba10aae5	-0.00055186293
3	0xba80159b	-0.0009772064
4	0xbae33567	-0.0017334641
5	0xbb887e0d	-0.004165417
6	0x3a3977fc	0.0007075069
7	0xba88fdb8	-0.0010451591
8	0x3baeb171	0.0053312113
9	0xb916c54e	-0.00014378616
10	0x3a6f8444	0.00091368356
11	0x3b860274	0.004089648
12	0xb971bc37	-0.00023053667
13	0x3a937e57	0.0011252862
14	0x3a789bb0	0.00094836485
15	0xbbc02f3e	-0.0058650067
16	0x39af741d	0.00033465112
17	0x3a680ed3	0.00088523066
18	0xba4a2cfe	-0.0007712393
19	0x3860038c	5.3409065e-05
20	0x3a18a228	0.0005822503
21	0xbb4a56d7	-0.0030874514
22	0xba053a4f	-0.0005082236
23	0xb9f68c67	-0.00047025384
24	0x39d17bdb	0.00039955866
25	0x3bcdbe7d	0.0062788115
26	0x39c87c06	0.00038239377
27	0xb9bf6d49	-0.00036511783
28	0xbb180fc8	-0.0023202766
29	0x399fe0e2	0.00030494394
30	0xb8aa2fb5	-8.115118e-05
31	0x398134f0	0.0002464424
32	0xb940ffae	-0.00018405795
33	0xb98d4417	-0.00026944347
34	0xb7c16265	-2.3053211e-05
35	0xb9099a24	-0.0001312276
36	0x3893bd64	7.044783e-05
37	0xb7f25945	-2.8890217e-05
38	0x392d4953	0.00016525881
39	0xbb143c97	-0.0022619122
40	0x3a7e6497	0.000970432
41	0x3b94a1f5	0.0045359083
42	0xb8509eba	-4.973889e-05
43	0x3acde36f	0.0015708039
44	0x3a818b46	0.0009883426
45	0xbbbd2ce1	-0.0057731722
46	0xba030ec0	-0.00049994513
47	0x3a4131c7	0.0007369783
48	0xba4c23fa	-0.00077873433
49	0x37fce84d	3.0148914e-05
50	0x399e4cf9	0.00030193457
51	0x3b8d5633	0.0043132543
52	0x399c80c7	0.00029850585
53	0x3a389185	0.0007040727
54	0x399eb844	0.00030273397
55	0xbbc8e71c	-0.006131066
56	0xb969d9f8	-0.00022301811
57	0x38e7bf79	0.00011050603
58	0xb6a6cc2f	-4.9709556e-06
59	0xb969508b	-0.00022250616
60	0x3c131656	0.008977493
61	0x3ca50ccd	0.020147705
62	0x3a124fef	0.0005581369
63	0x3bfb1029	0.0076618386
64	0x3c16a84c	0.009195399
65	0xbc511dfa	-0.012763495
66	0xb992c6f5	-0.00027995525
67	0x3c12175b	0.008916701
68	0xbc239a78	-0.009985559
69	0xbb42f8c2	-0.0029750322
70	0x3a8b107c	0.0010609771
71	0x3b358d8b	0.0027702774
72	0x3a2bb53d	0.0006550139
73	0x3a82bf5b	0.0009975241
74	0x3a87c5ac	0.0010358593
75	0xbb684e34	-0.0035447003
76	0xb91a098a	-0.00014690138
77	0x3a272f79	0.00063776184
78	0xbaa70f9a	-0.0012745738
79	0x39943d16	0.00028274272
80	0xba225b39	-0.0006193403
81	0xbbb44ca0	-0.0055022985
82	0x3a5eae73	0.0008494623
83	0xbb136084	-0.0022487948
84	0xba1f9920	-0.0006088186
85	0x3c15f548	0.009152718
86	0x3af439a1	0.0018632897
87	0x3a7568f2	0.00093616464
88	0x37b5a95b	2.1655744e-05
89	0x3a98b47b	0.0011650467
90	0x392c2a4c	0.00016418955
91	0xb9f5adc8	-0.0004685952
92	0x3850c8a3	4.9777922e-05
93	0x39368eba	0.00017410042
94	0x390dfa1b	0.0001353998
95	0xb70199a1	-7.724769e-06
96	0xba340a74	-0.0006868013
97	0xb8a145d3	-7.690084e-05
98	0xb61d4333	-2.3433938e-06
99	0x3a81f1a0	0.0009913929
100	0xb8a21a49	-7.729658e-05
101	0xbad30ce1	-0.0016101861
102	0xb9fa9967	-0.0004779801
103	0xb91a4f03	-0.00014716019
104	0xb88c979e	-6.703961e-05
105	0x3b1d85e5	0.0024036106
106	0x39f275de	0.00046245655
107	0x394edcc9	0.0001972794
108	0x39644624	0.00021769904
109	0x3a46b4f4	0.00075800647
110	0x39c070be	0.00036705093
111	0x396fb2c9	0.00022859419
112	0x37a37535	1.9485693e-05
113	0x398dd0aa	0.00027049083
114	0x39c187ba	0.00036912953
115	0xba293d70	-0.0006455993
116	0xb993ddb7	-0.00028203215
117	0x38f789b1	0.00011803525
118	0xbab75d47	-0.0013989591
119	0xb9cf9574	-0.00039593468
120	0x3aca673b	0.0015442142
121	0x3b2677de	0.0025401036
122	0xb8ce9e67	-9.85235e-05
123	0x3a905705	0.0011012262
124	0x3ad1b338	0.0015998846
125	0xbb3a52b8	-0.0028430652
126	0xb9ac7d79	-0.0003289988
127	0x3ad5bdad	0.0016307138
128	0xbb859545	-0.004076632
129	0x3a10c18e	0.0005522006
130	0x39b82974	0.000351261
131	0xb962c58f	-0.00021626636
132	0x387aeaf9	5.982348e-05
133	0x38f2a815	0.00011570767
134	0x39a59bd2	0.00031587348
135	0x380e03ae	3.3858865e-05
136	0xb84857a5	-4.776534e-05
137	0x398e0742	0.00027089758
138	0xba94d320	-0.0011354424
139	0xb7cbbf7b	-2.428865e-05
140	0xb994c3f2	-0.0002837475
141	0xba856b31	-0.001017904
142	0x3984610b	0.00025249305
143	0xb9dba899	-0.0004189655
144	0xb9ba1478	-0.00035491935
145	0x3a31655f	0.00067671196
146	0xb96f962f	-0.00022848764
147	0xba2380cb	-0.0006237148
148	0x3a2b6885	0.0006538707
149	0x391ac74f	0.00014760833
150	0x39dd8119	0.0004224859
151	0x3b8c72fe	0.004286169
152	0x39c729ee	0.00037987478
153	0x3a26aaa9	0.0006357828
154	0x3a0e1366	0.0005419761
155	0xbb9bb313	-0.004751572
156	0xba0bc9ab	-0.000533248
157	0x39b44880	0.00034386292
158	0xba2ee932	-0.0006672322
159	0xbae95c0b	-0.001780392
160	0xb9490edd	-0.00019174391
161	0xba60e0f9	-0.00085784454
162	0x36885e9b	4.0641294e-06
163	0xb88fe147	-6.8607325e-05
164	0xb94ab74d	-0.00019332506
165	0x39cd5fdc	0.00039172068
166	0xb96337c8	-0.00021669187
167	0xb9995a19	-0.00029249562
168	0xb972ec78	-0.0002316701
169	0xb9fa6abf	-0.00047763248
170	0x39a282d8	0.00030996534
171	0x3b73320c	0.0037108688
172	0x391de09d	0.00015056362
173	0x3a5002ff	0.0007935017
174	0x39d57e38	0.00040720566
175	0xbbd7feb2	-0.0065916413
176	0xb8960efb	-7.155348e-05
177	0x37debf42	2.6553524e-05
178	0x37c002cc	2.2889486e-05
179	0xbad2d39a	-0.0016084791
180	0xb918459b	-0.0001452178
181	0xba8bcd06	-0.001066596
182	0x36e9d2f1	6.968498e-06
183	0xb9544c6b	-0.00020246363
184	0xb91e3821	-0.00015088964
185	0x3ada21bf	0.0016642137
186	0x3997b36f	0.00028934653
187	0xb95df72a	-0.00021168278
188	0x381460e7	3.5376197e-05
189	0x398311f2	0.00024999637
190	0x3a168f3d	0.000574339
191	0xba73ebb6	-0.0009304838
192	0x38d041e8	9.930489e-05
193	0x38ed0b78	0.00011303177
194	0x39e8ea6f	0.00044425155
195	0x3ae2336d	0.0017257758
196	0xb9007a0a	-0.00012252494
197	0xb9227b9c	-0.00015495572
198	0xbb013436	-0.0019714958
199	0x39577c64	0.00020550337
200	0xba07f689	-0.0005186578
201	0xbafa4cd6	-0.0019096385
202	0xb9e3ddbc	-0.0004346202
203	0xb9c837e8	-0.00038188626
204	0xb9ef1b94	-0.0004560618
205	0x3b221681	0.0024732652
206	0xb8b53a71	-8.641638e-05
207	0xb9e22c81	-0.00043139237
208	0x3a870e0e	0.0010303871
209	0xb5c61fe3	-1.476143e-06
210	0x386e8e0e	5.687592e-05
211	0x3a9f903c	0.0012173722
212	0xb8bb3958	-8.927536e-05
213	0x395ad892	0.00020870779
214	0x3817a9ef	3.615947e-05
215	0xbaefe0f6	-0.0018301297
216	0x39348c3a	0.00017218376
217	0x388666fe	6.408802e-05
218	0x390b7d46	0.00013302741
219	0xb8882b0b	-6.493003e-05
220	0x3999c157	0.00029326483
221	0x3b13d9fa	0.0022560344
222	0x3977c718	0.00023629924
223	0x39d3522b	0.00040306276
224	0x39ac9c2e	0.0003292276
225	0xbb509c9b	-0.0031831625
226	0xb8ff826b	-0.0001218364
227	0x39a0f6ea	0.00030701543
228	0xb9b96c54	-0.0003536666
229	0xb9a92067	-0.00032258334
230	0x368b547e	4.152359e-06
231	0xba1489cf	-0.0005666287
232	0x3902a1db	0.00012458062
233	0xb8faf6ba	-0.00011966885
234	0xb880aef6	-6.136105e-05
235	0x3a6f74ac	0.0009134512
236	0x390071e4	0.00012249459
237	0xb8f6d7fc	-0.00011770424
238	0x3911649a	0.00013865755
239	0xb8d8b99a	-0.000103342536
240	0x370bb4c9	8.327138e-06
241	0xba58dd34	-0.0008272708
242	0x375f858d	1.33229305e-05
243	0x3915d8bf	0.00014290492
244	0xb80afbee	-3.313639e-05
245	0x3a4bf220	0.0007779915
246	0x3872336d	5.774519e-05
247	0xb887bee9	-6.4728614e-05
248	0xb912c7d2	-0.00013998084
249	0x38df0db4	0.00010636021
250	0x3aa56417	0.001261833
251	0xbae2d061	-0.0017304533
252	0x39b595a9	0.00034634516
253	0x399c3a6f	0.00029798175
254	0x3a8f209b	0.0010919751
255	0x3b3874d8	0.0028145816

exp_avg_sq f4 [64, 10]
0	0x37ae371c	2.0768079e-05
1	0x38042c9d	3.15128e-05
2	0x37e77f78	2.7596703e-05
3	0x37809de1	1.5332307e-05
4	0x37a1361a	1.9217889e-05
5	0x389ad1c7	7.382366e-05
6	0x37d69135	2.5578405e-05
7	0x37b1d78f	2.1200422e-05
8	0x38b299ac	8.516325e-05
9	0x3816f871	3.5994166e-05
10	0x37daf7f7	2.6103093e-05
11	0x38964e18	7.1671035e-05
12	0x380a1ce1	3.292866e-05
13	0x37a1225f	1.92087e-05
14	0x37bc6fa2	2.246333e-05
15	0x388e18bd	6.7756955e-05
16	0x37ffa6ea	3.0476094e-05
17	0x37912451	1.7302258e-05
18	0x38eaeee6	0.00011202488
19	0x37583a83	1.2888227e-05
20	0x3819dd4a	3.6684134e-05
21	0x38b9fc5a	8.8684916e-05
22	0x383fc087	4.5717254e-05
23	0x37fb2c5b	2.9942186e-05
24	0x3806a8d6	3.210533e-05
25	0x38c74a5e	9.5029114e-05
26	0x3833330d	4.272447e-05
27	0x37e41c2a	2.7192833e-05
28	0x39204fdd	0.0001528854
29	0x37a1d2d8	1.9290877e-05
30	0x350ad3db	5.1717296e-07
31	0x35b1f580	1.3258978e-06
32	0x3548d85d	7.4820656e-07
33	0x352efe92	6.51905e-07
34	0x353b7f6b	6.9848346e-07
35	0x34ea30b2	4.3621327e-07
36	0x34b55a20	3.3779452e-07
37	0x35b69460	1.360324e-06
38	0x354e0955	7.675456e-07
39	0x388decdc	6.7675224e-05
40	0x37f81c35	2.9577039e-05
41	0x389649b3	7.166285e-05
42	0x381644c4	3.582683e-05
43	0x37c37410	2.3299857e-05
44	0x37d7c605	2.5722207e-05
45	0x389956ca	7.311774e-05
46	0x38189f96	3.638825e-05
47	0x37acda95	2.0605783e-05
48	0x38dbcc0b	0.0001048074
49	0x3797c9cf	1.8094577e-05
50	0x37ef659e	2.853834e-05
51	0x38a274fe	7.7465535e-05
52	0x381682a0	3.588444e-05
53	0x37a99246	2.0214484e-05
54	0x37cc257b	2.4336148e-05
55	0x38ac7c17	8.224713e-05
56	0x380ab369	3.3068853e-05
57	0x379aed80	1.8468825e-05
58	0x39090b09	0.00013069449
59	0x36bb4b5a	5.5818064e-06
60	0x3a0a480a	0.0005275017
61	0x3a8b4c43	0.0010627586
62	0x3a35a0e2	0.00069285755
63	0x39e22ce7	0.00043139534
64	0x39fa968c	0.00047795882
65	0x3a883140	0.0010390654
66	0x3a28500e	0.00064206205
67	0x39e085bf	0.00042824258
68	0x3a9746a5	0.001154144
69	0x3a95c4d2	0.0011426455
70	0x3775f766	1.466074e-05
71	0x38099f63	3.2811786e-05
72	0x379bec83	1.8587574e-05
73	0x3738774f	1.0995033e-05
74	0x37599e8c	1.29711225e-05
75	0x382b850c	4.0893487e-05
76	0x37974c2c	1.8036073e-05
77	0x373b6ca2	1.1171362e-05
78	0x387246f5	5.776338e-05
79	0x3793257c	1.754122e-05
80	0x3904467d	0.0001261476
81	0x39a7e758	0.00032025087
82	0x391ec837	0.0001514264
83	0x38bb7bd3	8.939919e-05
84	0x38e19955	0.000107573964
85	0x39ac573f	0.000328714
86	0x3929c467	0.00016190262
87	0x38a8c1d2	8.046966e-05
88	0x3a09001f	0.00052261533
89	0x398622bc	0.0002558435
90	0x35e215e1	1.684468e-06
91	0x3635fdc6	2.7118817e-06
92	0x366c5b26	3.5219796e-06
93	0x35f8a467	1.8525287e-06
94	0x35d5231c	1.5879955e-06
95	0x36298b0f	2.5263905e-06
96	0x36110f59	2.1615617e-06
97	0x3603cb65	1.9638912e-06
98	0x360a8402	2.064044e-06
99	0x386c2f23	5.6310684e-05
100	0x36a99886	5.0543485e-06
101	0x377cc909	1.5067178e-05
102	0x36b60d65	5.425582e-06
103	0x36866a2b	4.005871e-06
104	0x36943a95	4.4175636e-06
105	0x3778457d	1.4798131e-05
106	0x36aeb692	5.206858e-06
107	0x36757257	3.65744e-06
108	0x37fb7eb5	2.9980534e-05
109	0x3701037c	7.68981e-06
110	0x362c4439	2.5669708e-06
111	0x36e2f1ea	6.7634874e-06
112	0x36581757	3.2200094e-06
113	0x35f34401	1.8124703e-06
114	0x361abdd1	2.3058276e-06
115	0x36dbbfee	6.549052e-06
116	0x363dbee7	2.8274314e-06
117	0x36071636	2.0129496e-06
118	0x3732fe49	1.0668832e-05
119	0x36b81a0f	5.486661e-06
120	0x3798321a	1.8143142e-05
121	0x3814104c	3.5301127e-05
122	0x37af7aa9	2.0918744e-05
123	0x3748aa28	1.19605465e-05
124	0x3789b9aa	1.641813e-05
125	0x3898de2a	7.289306e-05
126	0x37a364de	1.9478084e-05
127	0x37857c93	1.5912845e-05
128	0x38e2ec3c	0.00010820522
129	0x381ceabc	3.741191e-05
130	0x35531393	7.863211e-07
131	0x364ce92f	3.05341e-06
132	0x355d8135	8.2516937e-07
133	0x354042a3	7.1622543e-07
134	0x3535fa20	6.7791734e-07
135	0x363fd3ef	2.858458e-06
136	0x35805ab2	9.563139e-07
137	0x3532a594	6.6551115e-07
138	0x36e711f0	6.8864247e-06
139	0x3557b994	8.0363793e-07
140	0x35cfcf32	1.5483004e-06
141	0x369f2f42	4.744071e-06
142	0x36189153	2.2734355e-06
143	0x3510fa96	5.400883e-07
144	0x35bcceb9	1.4067256e-06
145	0x36990921	4.560818e-06
146	0x3614b5d8	2.2159566e-06
147	0x35cd64f4	1.5303071e-06
148	0x36e8fe2c	6.9437283e-06
149	0x36c760d7	5.941936e-06
150	0x37b03ae7	2.1008264e-05
151	0x38606db9	5.350795e-05
152	0x37e2484b	2.6974963e-05
153	0x37713754	1.43776015e-05
154	0x379d151f	1.8725694e-05
155	0x389b6fd3	7.411805e-05
156	0x37c2e401	2.3232775e-05
157	0x3789f440	1.644541e-05
158	0x38eb78c9	0.00011228171
159	0x385dc021	5.286944e-05
160	0x361e5e1b	2.3598611e-06
161	0x36ac744b	5.1395377e-06
162	0x364d6acc	3.0609544e-06
163	0x35dc8dc2	1.6432534e-06
164	0x3607f327	2.02581e-06
165	0x369511e1	4.4426274e-06
166	0x36591262	3.234622e-06
167	0x35cc0837	1.5201575e-06
168	0x36e068bf	6.6879143e-06
169	0x35da0df5	1.6246328e-06
170	0x382d79b3	4.1359755e-05
171	0x38bd2c4a	9.020472e-05
172	0x38575907	5.1342908e-05
173	0x37fd5beb	3.0202753e-05
174	0x381a2b0f	3.6756563e-05
175	0x38f6c2ec	0.00011766501
176	0x3849c681	4.8107006e-05
177	0x3802fcc2	3.1229814e-05
178	0x3932bb05	0.00017045073
179	0x386d2038	5.653521e-05
180	0x360c6c83	2.0924788e-06
181	0x36b8409a	5.491148e-06
182	0x36351ecd	2.698903e-06
183	0x35c83478	1.4916432e-06
184	0x35f14588	1.7976135e-06
185	0x36c86fcb	5.973479e-06
186	0x3631f36a	2.651674e-06
187	0x35d22d1c	1.5659348e-06
188	0x371655cf	8.960676e-06
189	0x3633029b	2.6674595e-06
190	0x37049911	7.903452e-06
191	0x37bcae58	2.2492532e-05
192	0x370dacae	8.44446e-06
193	0x36bb7b79	5.5874084e-06
194	0x36ec6a4b	7.045722e-06
195	0x37b200ec	2.1219683e-05
196	0x371296b9	8.737371e-06
197	0x36d01613	6.201453e-06
198	0x382d8193	4.136709e-05
199	0x361cc722	2.3361722e-06
200	0x36ecef1d	7.0611845e-06
201	0x3798e464	1.8226165e-05
202	0x370ba28d	8.322892e-06
203	0x36b00f6e	5.247005e-06
204	0x36d16c5c	6.2413e-06
205	0x379bf303	1.8590601e-05
206	0x36e632df	6.8604563e-06
207	0x36b11371	5.2772743e-06
208	0x3807997c	3.232945e-05
209	0x36dc98f6	6.574318e-06
210	0x364d1c45	3.0563835e-06
211	0x37266dad	9.919907e-06
212	0x3683812c	3.919142e-06
213	0x3625b63f	2.4692997e-06
214	0x3630e5c0	2.6359776e-06
215	0x3702dc9d	7.799969e-06
216	0x3677241b	3.6826884e-06
217	0x360d76d6	2.107981e-06
218	0x3770ea6d	1.4359696e-05
219	0x36233a1b	2.4322715e-06
220	0x3719e07c	9.1717775e-06
221	0x37b76534	2.1862426e-05
222	0x373c152a	1.1210601e-05
223	0x36d3c384	6.311051e-06
224	0x370697b3	8.022343e-06
225	0x37c95f75	2.4005518e-05
226	0x37347c9b	1.0757848e-05
227	0x36d3d5da	6.3131856e-06
228	0x381691d9	3.5898618e-05
229	0x36ee6f3d	7.1059026e-06
230	0x358487e6	9.874318e-07
231	0x36814053	3.851988e-06
232	0x35d47f42	1.5832268e-06
233	0x359329ec	1.0964554e-06
234	0x357c6c8e	9.4035283e-07
235	0x366d4dcb	3.5361033e-06
236	0x35e17a46	1.6799393e-06
237	0x359a2790	1.1485408e-06
238	0x36dc9ada	6.574538e-06
239	0x360eb8f5	2.1267308e-06
240	0x362ee382	2.6060447e-06
241	0x36d33bfa	6.295272e-06
242	0x365770df	3.2103196e-06
243	0x35f45e1c	1.8206806e-06
244	0x36170955	2.2506185e-06
245	0x36eafdc1	7.0032843e-06
246	0x36545d53	3.1644784e-06
247	0x35e0a130	1.6736212e-06
248	0x3733c94f	1.0716102e-05
249	0x365a7292	3.255122e-06
250	0x3782c689	1.5589658e-05
251	0x3816b2c2	3.5929268e-05
252	0x379c726f	1.8649936e-05
253	0x3748ea59	1.1975492e-05
254	0x376601e2	1.3709507e-05
255	0x3826fcc0	3.9812876e-05

exp_avg f4 [64]
0	0x3b05ef85	0.0020436954
1	0xba9830b5	-0.0011611196
2	0xba3625f2	-0.00069484033
3	0xb8b195c3	-8.467913e-05
4	0xba775a1f	-0.00094357313
5	0xb9779d2f	-0.00023614311
6	0xbc2215de	-0.009892909
7	0xbaad262c	-0.0013210229
8	0x3978c7cc	0.00023725553
9	0xb962bed4	-0.00021624129
10	0x39920c17	0.00027856298
11	0xb9d914ed	-0.00041405056
12	0xbac37d8b	-0.0014914734
13	0xb9fdeb6a	-0.00048431318
14	0x3948d0dc	0.00019151293
15	0xb9f9699f	-0.00047571675
16	0x391a83f1	0.00014735736
17	0xb9da6d63	-0.000416617
18	0x391d27cf	0.00014987517
19	0xba0ecafe	-0.00054471183
20	0x3a17b732	0.0005787491
21	0xb81fa874	-3.806544e-05
22	0xb9afbecd	-0.0003352076
23	0xb91b9674	-0.00014838
24	0x376ab110	1.3988712e-05
25	0xbab78e35	-0.0014004173
26	0xba255be9	-0.0006307946
27	0xbab0bbfb	-0.0013483757
28	0x38fe6181	0.00012129825
29	0x3abc0e1b	0.0014347465
30	0x392d95ec	0.00016554416
31	0x396b9c6d	0.0002246962
32	0x38be3944	9.0705726e-05
33	0x39a31d5b	0.00031111654
34	0x3ada3e33	0.0016650617
35	0x394ed345	0.00019724395
36	0x3aa403ae	0.0012513304
37	0xba90f4ff	-0.0011059343
38	0x391e6759	0.00015106554
39	0x3a0a1ecb	0.0005268871
40	0xb93cbfcf	-0.00018000531
41	0xb9aa29e8	-0.0003245615
42	0xbab3c698	-0.0013715802
43	0x3a4731b4	0.0007598654
44	0x3a9d83a3	0.001201738
45	0x3993f60d	0.00028221347
46	0xb9131964	-0.00014028471
47	0xba42345f	-0.00074083166
48	0x3a3425b5	0.0006872074
49	0x39975578	0.00028864644
50	0x3ada3d73	0.0016650393
51	0xb9841084	-0.00025189307
52	0x394826c0	0.00019087922
53	0xb8ecc1a4	-0.00011289425
54	0x3ad588d8	0.0016291393
55	0x38c73d90	9.500526e-05
56	0x3ade8a0d	0.0016978398
57	0x3a87923e	0.0010343266
58	0xbaa88f73	-0.0012860134
59	0xb9fdd8a8	-0.00048417342
60	0x3a85653c	0.0010177265
61	0x39aea9a4	0.00033314258
62	0x3998117f	0.00029004735
63	0xb8048023	-3.159059e-05

exp_avg_sq f4 [64]
0	0x37de33e3	2.6488624e-05
1	0x3800b4ef	3.0686086e-05
2	0x383b52b1	4.4661287e-05
3	0x353e2e3f	7.084781e-07
4	0x381aa144	3.686665e-05
5	0x380c0d27	3.339085e-05
6	0x3a3c790a	0.0007189667
7	0x379583c9	1.7823551e-05
8	0x39252ec9	0.00015753055
9	0x363bfb5f	2.8011489e-06
10	0x36b158f4	5.2853666e-06
11	0x36521ca8	3.1309119e-06
12	0x37a776cc	1.996327e-05
13	0x356fa3dc	8.9272885e-07
14	0x3615a846	2.2300678e-06
15	0x37c839a4	2.3868699e-05
16	0x3658dc2f	3.2314672e-06
17	0x384e39fb	4.9168226e-05
18	0x363036df	2.6257983e-06
19	0x37116b11	8.667602e-06
20	0x36fee4c7	7.596423e-06
21	0x3678aa4a	3.7054e-06
22	0x37334390	1.0684962e-05
23	0x35d3b207	1.5772538e-06
24	0x36592b76	3.2360817e-06
25	0x37a02f3c	1.9095482e-05
26	0x3799c06f	1.832863e-05
27	0x37e33447	2.7084852e-05
28	0x35d57bda	1.5905782e-06
29	0x376ec7b5	1.4232403e-05
30	0x3726c73f	9.940762e-06
31	0x36da201c	6.5006443e-06
32	0x34763370	2.2929248e-07
33	0x36801028	3.816578e-06
34	0x37757d9a	1.4632382e-05
35	0x376ef400	1.4242716e-05
36	0x37732bb9	1.4494109e-05
37	0x37903896	1.7192488e-05
38	0x3643e38a	2.918971e-06
39	0x370727de	8.055909e-06
40	0x36a65da0	4.958085e-06
41	0x3576d281	9.1948465e-07
42	0x385a6fb6	5.207929e-05
43	0x36f0b5b3	7.17371e-06
44	0x391b6919	0.00014821104
45	0x384e0f03	4.9128208e-05
46	0x354a411c	7.534561e-07
47	0x3674573b	3.6409608e-06
48	0x3698886e	4.5458355e-06
49	0x37949ef3	1.7716991e-05
50	0x3727397d	9.967361e-06
51	0x36a22d90	4.8332804e-06
52	0x3563e852	8.490216e-07
53	0x3699f332	4.588067e-06
54	0x37556198	1.2718512e-05
55	0x346bc9ae	2.1959451e-07
56	0x381802dd	3.624229e-05
57	0x391934d3	0.00014610896
58	0x36d34aa1	6.296978e-06
59	0x3733d606	1.0719063e-05
60	0x37269205	9.928369e-06
61	0x37385668	1.0987373e-05
62	0x35a568e1	1.2323982e-06
63	0x35f611df	1.833363e-06

exp_avg f4 [64, 64]
0	0x383906e7	4.4113865e-05
1	0x3931cf61	0.0001695729
2	0x3944103e	0.00018698067
3	0x36babb93	5.5650685e-06
4	0xb8e84e17	-0.000110771674
5	0xb89f0537	-7.582682e-05
6	0xb87599fc	-5.855596e-05
7	0xb97bc5e1	-0.00024010941
8	0x37e0f65d	2.6817603e-05
9	0xb3d2ce1b	-9.8163774e-08
10	0xb95313a0	-0.00020129839
11	0xb88ac4aa	-6.616984e-05
12	0xb8b01e87	-8.39802e-05
13	0xb88814b8	-6.4888445e-05
14	0xb792fe9e	-1.7523122e-05
15	0xb964ff0e	-0.0002183879
16	0xb82ad0e9	-4.072572e-05
17	0xb88e6d78	-6.791478e-05
18	0xb985f736	-0.00025551923
19	0xb878fa9f	-5.9361217e-05
20	0xb9321292	-0.00016982321
21	0x39ad80aa	0.00033092994
22	0xb94c381d	-0.0001947586
23	0xba04d0e6	-0.00050665287
24	0xb91bb6b0	-0.00014850008
25	0x38d9e1cd	0.00010389425
26	0xb9a039dc	-0.00030560687
27	0xba0b4df3	-0.00053140445
28	0xb8bbfce5	-8.96396e-05
29	0xb9b4baae	-0.00034471363
30	0xb99e7c8a	-0.00030228897
31	0xb70f6465	-8.546839e-06
32	0xb5d88ce7	-1.6134262e-06
33	0x38469ef7	4.7354926e-05
34	0xb8dd0050	-0.000105381594
35	0x38ddc799	0.00010575279
36	0xb811e679	-3.478534e-05
37	0x38fd3c98	0.000120752666
38	0xb98e7523	-0.00027171624
39	0x38b7c959	8.763624e-05
40	0x39188ca8	0.00014548248
41	0x381215bc	3.4829354e-05
42	0xb99a32bf	-0.00029410978
43	0xb981168f	-0.00024621605
44	0xb84ce063	-4.8846367e-05
45	0x37ac0710	2.0507287e-05
46	0xb917d4e9	-0.00014479797
47	0x39c7d69b	0.0003811613
48	0xb922776f	-0.00015494016
49	0xb947cfc2	-0.00019055515
50	0xb9e15009	-0.00042974975
51	0xb8c8c22d	-9.572911e-05
52	0xb919ee7b	-0.00014680058
53	0x37e35fbe	2.7105092e-05
54	0xb910adbf	-0.00013797636
55	0x3521fc05	6.034391e-07
56	0xb9b0fe0c	-0.00033758616
57	0xb8701ec5	-5.7249115e-05
58	0xb8188040	-3.6359066e-05
59	0xb97ab79d	-0.00023910259
60	0xb836e632	-4.3606567e-05
61	0xb8e5d2e4	-0.00010958852
62	0xb8896570	-6.551563e-05
63	0xb79c78d4	-1.8652914e-05
64	0x37034785	7.82486e-06
65	0xb88a8e4b	-6.606857e-05
66	0xb887acb1	-6.469468e-05
67	0xb78a95ed	-1.6520697e-05
68	0x389a87ca	7.368585e-05
69	0x34047e42	1.233939e-07
70	0x3832951b	4.2577372e-05
71	0x390c7bfa	0.00013397625
72	0x37465f58	1.1823919e-05
73	0xb7a22746	-1.9330193e-05
74	0x38ba7ffa	8.8930086e-05
75	0x37e356d4	2.7100941e-05
76	0x37a260f5	1.9357054e-05
77	0x380366bc	3.1328513e-05
78	0xb7b3c9f5	-2.1432506e-05
79	0x386c4d97	5.6339046e-05
80	0x365a4712	3.25259e-06
81	0x3712b3e9	8.744167e-06
82	0x38995789	7.311913e-05
83	0xb62f9ca3	-2.6168207e-06
84	0x38902bd2	6.874617e-05
85	0xb938f1b5	-0.0001763765
86	0x3871e3e2	5.767111e-05
87	0x395f2f8a	0.00021284647
88	0x379a078d	1.8361747e-05
89	0xb8c5a714	-9.424813e-05
90	0x38b86dbc	8.794243e-05
91	0x39515757	0.0001996433
92	0x3813dba3	3.5252084e-05
93	0x39146b40	0.00014154334
94	0x38a6cc41	7.953542e-05
95	0xb79364e1	-1.7570741e-05
96	0xb7c9a576	-2.4038116e-05
97	0xb82aeeec	-4.075367e-05
98	0x380c1ff2	3.3408352e-05
99	0xb83629fd	-4.3431286e-05
100	0x377fdc5f	1.5250494e-05
101	0xb84e257e	-4.9149145e-05
102	0x38cda4f3	9.805886e-05
103	0xb874f688	-5.8403733e-05
104	0xb8c465c2	-9.364962e-05
105	0xb89027fb	-6.873902e-05
106	0x392186db	0.00015404394
107	0x38f3ffe7	0.000116348085
108	0x3673e171	3.6341046e-06
109	0x37711e0d	1.4371716e-05
110	0x3842306c	4.62983e-05
111	0xb93ec79a	-0.0001819417
112	0x382b5379	4.0847317e-05
113	0x3871b4ba	5.7627192e-05
114	0x38fa73fd	0.000119425335
115	0x372891da	1.0047539e-05
116	0x389afa58	7.3899224e-05
117	0xb8244e11	-3.9173352e-05
118	0x385e4611	5.299418e-05
119	0xb74e2cbf	-1.2288975e-05
120	0x392f7e9d	0.00016736468
121	0x36d0a6b4	6.21829e-06
122	0x36f72a0f	7.36607e-06
123	0x38b8d967	8.814298e-05
124	0x370682ca	8.017474e-06
125	0x3824336d	3.914854e-05
126	0x37b5fec1	2.169551e-05
127	0xb89275b8	-6.983749e-05
128	0x3618641f	2.2708043e-06
129	0xb89badb0	-7.423328e-05
130	0xb88af96f	-6.6268134e-05
131	0xb80af8c8	-3.313346e-05
132	0x388296d3	6.226976e-05
133	0xb745c2b8	-1.17874515e-05
134	0x3831af58	4.236339e-05
135	0x38fa0211	0.00011921314
136	0x35ea89a4	1.7474417e-06
137	0xb7c6704d	-2.3655733e-05
138	0x38a37a94	7.7952776e-05
139	0xb72cc61d	-1.0298126e-05
140	0x36035e79	1.9575511e-06
141	0x37ff4040	3.0428288e-05
142	0xb81d67d7	-3.7528425e-05
143	0x38472748	4.748188e-05
144	0xb681a4a1	-3.863665e-06
145	0xb8008b0d	-3.064708e-05
146	0x388e9b0d	6.799968e-05
147	0xb6d6a2a7	-6.396632e-06
148	0x388079f1	6.126229e-05
149	0xb936abd8	-0.0001742089
150	0x37fb8069	2.9981327e-05
151	0x39495a6b	0.00019202537
152	0x375aded0	1.304569e-05
153	0xb8c765a2	-9.50799e-05
154	0x38a25926	7.741367e-05
155	0x392b7f69	0.00016355295
156	0x37c7209a	2.373783e-05
157	0x38fd09a1	0.000120657736
158	0x386dd258	5.67011e-05
159	0xb826fdef	-3.981398e-05
160	0xb7bffb83	-2.2886094e-05
161	0xb8382fd5	-4.3913566e-05
162	0x38037039	3.133735e-05
163	0xb83ff33f	-4.576449e-05
164	0x37987303	1.8173369e-05
165	0xb888c47d	-6.521584e-05
166	0x38b5cc07	8.6687556e-05
167	0xb889cf89	-6.5713255e-05
168	0xb8bef804	-9.1061025e-05
169	0xb883b809	-6.280846e-05
170	0x38dd7a1e	0.00010560847
171	0x38c7b84d	9.523388e-05
172	0xb7c88275	-2.3902607e-05
173	0x36278d45	2.496717e-06
174	0x384c90dc	4.87723e-05
175	0xb93a3dda	-0.00017761384
176	0x3849028a	4.79245e-05
177	0x37bee5b4	2.2756729e-05
178	0x38d1e22b	0.00010008024
179	0xb788ea8f	-1.6321688e-05
180	0x389234da	6.971667e-05
181	0xb83416fd	-4.2936754e-05
182	0x38727312	5.7804464e-05
183	0xb7b8f905	-2.2050468e-05
184	0x3920e516	0.0001534413
185	0xb7c32faa	-2.3268007e-05
186	0x36a8ef5f	5.0346566e-06
187	0x38acd205	8.240718e-05
188	0x3742030e	1.1564012e-05
189	0x37fd01ef	3.016085e-05
190	0x37fcadc2	3.0121653e-05
191	0xb88f3d19	-6.830152e-05
192	0xb77bcc06	-1.5008269e-05
193	0xb871a957	-5.7616588e-05
194	0xb859ef9d	-5.195999e-05
195	0xb7d7b125	-2.5712487e-05
196	0x38311f5b	4.222929e-05
197	0xb70c7be1	-8.373493e-06
198	0x37e398af	2.7131608e-05
199	0x38be2edd	9.068635e-05
200	0xb6a92d74	-5.041884e-06
201	0xb7976e3f	-1.805194e-05
202	0x3882f61a	6.244723e-05
203	0xb70f82e5	-8.5539405e-06
204	0xb2cef1f2	-2.409158e-08
205	0x37d537ef	2.5417625e-05
206	0xb81a7126	-3.682184e-05
207	0x37c61d4c	2.3617082e-05
208	0xb6723b65	-3.6095382e-06
209	0xb80a08b6	-3.2909877e-05
210	0x38768d22	5.878241e-05
211	0xb6a35645	-4.8678216e-06
212	0x3880e15a	6.1454906e-05
213	0xb90dfa8f	-0.00013540148
214	0x37d94f8d	2.590546e-05
215	0x391ce884	0.00014963938
216	0x36b56be1	5.406779e-06
217	0xb8a22ea0	-7.7334465e-05
218	0x38897b45	6.55563e-05
219	0x38fc4b67	0.00012030341
220	0x3792d780	1.7504906e-05
221	0x38bdc4d6	9.048886e-05
222	0x38434abd	4.656123e-05
223	0xb8022dd6	-3.1037103e-05
224	0xb793de45	-1.7627268e-05
225	0xb81fa179	-3.8058937e-05
226	0x37c6fbf0	2.3720757e-05
227	0xb809e765	-3.287885e-05
228	0x373eb371	1.1366662e-05
229	0xb8806872	-6.12297e-05
230	0x38898b9f	6.5586755e-05
231	0xb854f365	-5.0771418e-05
232	0xb89d40da	-7.498423e-05
233	0xb843e771	-4.670717e-05
234	0x38a91c54	8.0638245e-05
235	0x389d5896	7.502844e-05
236	0xb7a750e7	-1.9945624e-05
237	0xb6154ed6	-2.2248619e-06
238	0x38065f85	3.203705e-05
239	0xb9179e85	-0.00014459535
240	0x381108fc	3.457906e-05
241	0x377055ea	1.4325118e-05
242	0x38a80f33	8.013695e-05
243	0xb7726f66	-1.4450261e-05
244	0x388089e4	6.1292e-05
245	0xb809bf6c	-3.284162e-05
246	0x383ca72e	4.497839e-05
247	0xb7901073	-1.7173797e-05
248	0x3905c517	0.0001275729
249	0xb7a682fb	-1.9849735e-05
250	0x36e35be3	6.775824e-06
251	0x386fc4c4	5.7165293e-05
252	0x37acce30	2.0600011e-05
253	0x37ea8ea8	2.7961403e-05
254	0x379e3a51	1.8862223e-05
255	0xb85314e8	-5.032579e-05
