simple_mlp_zprime/version_0/checkpoints/epoch=49-step=11750.ckpt (torch, 69720 bytes, 18 tensors)

layer1.weight f4 [64, 10]
00000000: 8732 0c3f ce3d acbb e81d cabe 012a 193d
00000010: 55c0 14be aa4e 69bc 103e bb3e af6d c73c
00000020: 4cb9 05be 6f27 493e 35be 833e dfef 8ebe
00000030: 10f3 663e 73f4 053e f7d3 f6bd 0ee6 77bd
00000040: c899 e5bc f28e 95be cd3f 71be ebec 77bd
00000050: 2d15 d8be 46f3 81be 3f98 03be a9c3 f73d
00000060: 2f96 f3bd fbd5 92be 163c fcbd 5f81 efbd
00000070: 7c86 87be 7366 623e 8079 d2bd 7a0d c0be
00000080: 5092 29bd 5154 1d3d 1320 94be ad55 1fbd
00000090: c6d1 313e e645 9bbd 6b62 28bd f82f 603e
000000a0: adc9 6dbe 646d 27bc d655 cabd 737c ad3d
000000b0: 880a 79be e5c0 a83c 8ed0 6abd eea6 843e
000000c0: 2195 8d3e 3533 103d 473d bcbe 5820 f43c
000000d0: 873c 60be 6bc0 a53e b326 64be 96cd ce3c
000000e0: ae5f 03be c26f d4bd 69a8 bbbd 4b1e 62bc
000000f0: 7ee5 683e 9ca6 4b3d 1572 c6be 095b 843e
00000100: ebb8 30be 8ea2 80bc 2d08 ef3e 7039 b63d
00000110: 928d cebd f5d2 e7bc 40a1 8a3e ddcd 56be
00000120: fb16 793d 7249 043f 1529 48bd ff67 883d
00000130: 4846 a8bd 00d8 d6be e86a 2abe 2bdf 8abe
00000140: 36b9 ee3e de90 7dbd 0278 74be 7550 d9be
00000150: f90f 65be 76a7 d73c ab4f 8c3e 5878 093d
00000160: e4e0 4f3e 36cd 2abe 936b b0be b4cd 3d3d
00000170: d368 fc3d e733 16be 8d91 46bd 1bfc 8abe
00000180: 088e 9a3d 46b3 85be 1c97 193d 13ab 64be
00000190: ab18 983e c596 453d 9f69 7f3e 5fee ffbe
000001a0: dbad 5c3e f60d 87be 4b5a 51be c5cf 24be
000001b0: 1385 53be 737a 85bd 029c c63e a0a7 e5bd
000001c0: c332 d93e b56c a0be 3f53 23bb 5e8f 363e
000001d0: 7f65 c6be 44df 4e3e 646c 0f3e 4a2c abbd
000001e0: 1a38 ab3e 938f 613e 568e 313e 382f 83be
000001f0: f120 0f3a f8c1 11bd ab2f 883d 60b5 9c3e
00000200: 38a8 3a3e ac90 543d 8b7c f23e ffc5 b5bc
00000210: ad9f 073f 1d32 013e a5d9 10bb b139 febc
00000220: 0a22 04bf b863 963d 988b e5bd 99fc 07be
00000230: 9809 8cbe 5046 ec3b 79fa e63c 0fd4 963e
00000240: 627c afbc 6a58 de3e 88f4 1bbd be63 39be
00000250: aec9 9cbe 7c9b 2d3c 55dd 043f 1d23 12be
00000260: 4505 efbe ed6f 2fbe 2209 683e 2d3b 363d
00000270: 99fd 883e 2e94 dabd b6a0 a53d a11f 1fbe
00000280: 609a 973e 7cba a53e 7e95 14be ab97 86be
00000290: 31b6 003e f6f1 afbe a789 01be 4dde 9e3e
000002a0: e458 34be 6537 753e f7e3 5cbe 53b2 993d
000002b0: df59 d5bc 9471 a2be 1bc5 a2bd 6fe7 043b
000002c0: 6bc6 c4bd fbdf 89be 55dd c8be f0f0 353e
000002d0: b2ee e03e c8bd 8bba 7d99 ddbe 2fd6 ca3d
000002e0: e8d5 213e c8b4 7abb b8b0 f03e 2291 bc3d
000002f0: 73dd 89bd 3b33 05bd 9787 8d3e cdd6 dabd
00000300: 15e6 533e a541 5abe ed74 d73c 7cff 533e
00000310: 9dd4 d1be ea10 bb3d 0fae b23d 79c4 34be
00000320: e025 dd3e fce6 86be f902 1d3e 8c98 613d
00000330: c59a d23e d8f3 f33e f836 183e 3def 443e
00000340: 0c78 583e 4d2a 643e 08c9 11bf 9691 c9be
00000350: 532b 923d 3932 873e e8da 15bc b5e2 8ebe
00000360: 86c6 d93d 319f 23be 3b96 31be 648d 36be
00000370: 10cc 06bf 39be c0bd a0ae 7d3c dbd6 c23e
00000380: bf2d 903c 7074 453c f77d f13d 0210 cb3c
00000390: ced4 073c d5a4 51be 9e09 ef3e 9fa0 9fbe
000003a0: 1df9 cbbb 9496 5b3d 76b8 393e a45d c33e
000003b0: 6e1b 19bb f4ff e03d a4ac bfbe c7bb 01bc
000003c0: 286d b9be e1f2 3a3d dc62 28be 4e9d b8bd
000003d0: 7109 82be 1b29 413e ea06 eebc 3f4e ac3e
000003e0: 5834 9ebd 961c 083d f825 c43e b37b e83d
000003f0: a56b c2be 3fd9 68be e1fc d53d 9ec3 2ebe
0.547646 -0.005256391 -0.39475942 0.037393574 -0.14526494 -0.014239946 0.36570787 0.024344293
-0.13058966 0.19643949 0.25731054 -0.27917382 0.22553658 0.13081531 -0.12052148 -0.06052213
-0.02802743 -0.2921062 -0.23559494 -0.060528677 -0.42203656 -0.25380915 -0.12851046 0.12097866
-0.118938796 -0.2867888 -0.12316148 -0.116945975 -0.2646979 0.22109394 -0.102770805 -0.37510282
-0.0413993 0.03841049 -0.2893072 -0.038900066 0.17365178 -0.075816914 -0.041109484 0.21893299
-0.23221464 -0.010218952 -0.09879653 0.084710024 -0.24320424 0.020599792 -0.0573278 0.25908607
0.2765284 0.035205085 -0.367655 0.029800579 -0.2189809 0.32373366 -0.22280388 0.025244515
-0.12829468 -0.103728786 -0.09162981 -0.013801168 0.22743794 0.049719438 -0.38758913 0.25850704
-0.1725804 -0.015702512 0.46685925 0.08897674 -0.10085596 -0.028298834 0.2707615 -0.20976968
0.06081293 0.5167457 -0.048867304 0.06660461 -0.0821653 -0.4196167 -0.16642344 -0.2712339
0.4662568 -0.061905734 -0.23873904 -0.42444196 -0.22369374 0.026324969 0.27404532 0.033562034
0.20300633 -0.16679844 -0.34457073 0.046338752 0.12324681 -0.14668237 -0.04847865 -0.27145466
0.075466216 -0.26113337 0.037497625 -0.22330885 0.2970632 0.04823949 0.24942635 -0.4998655
0.21550696 -0.2637784 -0.204446 -0.16094883 -0.20656233 -0.06517496 0.387909 -0.112136126
0.4242154 -0.31332937 -0.0024921445 0.17828128 -0.3874931 0.20202357 0.14006191 -0.08358057
0.3344124 0.22027425 0.17339453 -0.25621963 0.0005459926 -0.035585374 0.06649717 0.30607128
0.18228233 0.051895782 0.47360644 -0.022189138 0.5297802 0.12616773 -0.0022102382 -0.031033369
-0.5161444 0.073432386 -0.11208266 -0.13279952 -0.2735107 0.0072105303 0.028195607 0.29458663
-0.021421615 0.4342683 -0.038075 -0.18104455 -0.3062262 0.010596152 0.51900226 -0.14271207
-0.46683708 -0.1713254 0.22659734 0.04449003 0.2675598 -0.10672794 0.08087294 -0.15539409
0.29609966 0.3236884 -0.14510152 -0.26287588 0.125695 -0.3436429 -0.12650166 0.31028977
-0.17612034 0.23946913 -0.21571337 0.07504716 -0.02604383 -0.31727278 -0.07947751 0.0020279547
-0.09608158 -0.26928696 -0.39231363 0.17767692 0.4393211 -0.0010661418 -0.43281165 0.099041335
0.15804255 -0.0038254727 0.47009826 0.092073694 -0.06731691 -0.03251956 0.2764251 -0.10685501
0.20693238 -0.21314104 0.026300872 0.20702928 -0.40982524 0.091340855 0.08724605 -0.17653073
0.4319296 -0.26348102 0.15333165 0.05507712 0.41133705 0.47646976 0.14864719 0.19231887
0.21139544 0.22281761 -0.56947374 -0.39368886 0.0713717 0.26405504 -0.00914643 -0.2790734
0.106335685 -0.15978695 -0.17342465 -0.17827374 -0.52655125 -0.09411282 0.015483528 0.38054547
0.017599938 0.012051687 0.11791604 0.024787907 0.008290483 -0.20473035 0.46687025 -0.31177232
-0.006224765 0.0536104 0.18136773 0.3815738 -0.0023362297 0.10986319 -0.37436402 -0.007918305
-0.36216092 0.045641784 -0.16443962 -0.090143785 -0.25397828 0.18863337 -0.029056031 0.33653447
-0.077248275 0.033230387 0.38310218 0.11351719 -0.3797275 -0.22739123 0.104486234 -0.1706681

layer1.bias f4 [64]
00000000: 4bfa f93d 340c e03d d599 903e d037 183e
00000010: 30c8 6dbe 68b6 b13e 0474 8a3d a283 20be
00000020: 5b4c 8abe d2a9 adbe fbfb afbd 155a 39bd
00000030: e2f2 383e 15d6 693d c76e 903d 17e8 533d
00000040: a8f6 203e 25cf 5a3e d331 233e 5351 a23d
00000050: 862d acbd bc36 b13e 1aa7 233e a80d 183f
00000060: 5834 483d 24bc 27be ca8f a43e 845e db3e
00000070: 49ef 533e ad9d dc3e 8c99 373e b969 be3e
00000080: 4147 943d 5348 cc3d a3d5 8c3c a419 51bf
00000090: 785d ae3e 190b 9cbd 15cf 323d 59bd 78bd
000000a0: bb4a 2bbe c98e 90be 2a4c e13d 3d1f ddbd
000000b0: d6d5 1a3e 6a5a db3d 389b 913e 6e91 00be
000000c0: 52ef 1b3d f605 4d3e 663d 013e a51b ce3e
000000d0: 4ce0 a93e 8e8c 4b3e a9ee 193e 911b 9fbd
000000e0: aacc 9dbc 362c 4abe 3ff8 35bd 7157 babe
000000f0: 62a3 18be 2eb5 d13e eedf 583e b644 bc3e
0.12205943 0.109398276 0.28242365 0.14865041 -0.23220897 0.34709477 0.067604095 -0.15675214
-0.2701138 -0.33918625 -0.08592983 -0.045251925 0.18061402 0.05708893 0.07052379 0.05173501
0.15719092 0.21368082 0.15936975 0.079256676 -0.084071204 0.34612072 0.15981713 0.5939584
0.048878044 -0.16380364 0.32140952 0.42845547 0.20696749 0.43089047 0.17929667 0.37190035
0.07240153 0.09974732 0.017191714 -0.8167975 0.34055686 -0.07619304 0.04365452 -0.06072745
-0.16727726 -0.28233936 0.11000855 -0.10796974 0.15120634 0.107106045 0.28438735 -0.12555477
0.03807003 0.20021805 0.12621078 0.40255466 0.33178937 0.19877836 0.15032448 -0.0776893
-0.01926263 -0.19743428 -0.0444262 -0.36394837 -0.14906076 0.40958542 0.21179172 0.36771172

layer2.weight f4 [64, 64]
00000000: 3226 b13d 898e 89bc b31f 133c acc1 f8bd
00000010: 6b0f 9ebd d211 9fbd 6f67 78bb 985e 2cbc
00000020: dccc e63d 0c5e 72bd 221e a13d ca69 c73d
00000030: dda7 d9bc 6ac8 303d dcbf 80bd e583 e03d
00000040: 06f2 a23d f873 a73d 6aa4 033e 1a43 ff3d
00000050: abf7 083d 79f2 a7bd ca42 13be 309e 9ebd
00000060: a57b f9bd 6cc0 e53d d4ca 803e cae0 fcbb
00000070: 7871 86bc ffcd 173d 4ccf 0b3d 0d5a 7a3d
00000080: 221b a9be 2726 d3bc 2251 3fbe bd95 3e3d
00000090: 520b b5bd 94b2 bf3d 85fb d4bd 932e d8bd
000000a0: 3f0a 023e 79b6 863e 334f f5bd 7a30 073d
000000b0: df56 863c a6d3 9c3d dae4 84bd 565b c4bb
000000c0: d951 35bd e8e2 813e 1c75 83bd ae81 913e
000000d0: b2df bfbb 5b7e 193d 791f 683b 09f5 023e
000000e0: c606 12be 806e e43d 3b76 8cbd 8034 f3bd
000000f0: 61cf 8fbc a967 973c 307a 53bd 9038 223e
00000100: 135e 8fbe 5715 b6bd ee74 ab3d 8502 19bd
00000110: 824b a73c 8958 2f3d d33e 853d c0f3 f33d
00000120: d5aa 77be 44b8 093e 2231 b23a 61a4 47bd
00000130: e5cf 10be 9437 33be 5667 033e ee01 30be
00000140: e536 55be 1b4d 913c cdc4 6abe 3699 a0bd
00000150: a414 d6be 2da5 663e 153e 2b3e 4faa 02be
00000160: a305 bf3d 55c7 fa3c 5c45 37be 37fd 6abe
00000170: 701c 5bbe fe3a 8fbe 0e62 82be c995 7e3d
00000180: ebc3 8d3e 0d88 6abe 55ce cf3d 57c1 8c3c
00000190: c66f 9c3e 5bca 1d3c 1ab4 103e c4d2 94ba
000001a0: d0e2 9dbe 105f 87bb 8476 163f a4a6 2a3e
000001b0: fa7b 273e 3f3c 3dbb e8cc 9fbe 5a48 97be
000001c0: ed3e d93d e7c9 c23d 4aa3 8f3e 3f68 9cbe
000001d0: b4f5 243e ad0f f4be 471e 4ebe ab43 a8bc
000001e0: de84 be3d 82d2 11be 74ec 5c3d 0af4 1e3e
000001f0: 5460 b63d 1611 343e 2f99 59bc b653 a8be
00000200: 3fca e53d f1ae 06bd 8cbc 12be e07e ab3c
00000210: 99bd 083d a622 593d 96a0 af3c e9ca a33d
00000220: f284 243e 2cc6 bbbc d2bc 49bd e968 073d
00000230: cba4 f33d d95e 173e 45fa 23be 0f5f 943d
00000240: 7647 39bd feb9 c6bd eae7 623e bfda a1bd
00000250: 8dba 373d d3b0 b9bd d0c8 87bd 7e40 1b3e
00000260: bed0 31be 5516 903d e2db c5bc 91cc 0a3d
00000270: eaca 8cbd 6203 fc3d b763 a53d 62c8 24bd
00000280: b6ad 71bd a289 afbd e749 04bd 8458 eebc
00000290: 0487 24bd 9b65 683d efdb d2bd ff9c b93c
000002a0: 8e88 47bd ed8d 213e 91ec eabc 58ac a7bc
000002b0: 9f00 f23c f01b 953d 25cd 583d bc3c f93d
000002c0: ac5b 383d 82ec 423d fe61 02be c843 0a3d
000002d0: d3a1 033c 0b61 463d 6f6e 1dbd 83ae b0bd
000002e0: 63f7 66bd e8c1 cc3d f2c2 673d 567e ab3d
000002f0: 37e6 54bc b284 0e3e a8f0 a9bc b130 3fbd
00000300: 23f3 acbd 0a68 e7bd 407d 35be d8c0 fb3c
00000310: 02d2 1ebd f95d d1be 6d8d 3e3d ee4a 24be
00000320: ea93 4c3e 15fc b4bd 1ccf 83bc ab31 2d3e
00000330: 54c3 803e 08b6 dbbe 4043 05be 6f64 1f3d
00000340: 7390 4b3e 318b 7f3e d9e0 b4bd 0bca 83bb
00000350: 49d6 94bd 628a 82be a6b0 fcbe 0f5a 45bd
00000360: 55bc 1fba 48cd a83e 2d5e 3e3c 2215 d83d
00000370: e282 4fbe 9672 2cbe f575 4a3e 573e 15bd
00000380: e6ab d63d 75a0 93bd dde0 c33d 94b5 9d3d
00000390: 1394 733d 3a67 fb3d ddd4 cdbe f646 0abd
000003a0: b4ca c0bd f111 bf3e c19d 0e3e 9db6 74be
000003b0: 6287 3b3e b09f 0abf 102d 65bd 8494 89be
000003c0: 4194 9abc ada0 2a3e 5ed7 04be 10b2 64bd
000003d0: 4576 483e ab3c 163e 6da8 38be c8c1 0a3d
000003e0: 9a3a bf3d a789 b2bd 5acb dabd 883a 3ebe
000003f0: acf8 513e 5ba9 10bd c50a 8ebe 521f a73d
0.08649863 -0.016791599 0.008979726 -0.12146315 -0.077177845 -0.07767071 -0.0037903448 -0.0105206
0.112695426 -0.05917172 0.078670755 0.097369745 -0.026569301 0.04315988 -0.06286594 0.10962657
0.079563186 0.08176416 0.12855688 0.124639705 0.03343932 -0.08200545 -0.14380947 -0.077450156
-0.121817864 0.11218342 0.25154746 -0.0077172266 -0.016411528 0.037061688 0.03413324 0.061121035
-0.33028513 -0.025775028 -0.18683293 0.04652952 -0.0884005 0.09360233 -0.10399536 -0.10555758
0.12699221 0.2631109 -0.11977997 0.033005215 0.016398845 0.07657556 -0.064889625 -0.0059923334
-0.04426751 0.25368428 -0.06418821 0.2841925 -0.005855524 0.037474018 0.003541915 0.12788786
-0.14260396 0.11153889 -0.06858488 -0.11875248 -0.01755494 0.018482046 -0.0516302 0.1584189
-0.2800146 -0.08890789 0.08371912 -0.03735592 0.020421747 0.042809043 0.065061234 0.11911726
-0.24186261 0.13449198 0.0013594965 -0.04874075 -0.14141805 -0.1750167 0.12832388 -0.17188236
-0.20821722 0.017736962 -0.22926636 -0.07841723 -0.41812623 0.22523947 0.16722901 -0.1276028
0.09327247 0.030612627 -0.17897552 -0.22948156 -0.21397567 -0.27974695 -0.25465435 0.062154565
0.27688536 -0.22903462 0.101467766 0.017182035 0.30554026 0.009630765 0.14131203 -0.0011354317
-0.30837107 -0.0041312054 0.5877459 0.16665131 0.16355887 -0.002887502 -0.3121102 -0.29547387
0.10607705 0.09511166 0.28054267 -0.30548283 0.16109353 -0.4766821 -0.20128737 -0.02054008
0.09302686 -0.14240459 0.053936437 0.15522781 0.08905092 0.17584643 -0.013281151 -0.32876366
0.11220216 -0.03288168 -0.14329737 0.020934522 0.03338394 0.05301156 0.021438878 0.079976864
0.1606634 -0.022921644 -0.04925234 0.033059034 0.11896666 0.14782275 -0.16013439 0.072446935
-0.045234166 -0.09703444 0.2215878 -0.07903051 0.044855643 -0.0906693 -0.06630099 0.1516132
-0.17364785 0.070355095 -0.0241527 0.033886496 -0.0687464 0.12305333 0.0807566 -0.040230162
-0.059003554 -0.08571173 -0.03229704 -0.029094942 -0.040167823 0.056737524 -0.10295855 0.02265787
-0.048714213 0.15776797 -0.028677257 -0.020467922 0.029541312 0.07280719 0.052930016 0.12169787
0.0450093 0.047588833 -0.12732694 0.033756047 0.008034187 0.04843239 -0.038435396 -0.086270355
-0.05638827 0.09997922 0.0565824 0.08373706 -0.012994341 0.13917807 -0.020744637 -0.046677295
-0.08444812 -0.11299141 -0.1772356 0.030731604 -0.038774498 -0.40892008 0.046521593 -0.16044208
0.199783 -0.08837143 -0.016089968 0.16913478 0.25149024 -0.42912316 -0.13013935 0.03891414
0.19879322 0.24955441 -0.08831949 -0.004021888 -0.07267434 -0.25496203 -0.49353522 -0.04818159
-0.00060934323 0.32969117 0.011619133 0.10550906 -0.20264772 -0.16840586 0.1977156 -0.036436405
0.10482006 -0.07208339 0.09564374 0.07700649 0.059467386 0.12275548 -0.40201464 -0.03375908
-0.094136626 0.37318376 0.13927366 -0.23897786 0.18313363 -0.54149914 -0.055951178 -0.2687112
-0.018869521 0.16662855 -0.12972781 -0.055833876 0.19576366 0.1467158 -0.18033 0.03387621
0.09337349 -0.08717661 -0.106833175 -0.18577015 0.20505017 -0.03531776 -0.27742592 0.08160271

layer2.bias f4 [64]
00000000: be62 893d 4c2f 253c de93 80bd 0748 1dbe
00000010: 85e8 14bd 461d 2f3e 15ec 983e bcfb 303d
00000020: 1782 9b3e fe18 6fbc d014 243e 033d cb3e
00000030: 7382 383e 5d7f b43d 27f4 e53d 9824 58bd
00000040: f419 fe3d d508 aebd a1a5 093e 9d4a e9bd
00000050: 6485 d63d 9559 45bd 49de 563c afbd 4e3e
00000060: e081 4a3b 74dd 083c de9f fbbc 1c58 23bd
00000070: 26a6 5e3e b9a8 953d 8f2b e8bb a691 f83d
00000080: 2653 d73d 1a37 dc3b 1177 7d3d 9df0 ed3a
00000090: 2593 773d fb08 353e bb52 463d 6159 d83d
000000a0: 31b1 0fbe 2895 1e3e e0bc 67bc 5c39 aa3d
000000b0: 34fc 9e3d 4680 3c3e 3cd5 303c 79d5 813d
000000c0: b74b 973d a96a da3d d7e8 4a3d 3e21 d0bd
000000d0: 6bec 073d f66a 5fbc bd25 293d eda2 303b
000000e0: ed54 923c cd66 0d3e 61b5 81bd 3f16 dab9
000000f0: 0903 cf3d 59dc fcbb 0431 44bc f6b0 59bc
0.06708287 0.010082077 -0.062782034 -0.15359508 -0.03635456 0.1710101 0.29867616 0.043208823
0.30372688 -0.014593361 0.16023564 0.39694986 0.18018512 0.08813355 0.11228209 -0.052769274
0.12407294 -0.08497778 0.13442089 -0.113911845 0.10474661 -0.048181135 0.01311452 0.20189546
0.0030900165 0.00835358 -0.030715879 -0.03987895 0.21743068 0.07307572 -0.0070852707 0.12137155
0.10513906 0.006720436 0.06188113 0.0018153373 0.060443062 0.17679207 0.04841874 0.10563923
-0.14032437 0.15486586 -0.014144152 0.08311722 0.07762948 0.18408307 0.010793027 0.06339545
0.07387488 0.10664875 0.04953846 -0.101625904 0.03318445 -0.013636341 0.041295756 0.002695258
0.017862761 0.13808747 -0.063334234 -0.00041596775 0.10108001 -0.007716697 -0.011974577 -0.01328682

layer3.weight f4 [2, 64]
00000000: 27fb 133e ebdd e93e f49c b63c 3252 f33e
00000010: f3d6 8cbd 9141 45be 0c44 abbe ca17 8a3e
00000020: a3dd 54bd 9415 253e 01d7 0d3e dd9b 08bf
00000030: e0ae 6e3d 11b0 363e c944 863d 1c44 0abd
00000040: 067a 00be ee7f 5dbd c9e5 1c3d fb7d d23e
00000050: 0bc7 03be 16a7 da3d fbe0 c93c 084f 1dbf
00000060: 4228 80bd 4f68 1abd 0cfb 0a3f 885a 7a3e
00000070: 9553 bebe 5778 e73e cf16 85bb b1af ca3e
00000080: 745d 2dbd 514d a53b 559d 51bd e96f 1a3d
00000090: 19dd f73c 3468 6d3e 1151 31bd 8ad2 c33d
000000a0: 039e e53e d33b fbbb 33da acbe 4383 8d3e
000000b0: a085 063f c2d6 9dbd 7c3d da3e 7895 abbc
000000c0: d700 8a3e a50e 32be e118 a73e cb33 b53b
000000d0: 1a35 003e a1bd b9bd 016f 063e 2620 703d
000000e0: 777f eeba ffff 75bd 3f14 c53e 9c51 7f3e
000000f0: 29c6 6cbe 10f1 2d3f 093e 253d 1a78 823d
00000100: 412f cb3c 1fbe 11bf 9b48 263d 822f 1dbf
00000110: 07fe 123e cd87 5c3e ea7b ba3e b912 98be
00000120: 37ce 7b3e 005e 3cbe 31be 86be 6b1f 173f
00000130: 811a 993d a383 8dbe 4c83 f3bd 5436 603d
00000140: c221 e53d 1712 fc3d a6cf c0bd c8d9 06bf
00000150: 7501 e03d 3d3a cabc 77fa c63d a3ee 233f
00000160: 172c 023c 2b35 d33d d2c9 17bf 5b6e a8be
00000170: 9d88 c73e 61ac c9be 5519 be3b 8c09 18bf
00000180: 1a4a 043e f88e 653d af76 0f3e 9d81 ee3d
00000190: d9f7 7bbc 8a03 62be 56a2 903b b466 b23c
000001a0: 0e19 03bf ed2b 583c 99f0 363e 1dec 4abe
000001b0: ad9e a5be 1549 26bd f885 64be e12c fb3d
000001c0: a164 69be c1f9 4bbb 9557 a4be cd4a 843c
000001d0: 30de 84be 783b 9f3d 0906 74be c1bf 083e
000001e0: 7cc4 8ebd 8bfe 7f3e b466 dcbe 3e23 10be
000001f0: 6a0c 273e e220 56bf 47eb bf3d 06b8 c93d
0.14451276 0.45677122 0.022291638 0.47523648 -0.06876936 -0.19263293 -0.33450353 0.26971275
-0.05196918 0.16121513 0.13851549 -0.5336283 0.058272243 0.17840602 0.065560885 -0.03375636
-0.12546548 -0.05407708 0.038305078 0.4111174 -0.12868898 0.106764 0.024643412 -0.6144872
-0.062576786 -0.037697133 0.5428932 0.24448597 -0.37173143 0.45209 -0.004061557 0.39587167
-0.042325452 0.005044617 -0.051175434 0.037704382 0.030256795 0.23184282 -0.0432902 0.095616415
0.44847116 -0.0076670437 -0.33760223 0.27639207 0.52547646 -0.077069774 0.42625034 -0.020945296
0.26953766 -0.17388399 0.3263617 0.005529856 0.12520257 -0.09069372 0.13128282 0.05862441
-0.0018195946 -0.06005859 0.3849201 0.24933475 -0.23122467 0.6794596 0.040342364 0.06370564
0.024802806 -0.56930727 0.040596586 -0.61400616 0.14354716 0.21536179 0.36422664 -0.29701784
0.24590383 -0.18395233 -0.2631698 0.59032315 0.07475758 -0.27639493 -0.11890277 0.05473931
0.111880794 0.12308138 -0.09414606 -0.5267606 0.10937778 -0.024685973 0.09715741 0.64036006
0.007945082 0.10312875 -0.5929233 -0.32896695 0.38971415 -0.39389327 0.0058013597 -0.5938957
0.12918893 0.05604455 0.14010118 0.116458155 -0.015378916 -0.22071663 0.004413883 0.021777488
-0.51210105 0.0131940665 0.17865218 -0.19816633 -0.32347623 -0.04059704 -0.2231673 0.12264419
-0.22792293 -0.0031124207 -0.3209807 0.016148949 -0.25950766 0.07775015 -0.23830427 0.13354398
-0.0697107 0.24999444 -0.43047106 -0.14075944 0.1631333 -0.83643925 0.093710475 0.09849553

layer3.bias f4 [2]
00000000: 5061 453d 1958 a5ba
0.048188508 -0.0012614756

exp_avg f4 [64, 10]
00000000: 9983 7eba 6ebf 9738 ec74 93ba 8c7c b039
00000010: 24d5 62ba 50df 81ba 3af8 763a c1d8 96ba
00000020: c3d4 c93a 0bc2 d8b9 5ec5 5dba 8689 5eba
00000030: c145 2239 f302 17b8 98ef 2eba a663 80b9
00000040: b5ee c4b9 90b4 1fba e4b9 bc3a dc53 12b9
00000050: 212e e43a e8d8 a239 17ba 92b8 b326 1e3a
00000060: 88b2 bd3a da70 983a 6d3a f539 cf21 193a
00000070: bb73 22bb 3eff d639 1c66 eb39 b408 2d38
00000080: 882a 3db9 eab2 4539 ac7e c539 c1cc a339
00000090: 6475 be39 b151 9b39 a843 8cba bee3 6c39
000000a0: 9eb6 3538 f27d d338 c9ef 51b9 b87e 9ab8
000000b0: 469c 1a38 c0d1 8d38 818b 9839 17b0 4639
000000c0: 3fd8 fbb7 4098 e7b7 4e0f 313a c5f5 1139
000000d0: 58cf 6bb8 9949 d039 013f 223a 0685 1d38
000000e0: c244 2f39 10b3 0e3a dae5 59ba 9614 dfb9
000000f0: b259 24b9 8e4c 33ba 7df4 a5b8 a025 ec39
00000100: aa23 0ab9 0a28 02b9 2c09 9e39 7208 a3b9
00000110: a817 7239 fbdb 2639 4954 1eb9 7eaf efb8
00000120: 8547 52b8 1615 64b8 6399 1cb9 16f3 3739
00000130: 1e32 5937 1838 00b9 3b01 3b39 a7cf d2b9
00000140: 01be eeb9 5306 41bb 0921 a039 5a21 01b9
00000150: fc5a f3b9 99db dc3a 3ab4 f238 f4cc 2eba
00000160: 88b3 993a b197 9e3a e62c 6f3a 60fa feb9
00000170: 295a 72ba 9ac8 db39 4b42 3f3a 1957 a83a
00000180: 5d12 033a 18b3 383a a0f2 b8ba 58ae 67b9
00000190: cd04 85ba 21dd c43a e452 e33a 6b7f 1cba
000001a0: bbdb 4cba 6bfb 1fbb 69c7 daba 8626 1eba
000001b0: 2180 c83a 5f1b 7e3a c777 95ba 0098 5f39
000001c0: f47b 7b3a ba38 76ba 46ba 71ba e4c6 a1b9
000001d0: 85c8 bcba 32de f0b9 6626 db3a 5f7f 0d3a
000001e0: dde1 8bba 9496 af3a c903 fc39 0f2e 51ba
000001f0: d1cc 4fba eada 01bb 0202 01bb 495e 5bba
00000200: 758d f63a a28a 5439 56d2 4ebb 3bf0 ec3a
00000210: ccaf 023b 6e21 3abb 45f9 25bb 640b 83ba
00000220: e68a 8ebb ed3a c1ba 150b 563b 1cba f837
00000230: 72c4 963a 288e 1f3a b8db 6739 2ed7 f139
00000240: d091 813a 9cbd e3ba 3f97 b93a 5254 9e39
00000250: a35d eeba e9a9 f7b9 987f 11ba 203f 06ba
00000260: 3beb f8b9 1040 c4b8 11fe 0bba b7c6 12b9
00000270: 7f78 313a 7cc0 2cba 219a 4d3a 7a43 a139
00000280: 338e 29ba 3525 1f3a 7e30 92b8 d463 c1b9
00000290: 6f64 09ba bc46 79ba 00df b4b9 46d8 9eb9
000002a0: 73a7 683a 3262 d4b9 873e 80b9 785f cbb9
000002b0: 9191 113a 8761 65b9 6913 38b9 228b a6b9
000002c0: 79f7 acb9 84f5 6bb9 a6b6 c439 b2a4 8838
000002d0: 527e 3eba c554 09bb cd0f d2b9 0ec6 923a
000002e0: a13e 28ba 541b 81b9 f7f5 873a 1087 beba
000002f0: 3bc0 5c3a 416a 8839 6db3 76ba ed8e 3cb7
00000300: 2049 433a 1d24 5eba 1816 4fba 804c 0fb9
00000310: c0ab baba 27ab b9b9 8f69 923a 0c90 113a
00000320: 0a6c 4bba 26da 4aba 9926 433a 18c6 6bb9
00000330: 52c4 3dba 7413 c13a c9ed 8fba 4b30 aeb9
00000340: 90b8 ab3a 0502 86ba fb25 1a3b 740d a639
00000350: 02cb 2eb9 c165 5e3a e45b ff3a dd79 063b
00000360: 9177 913a 5d1b a53a d6a7 45bb cffa 58ba
00000370: 4d3f 4c3b 571b 713a 31b5 9cba 9084 cb3a
00000380: 2afa 2c3b c8c6 683a e798 123b 4046 033b
00000390: 454d 92bb 50ef b7ba cfe8 2bbb 25fb 19bb
000003a0: f321 773a c62e 81ba 45d8 1abb 898e 8c3b
000003b0: 051a 21bb e095 eaba b016 8c3b 5105 d23a
000003c0: 12f5 783a 9323 a23a 3962 7cb9 b53c f438
000003d0: 8dd4 613a 7e6f 84ba 57fd d43a 0294 f939
000003e0: d9be 64ba 9b97 5839 baaf 093a 44e2 b3ba
000003f0: a009 6f39 e9ad 5e3a ddfc 163a 7eb6 af38
-0.00097089406 7.235898e-05 -0.0011250055 0.0003366213 -0.0008652976 -0.0009908471 0.0009421144 -0.001150869
0.0015398491 -0.00041343304 -0.0008459891 -0.00084891205 0.0001547551 -3.6003952e-05 -0.00066732755 -0.00024488306
-0.00037561884 -0.00060922746 0.0014398661 -0.00013954885 0.0017408767 0.00031060656 -6.9964844e-05 0.00060329883
0.0014472762 0.0011630312 0.00046773572 0.00058415247 -0.002478822 0.0004100743 0.0004489877 4.125452e-05
-0.00018040289 0.00018854035 0.00037669146 0.00031242336 0.00036327087 0.0002962477 -0.0010701315 0.00022591554
4.332384e-05 0.00010084723 -0.0002002112 -7.3668954e-05 3.6862002e-05 6.762473e-05 0.00029095638 0.0001894835
-3.002223e-05 -2.7608243e-05 0.0006754295 0.00013919834 -5.622147e-05 0.00039727686 0.0006189198 3.7555605e-05
0.00016714915 0.00054435525 -0.00083121436 -0.00042549212 -0.00015673673 -0.00068397156 -7.9133526e-05 0.0004504146
-0.00013173991 -0.00012412682 0.00030142942 -0.00031096075 0.00023087731 0.00015912943 -0.00015099453 -0.00011429096
-5.013451e-05 -5.4379074e-05 -0.0001493446 0.00017542797 1.2945877e-05 -0.00012227928 0.00017834168 -0.00040209034
-0.0004553646 -0.0029453232 0.0003054219 -0.00012314823 -0.0004641636 0.0016850113 0.00011573029 -0.00066681136
0.0011726478 0.0012099651 0.0009123817 -0.000486332 -0.00092450023 0.00041920395 0.000729595 0.001284334
0.000499999 0.000704573 -0.0014110394 -0.00022094825 -0.0010148525 0.0015019515 0.0017343429 -0.00059699145
-0.0007814725 -0.0024411331 -0.0016691509 -0.0006032962 0.0015296974 0.00096934097 -0.0011403494 0.00021323562
0.00095933606 -0.0009392608 -0.00092211773 -0.00030856498 -0.0014403021 -0.00045941916 0.0016719818 0.0005397703
-0.0010672171 0.0013396316 0.00048068006 -0.00079795806 -0.00079269434 -0.001981432 -0.0019685035 -0.00083682366
0.0018810468 0.0002026954 -0.0031558475 0.0018076965 0.001994121 -0.0028401273 -0.0025325578 -0.0009997902
-0.004350054 -0.0014742293 0.0032660414 2.9650568e-05 0.0011502637 0.00060865516 0.00022111728 0.00046127423
0.0009885374 -0.0017375234 0.0014159455 0.00030198932 -0.0018185865 -0.00047238104 -0.0005550324 -0.00051211007
-0.00047477506 -9.357941e-05 -0.0005340288 -0.00013997672 0.00067699695 -0.00065899617 0.00078430964 0.00030758587
-0.0006468028 0.0006070913 -6.970855e-05 -0.00036886206 -0.0005241101 -0.00095091364 -0.00034498423 -0.00030297245
0.00088750495 -0.00040508952 -0.0002446065 -0.00038790307 0.0005553002 -0.00021875474 -0.00017554838 -0.0003176565
-0.00032990778 -0.00022502808 0.00037520117 6.515662e-05 -0.0007266748 -0.0020955068 -0.00040066094 0.0011197941
-0.0006418024 -0.00024625158 0.0010372986 -0.0014536101 0.00084209786 0.00026019107 -0.0009410892 -1.1238951e-05
0.0007449556 -0.0008474009 -0.00078997156 -0.00013666041 -0.0014241859 -0.00035413468 0.0011170375 0.00055527757
-0.00077599345 -0.0007738195 0.0007444411 -0.00022485142 -0.0007239032 0.0014730529 -0.00109809 -0.00033223847
0.0013101269 -0.001022399 0.0023521173 0.0003167201 -0.0001666956 0.00084837904 0.0019482342 0.0020519414
0.0011098256 0.0012596656 -0.0030159852 -0.00082771195 0.003116566 0.00091974944 -0.0011955855 0.0015527178
0.0026394227 0.00088797184 0.002236897 0.0020030886 -0.0044647777 -0.0014033113 -0.0026231294 -0.002349564
0.0009427361 -0.0009855859 -0.0023627442 0.0042894525 -0.002458216 -0.001789745 0.0042751655 0.0016023313
0.00094969675 0.0012370221 -0.00024069184 0.00011646134 0.00086147414 -0.0010104028 0.0016249818 0.00047603255
-0.0008725948 0.00020655843 0.00052523206 -0.0013724049 0.00022796402 0.00084945426 0.00057597255 8.378642e-05

exp_avg_sq f4 [64, 10]
00000000: 3452 e937 ed92 7d38 1c60 0d38 d8fd af37
00000010: c382 ce37 3085 7b38 0feb 0c38 96ef a837
00000020: b06f a738 aab2 0c38 f991 d536 265d 7537
00000030: 8407 2237 6b9a ae36 c2a6 c636 da1a 4337
00000040: 6b8f 0b37 c836 c836 a576 8537 062d 2536
00000050: 687c 3c37 eef0 d737 fef4 7a37 ed4e 0a37
00000060: fbe6 2937 4881 e037 0792 7837 d0e0 2537
00000070: 4f96 2538 9626 bb37 08cb bb35 c572 4c36
00000080: 0f86 ea35 1c5e 9235 04a9 a135 8d16 8936
00000090: 1523 f435 6fe0 7835 f90f ad36 7987 4036
000000a0: a0e4 1935 2578 ba35 518e 2c35 e49d d434
000000b0: edae 0235 8006 ff35 85c1 3535 322d c634
000000c0: 8932 4b36 bc62 cf34 dd0b c635 c1de 8736
000000d0: 3674 e335 cc6d cc35 ddbb ad35 2fbf 8a36
000000e0: 0c59 f035 3431 a135 5bab f236 e368 2236
000000f0: 7f45 a336 c1fc 4937 4eb6 e936 2e0d 7f36
00000100: 9648 9336 06f3 5e37 700f ef36 55cd 8e36
00000110: 4daa a537 33ef 9736 db55 2034 7838 1d35
00000120: 73fc 6e34 7f3e ab33 a2c6 2234 5770 7d34
00000130: 26e8 6f34 023a 5c34 c71c 1e35 cdd4 4236
00000140: 3bf6 c837 09c3 6738 0ce5 e937 eddb 9837
00000150: 0c12 b437 2cfc 8438 ad63 f437 e9ae 9c37
00000160: d354 c838 ef99 5138 a82e be36 ab8a 4e37
00000170: 5784 0937 a030 9836 9d35 b036 8467 4937
00000180: 8634 fd36 cb0b ae36 1251 8137 a6c0 b836
00000190: 1227 2a37 795d a937 75fc 6637 3876 1737
000001a0: ef8f 1a37 31cf d037 afd6 5637 2c96 1337
000001b0: 1eef fd37 38c4 1a38 a0e9 9c36 5413 2337
000001c0: 1444 d536 9d6a 6436 8fe1 8c36 828c 3e37
000001d0: 974a c736 f49d 6b36 aa9f 8537 2ca1 3b37
000001e0: e86d 0c37 b59a 8b37 cc81 4437 b721 d736
000001f0: d807 f536 f51c d337 5810 4037 1ae9 c436
00000200: ea6f ec37 f77e 2337 8034 5938 e430 ee38
00000210: e5a0 8338 8a31 2838 73aa 3e38 297e 0039
00000220: 8c37 8638 501f 0e38 b0d9 4939 655d 8137
00000230: 6245 5537 cee1 c337 1f20 7e37 2913 0f37
00000240: 620a 4237 2e9f 2338 555f 7737 7e67 3137
00000250: 08eb 5338 9e68 2638 4fe3 bd36 f92e 3237
00000260: 006e 1637 9700 ab36 0c2f aa36 99d9 6437
00000270: 1ca4 0137 e907 ab36 2b81 6d37 330e f136
00000280: 0ae7 0636 b6cd 9436 9e1a 1d36 9ffd c435
00000290: 6b28 e735 13a2 a536 0930 1f36 f29e ac35
000002a0: 3f61 e036 537b 1636 f3d0 e135 ded6 8c36
000002b0: c305 2536 3a66 9d35 d692 ca35 1fa3 a936
000002c0: 0c72 1436 f822 c135 9423 f736 3b51 1a35
000002d0: bb35 8638 d9de 2439 a6ef 9738 ca99 3738
000002e0: 5af3 6838 99b0 2b39 b123 b038 5c9a 3138
000002f0: 86af 8039 b83a 0837 e579 9636 09b8 2037
00000300: 60ce c836 5e92 7036 4cbb 8436 1c7e 3a37
00000310: a788 c336 5ca4 5936 c62b 8037 b9fc 1f37
00000320: 5614 7736 26fe e636 7e2b 9636 4bf9 4c36
00000330: 18b2 5436 8bf3 2d37 5732 9a36 be57 3836
00000340: 519e 3d37 49bb 0937 581e dd37 5dff 5138
00000350: 3bbc 0e38 46e8 9b37 78e7 c537 4559 8838
00000360: 86ed 0938 fd37 b037 d7ee bb38 1110 2038
00000370: a709 2738 09b1 b338 d911 5438 d8af d437
00000380: 2999 1438 8166 db38 0d87 4938 8b38 fb37
00000390: 455c 1e39 1043 3f38 6d6a 7c38 88c2 1039
000003a0: 6fe9 9538 84ea 3338 99cc 5738 f2d3 2b39
000003b0: 6108 9938 4ea4 1f38 83d8 7339 b1f6 8438
000003c0: 0abf 4937 2c6d e037 42d1 6c37 77a3 1937
000003d0: 4253 3037 48e9 ea37 8b3f 8437 22ad 0437
000003e0: d198 2c38 0e45 d036 fea2 2537 e19b b337
000003f0: 3c15 5137 8d13 e936 1a49 1437 b7fc d737
2.7814043e-05 6.0456736e-05 3.370653e-05 2.097983e-05 2.4618004e-05 5.9967104e-05 3.3597516e-05 2.0138727e-05
7.983984e-05 3.3544995e-05 6.364888e-06 1.4624826e-05 9.657702e-06 5.2035807e-06 5.920273e-06 1.1629158e-05
8.318438e-06 5.966842e-06 1.5910084e-05 2.4613123e-06 1.1234639e-05 2.5742189e-05 1.4958203e-05 8.243817e-06
1.0126964e-05 2.6763082e-05 1.48159515e-05 9.88711e-06 3.947905e-05 2.2310105e-05 1.3991676e-06 3.0465173e-06
1.7473375e-06 1.0905237e-06 1.2044625e-06 4.0855434e-06 1.8189627e-06 9.2713793e-07 5.1576612e-06 2.8689085e-06
5.7329635e-07 1.3893047e-06 6.428209e-07 3.9602958e-07 4.8683324e-07 1.9000872e-06 6.770936e-07 3.6913258e-07
3.0278773e-06 3.8628593e-07 1.4755602e-06 4.0492455e-06 1.694664e-06 1.523114e-06 1.294418e-06 4.134977e-06
1.790731e-06 1.2009755e-06 7.2321104e-06 2.4200933e-06 4.865869e-06 1.2039382e-05 6.965164e-06 3.8005633e-06
4.3893915e-06 1.3288814e-05 7.124552e-06 4.2558336e-06 1.9748835e-05 4.527997e-06 1.4932395e-07 5.856923e-07
2.2257318e-07 7.974176e-08 1.5159688e-07 2.360333e-07 2.2343065e-07 2.05102e-07 5.8901463e-07 2.903212e-06
2.3956518e-05 5.5256332e-05 2.7882423e-05 1.8222223e-05 2.1466076e-05 6.341221e-05 2.9133482e-05 1.8678098e-05
9.552543e-05 4.9972845e-05 5.6678728e-06 1.2310843e-05 8.196649e-06 4.5356137e-06 5.25145e-06 1.2004635e-05
7.546102e-06 5.186977e-06 1.541575e-05 5.5060545e-06 1.0141886e-05 2.0189897e-05 1.3767848e-05 9.027826e-06
9.212627e-06 2.4892013e-05 1.2805379e-05 8.796847e-06 3.0271298e-05 3.6899204e-05 4.67636e-06 9.720057e-06
6.35582e-06 3.4036705e-06 4.1985836e-06 1.1357597e-05 5.9393456e-06 3.510967e-06 1.5929185e-05 1.1183594e-05
8.37024e-06 1.6642132e-05 1.1712731e-05 6.4114242e-06 7.302482e-06 2.5166644e-05 1.1447897e-05 5.868392e-06
2.8185506e-05 9.745118e-06 5.1785726e-05 0.00011357831 6.276536e-05 4.0100458e-05 4.5458273e-05 0.0001225403
6.399964e-05 3.38846e-05 0.00019249949 1.5421489e-05 1.2711944e-05 2.335096e-05 1.5147059e-05 8.527925e-06
1.15657185e-05 3.9010476e-05 1.47445435e-05 1.0574118e-05 5.052521e-05 3.9674916e-05 5.659101e-06 1.0620563e-05
8.966308e-06 5.096266e-06 5.071872e-06 1.3640522e-05 7.727209e-06 5.097118e-06 1.4156375e-05 7.1840127e-06
2.0102038e-06 4.4346916e-06 2.3410316e-06 1.4676951e-06 1.7222604e-06 4.936251e-06 2.3720806e-06 1.2861258e-06
6.687041e-06 2.2423526e-06 1.6824619e-06 4.197339e-06 2.459027e-06 1.1727163e-06 1.5092908e-06 5.0555823e-06
2.2120103e-06 1.4389798e-06 7.3653155e-06 5.7487676e-07 6.399626e-05 0.00015723276 7.244879e-05 4.3773827e-05
5.553975e-05 0.00016373619 8.398982e-05 4.2343847e-05 0.00024544838 8.119903e-06 4.4845387e-06 9.579592e-06
5.9844897e-06 3.5847984e-06 3.955711e-06 1.1115826e-05 5.8273613e-06 3.243119e-06 1.5279173e-05 9.53598e-06
3.6817705e-06 6.884121e-06 4.4754115e-06 3.0543476e-06 3.1694126e-06 1.0368308e-05 4.595418e-06 2.746921e-06
1.1302139e-05 8.209442e-06 2.6359383e-05 5.006731e-05 3.403074e-05 1.85856e-05 2.3592016e-05 6.501613e-05
3.2884556e-05 2.1006907e-05 8.961342e-05 3.8161936e-05 3.9824892e-05 8.5683605e-05 5.056136e-05 2.5354253e-05
3.542859e-05 0.000104618266 4.804791e-05 2.9947862e-05 0.00015102427 4.5600405e-05 6.01806e-05 0.00013805379
7.148354e-05 4.2895335e-05 5.145054e-05 0.00016386787 7.297169e-05 3.8061575e-05 0.00023254943 6.3402e-05
1.2025013e-05 2.6753718e-05 1.4115418e-05 9.15757e-06 1.0509802e-05 2.8003604e-05 1.5765216e-05 7.908124e-06
4.1150317e-05 6.206922e-06 9.872716e-06 2.141105e-05 1.2462315e-05 6.946217e-06 8.838508e-06 2.5747677e-05

exp_avg f4 [64]
00000000: e175 993a 20ae 953a 88f7 18bb 2326 0fba
00000010: 77ac 2937 6dbd 44ba bab1 6339 3a05 e938
00000020: 63d5 203a 31bc 92ba 8d40 c03a 7ef0 bc3a
00000030: 6c3d 9a3a eb79 6f3b 1787 c2ba 92dc 2b3a
00000040: c8e0 513a 3a4b 7539 11a6 7e3a 4939 a23a
00000050: 1ee9 753a e044 4ebb f7c8 7dbb 7a5e 4c3b
00000060: c491 9dba 3c69 9bb9 3545 093b 1d6e 9e3a
00000070: 0cb7 9f3a 30d1 983b c149 543b 8e8d ba39
00000080: 67bf 9abb 4bb8 b239 8dea 17bb 8885 f239
00000090: 42c0 32bb 8928 d539 5431 dcba 71c6 3ebb
000000a0: 8ece ba3a 54a1 383a d11d 9cbb 239c 15ba
000000b0: 5104 8d39 290d 4d39 cb3d 373b abf4 a53a
000000c0: 0a6f 22bb 0c10 7e39 f84d 0dba 913a a33b
000000d0: 56b0 3cbb 7463 ed3a deea ff3a 6781 393a
000000e0: d532 d0b9 8cc0 543a e3a0 65ba 17fe 0bbb
000000f0: c8d9 02bb 187b 7fb9 c2ea 0bba eff6 973b
0.0011708104 0.0011419691 -0.00233409 -0.00054607 1.011334e-05 -0.0007505033 0.00021714615 0.00011111279
0.0006135313 -0.0011195001 0.0014667675 0.0014414934 0.0011767573 0.0036541175 -0.0014841285 0.0006556
0.00080062123 0.00023393045 0.0009714077 0.0012376691 0.00093807455 -0.0031474158 -0.003872452 0.0031184242
-0.0012021591 -0.0002964231 0.0020945792 0.001208726 0.001218529 0.004663609 0.0032392594 0.0003558215
-0.004722524 0.00034088115 -0.0023180575 0.00046257325 -0.002727524 0.00040656727 -0.0016799369 -0.002910998
0.0014252232 0.0007043083 -0.0047642966 -0.0005707165 0.00026896832 0.00019555226 0.0027960415 0.0012661418
-0.0024785423 0.00024229306 -0.00053903414 0.004981347 -0.0028791628 0.0018111304 0.0019524952 0.00070764724
-0.00039710724 0.000811585 -0.0008759631 -0.0021361166 -0.0019966234 -0.00024364551 -0.0005337411 0.004637591

exp_avg_sq f4 [64]
00000000: 720e 0e38 ccbc 0c37 55bd 7337 5505 e935
00000010: f26d 3735 e9be f335 12d5 ed36 525e 7234
00000020: e561 ed37 85f8 ff36 44d6 5f37 5541 d236
00000030: 7f18 3537 0f03 8638 51c2 8137 e118 0f37
00000040: 3f8f 2436 efc9 1c36 b9fa a438 df0c cc36
00000050: 3537 9936 bd02 0a38 7387 4c38 84c5 9d38
00000060: ddc9 7237 a23a 5237 f1ca bd37 7643 b136
00000070: 1616 2237 84ad 9438 c39d fe37 feda 4b37
00000080: 4467 9a38 7cf2 3b36 e1fa b737 7987 f036
00000090: ca61 8937 cb2d 9a35 0a1f 2137 1607 2b38
000000a0: 1290 4337 582c 3b36 b3f8 a538 fd61 8135
000000b0: c105 5d36 5036 c635 bb67 b037 b817 2e37
000000c0: aec0 0938 f6a3 ff36 1c6f 2236 e580 cb38
000000d0: e2d9 b737 32b5 0737 97ac 1e37 1889 0637
000000e0: e0ea 0c37 f552 3336 4f72 1237 1ecf c137
000000f0: 3cd0 4937 f192 1d36 85b4 9e35 3de3 8f38
3.386889e-05 8.388608e-06 1.4528011e-05 1.7361405e-06 6.8332804e-07 1.8160473e-06 7.087955e-06 2.257232e-07
2.8298187e-05 7.6285237e-06 1.3341723e-05 6.2660934e-06 1.0794144e-05 6.3901876e-05 1.5468484e-05 8.529257e-06
2.4521285e-06 2.3363352e-06 7.86683e-05 6.081172e-06 4.5661823e-06 3.2904314e-05 4.8763537e-05 7.5231335e-05
1.4471324e-05 1.2530627e-05 2.2625058e-05 5.2828645e-06 9.661095e-06 7.08951e-05 3.0352623e-05 1.2150731e-05
7.362527e-05 2.8006316e-06 2.1932125e-05 7.1683285e-06 1.637721e-05 1.1487222e-06 9.603575e-06 4.0776176e-05
1.165645e-05 2.7890983e-06 7.914137e-05 9.639767e-07 3.2934915e-06 1.4767957e-06 2.1029138e-05 1.0376731e-05
3.2842792e-05 7.61868e-06 2.4204555e-06 9.703803e-05 2.191676e-05 8.088815e-06 9.457718e-06 8.018942e-06
8.399336e-06 2.6721366e-06 8.728893e-06 2.310384e-05 1.2029017e-05 2.3480354e-06 1.1824455e-06 6.861098e-05

exp_avg f4 [64, 64]
00000000: 1dd3 0a38 c3b2 f836 e26e 4137 f2ea 8437
00000010: 10c9 39b8 26c9 19b6 4d62 f837 77d8 4337
00000020: e8e6 2536 6744 5b34 a2e7 42b8 419c a0b8
00000030: 1bc7 deb7 5389 d4b7 1a4d 69b7 48e3 2237
00000040: 58c2 5236 e759 5eb6 eb40 bf37 dc05 9eb8
00000050: 2831 82b8 7b1d 9d37 4350 b536 fb65 1337
00000060: b6f3 f2b7 80bd e237 b82f 0ab8 06c2 5cb8
00000070: fae2 87b7 d3c2 7e36 da56 90b8 0e94 0438
00000080: 83a3 72b7 c3a2 8336 bf95 0db7 5cd1 56b8
00000090: a729 1ab7 52a6 63b8 84ac 3fb7 eb5e 82b7
000000a0: eccb 4eb7 3a29 70b7 1eb2 24b7 9dc0 02b8
000000b0: 5294 8ab8 8ce0 e5b6 ace1 14b8 c61d d037
000000c0: b257 b3b8 27ab 8637 f6c0 c3b7 dfa3 8bb6
000000d0: eeb4 01b6 7da9 0fb8 1ec7 87b8 ce50 3338
000000e0: 5e8a 0537 40b5 23b8 d630 87b8 45fd 4cb7
000000f0: 05a8 98b8 84b1 a2b8 329c 23b8 d748 1cb8
00000100: c754 52b8 4520 48b9 d3ce 59ba d099 d9b9
00000110: b5cd 16ba 4a18 92ba d17b aab9 0f0c 62b8
00000120: b0b4 1db9 a02e 47ba 05c8 f5b9 7c27 33ba
00000130: ab15 e1b9 4e6d 14ba 7b58 cdb9 7c03 52b9
00000140: 1fe3 0eb9 ad41 d7b9 904c 5bb9 3d51 33ba
00000150: 6018 8bb8 d927 aaba 8498 38ba c09c 00ba
00000160: bda5 08ba 211f 88b7 6836 12ba f650 a6b9
00000170: 08b3 b3b9 9a0c 3aba 6f11 e4b9 deef 92b9
00000180: bf75 e8b9 9bfe 3ab8 c6af 99ba 3997 e8b9
00000190: 917c 02ba e5eb 06ba dd53 89b9 6ebf 2cba
000001a0: 9563 41b9 4b50 06b9 7ae1 4aba af9e 2bba
000001b0: bc66 8eba 06c0 06ba b6a9 feb9 23f6 61b9
000001c0: 3bb7 82ba 678e 31b9 6568 e1b9 2b24 e4b9
000001d0: 0bb6 43ba dc80 aeb9 b662 2cba aa7c 7fb9
000001e0: 3368 91b9 004c a0b9 bade 28ba eb1c bdb9
000001f0: 8907 aaba 9cbd a7ba 7ca5 21ba acd8 4dba
00000200: 502e f235 f85b bdb5 a40a 5937 4c39 2c37
00000210: ce69 8536 ac32 4036 682e 0db5 82d5 bab6
00000220: faea 38b6 afee 9ab6 e1ca bc35 5e16 2f37
00000230: a091 bfb4 b0bf f8b4 14f3 c833 19e0 6eb4
00000240: f760 3036 4731 c236 bb0c 97b5 e0a7 0737
00000250: c884 ad36 ede1 9236 6874 09b6 144b 0836
00000260: a920 2e36 34bb 7fb5 acb2 c636 7de5 3237
00000270: 3f48 7535 43c6 81b6 f164 0a37 260d dbb4
00000280: ad30 a335 d975 1eb6 2ed2 c8b5 e5f5 b336
00000290: fc69 dc36 cfb6 8f36 f680 1d36 e68e b835
000002a0: e2dc f434 11c1 9e35 4b49 9bb6 787a 8d35
000002b0: 37da 3437 7ef1 7833 704a 9436 2b91 9935
000002c0: 03d2 2135 7548 9735 a90f 61b5 d86d 5636
000002d0: 293c 2336 f1ec 6db4 4d78 2b36 317e c835
000002e0: 77e3 2136 d583 5436 9445 bd36 8bf9 c736
000002f0: 355b 6b36 f092 5537 7b15 de35 bd82 17b6
00000300: b6d8 0639 b0ac 6d38 6fca e138 4a19 6539
00000310: fb43 6438 8131 1b39 0ff8 dd38 df45 4533
00000320: ce0e 5738 500c e938 5855 b3b6 bb7d 61b9
00000330: e404 dbb7 26bc 8bb8 0ed6 95b6 0b28 2039
00000340: c271 0539 971e 7e38 edef 1139 bd9a 6eb9
00000350: 6127 32b8 8297 9139 541c 0439 3f53 5736
00000360: 8885 0d37 50b3 d538 cd7f 1939 71ec 1bb9
00000370: f608 0c38 1839 b138 4e80 9bb7 a28d 6239
00000380: e273 a038 2b43 5938 23ac eb38 a9bd 3139
00000390: b893 0138 3a4f b3b8 4f36 a037 f21c 8938
000003a0: a09f c436 19de 5e37 7c54 c338 e8d0 1bb8
000003b0: b7d4 2cb8 c36d 6a38 c911 e1b8 330e 0539
000003c0: 84e0 edb5 0a07 1a39 6ce7 a4b8 f652 2c39
000003d0: d076 3039 a230 fab8 9b22 cf37 99ac 2f39
000003e0: cc50 8938 cc93 61b7 8c95 b6b8 bfcd 5539
000003f0: da2a 8038 3da8 6738 de18 eb37 9e24 f3b7
3.309838e-05 7.4117866e-06 1.1529513e-05 1.5845031e-05 -4.429469e-05 -2.291586e-06 2.9609679e-05 1.1673305e-05
2.472132e-06 2.0420849e-07 -4.646893e-05 -7.658499e-05 -2.6557178e-05 -2.5336316e-05 -1.3905834e-05 9.7088705e-06
3.1405561e-06 -3.3132908e-06 2.2799204e-05 -7.5351185e-05 -6.208039e-05 1.8729586e-05 5.403564e-06 8.785627e-06
-2.8962135e-05 2.7029542e-05 -3.2946205e-05 -5.2632786e-05 -1.6198948e-05 3.7962352e-06 -6.8826324e-05 3.160914e-05
-1.4462395e-05 3.923052e-06 -8.43912e-06 -5.1216557e-05 -9.188813e-06 -5.4275915e-05 -1.1424654e-05 -1.5541407e-05
-1.2326036e-05 -1.4314714e-05 -9.816633e-06 -3.11738e-05 -6.6079796e-05 -6.8508725e-06 -3.5496123e-05 2.4809397e-05
-8.55172e-05 1.6053744e-05 -2.3335666e-05 -4.1616e-06 -1.9327813e-06 -3.4251705e-05 -6.47439e-05 4.275218e-05
7.959634e-06 -3.903103e-05 -6.446398e-05 -1.2218316e-05 -7.279221e-05 -7.757827e-05 -3.9007697e-05 -3.7261136e-05
-5.0146857e-05 -0.00019085508 -0.0008308712 -0.00041504065 -0.00057526986 -0.0011146155 -0.00032517177 -5.389383e-05
-0.00015039998 -0.0007598195 -0.00046879068 -0.0006834192 -0.00042931488 -0.00056620396 -0.0003916657 -0.00020028459
-0.00013626784 -0.00041056928 -0.0002091399 -0.00068404136 -6.632577e-05 -0.0012981846 -0.00070417696 -0.000490617
-0.0005212685 -1.6226959e-05 -0.0005577565 -0.00031722308 -0.0003427493 -0.00070972147 -0.00043500538 -0.00028026005
-0.00044338216 -4.4582976e-05 -0.0011725358 -0.00044363158 -0.0004977668 -0.00051468454 -0.0002619316 -0.00065898045
-0.00018443012 -0.00012809147 -0.0007739287 -0.0006546778 -0.0010864357 -0.0005140308 -0.000485731 -0.00021549365
-0.000997282 -0.00016933084 -0.00042993124 -0.00043514496 -0.0007465786 -0.00033283874 -0.00065759884 -0.00024365136
-0.0002773419 -0.00030574203 -0.000644188 -0.00036070435 -0.0012972216 -0.0012797597 -0.00061663217 -0.0007852416
1.8043884e-06 -1.4108364e-06 1.2936685e-05 1.0265339e-05 3.976026e-06 2.8639724e-06 -5.2594123e-07 -5.5680875e-06
-2.755491e-06 -4.617344e-06 1.4066137e-06 1.0436021e-05 -3.5682478e-07 -4.633307e-07 9.3574414e-08 -2.2247004e-07
2.6282485e-06 5.787387e-06 -1.1254082e-06 8.0857135e-06 5.1712595e-06 4.3774403e-06 -2.0482348e-06 2.030928e-06
2.5947031e-06 -9.526732e-07 5.92166e-06 1.0663059e-05 9.1374744e-07 -3.8675803e-06 8.248943e-06 -4.0801496e-07
1.2158613e-06 -2.361243e-06 -1.4962332e-06 5.3632416e-06 6.568849e-06 4.283014e-06 2.3469888e-06 1.3750657e-06
4.5609255e-07 1.1828107e-06 -4.6278924e-06 1.0540962e-06 1.0779643e-05 5.7961635e-08 4.4194094e-06 1.1441638e-06
6.028278e-07 1.1271464e-06 -8.384182e-07 3.1952422e-06 2.432391e-06 -2.2158544e-07 2.555101e-06 1.4937888e-06
2.4123271e-06 3.1667198e-06 5.640739e-06 5.959713e-06 3.5070818e-06 1.2730001e-05 1.654654e-06 -2.2576853e-06
0.00012859967 5.666603e-05 0.00010766542 0.00021848563 5.4422748e-05 0.00014800394 0.00010584306 4.5931184e-08
5.1273782e-05 0.00011112599 -5.344551e-06 -0.0002150451 -2.6109112e-05 -6.663082e-05 -4.4654653e-06 0.00015273706
0.00012726246 6.0586808e-05 0.00013917657 -0.00022755093 -4.247518e-05 0.00027769437 0.00012599054 3.2085952e-06
8.435345e-06 0.00010190031 0.00014638827 -0.00014870033 3.3386947e-05 8.450652e-05 -1.8537186e-05 0.00021605802
7.6509794e-05 5.1799387e-05 0.00011237736 0.0001695069 3.089357e-05 -8.550142e-05 1.9098776e-05 6.5380606e-05
5.859838e-06 1.3283942e-05 9.314061e-05 -3.714944e-05 -4.12061e-05 5.589217e-05 -0.00010732149 0.00012689158
-1.7723219e-06 0.00014689207 -7.863235e-05 0.00016434104 0.00016828929 -0.000119299875 2.4692437e-05 0.00016753598
6.547719e-05 -1.3445457e-05 -8.7062916e-05 0.0002038991 6.111497e-05 5.5231376e-05 2.8025763e-05 -2.8984909e-05

exp_avg_sq f4 [64, 64]
00000000: 730c 6732 df8a aa31 2c7d 3033 cd2b 8633
00000010: 957d e432 7fdb 0733 d636 0432 59ff a731
00000020: 0610 b832 b2ec 1233 17d2 d031 5191 1e33
00000030: 2a37 8832 62ea 0232 04bf 2a32 938b 6532
00000040: 123d a432 276a 2333 9552 d831 f198 1d33
00000050: 9fa6 0233 1c1e 1933 c324 8532 76ea f831
00000060: 6ed3 7432 1347 9031 d33c 9e33 9ff6 2933
00000070: dcf6 e031 1530 a032 ea03 3933 03cb 3332
00000080: c02f ad32 3ed2 ee31 8917 4933 967b 9a33
00000090: de8e 4632 c811 0a32 8400 ea31 13cf 1033
000000a0: f9e0 b431 15d0 ce30 ec61 ae32 1121 1f32
000000b0: 1180 5333 9b25 1d32 b781 2532 b73c d832
000000c0: 36c3 8c33 16cf fd31 0c79 a831 a2ab c632
000000d0: 1952 1133 931f f032 4e47 0b33 9757 6933
000000e0: f98d 5431 1f68 7832 c873 7332 24a4 8e33
000000f0: fac9 9a33 0340 9833 6c5b 2c32 effa 0b33
00000100: af89 1f35 c13a 2535 9a64 5036 3e5c 2936
00000110: f668 2735 c7c4 4836 ef53 9235 9559 9a34
00000120: 067b 3935 3545 0c36 3132 2235 7a7f ba35
00000130: c89a 4035 7c9b 6335 d952 9535 eb5b 0e35
00000140: b221 0835 68d6 2b36 0b1e 2935 cdfc bd35
00000150: d67c 3034 1b19 9736 eb67 a935 a506 5f35
00000160: 924b b435 caf8 b134 787c 8536 5102 6c35
00000170: ceef 9734 eed3 a535 1a5c 1e35 9894 c435
00000180: 41d9 0836 07db 5d34 162a 8836 961f e535
00000190: 9bdf 9e35 ba65 5435 13c9 1c35 314e cd35
000001a0: fe53 da33 736d 1834 81a7 2436 b3fd 6235
000001b0: add3 9c36 6832 5535 d36c 2535 6580 0e35
000001c0: 7d76 3636 7ffb 4e35 56bf 7c35 9a42 8c35
000001d0: 5e78 3836 52bb 0535 6bb7 b335 a206 0636
000001e0: f900 f434 5157 e034 0946 2d35 6934 0936
000001f0: 4dc4 8b36 4943 b536 48fa 6535 37eb eb35
00000200: 7466 942f 3636 2c2f c873 5030 4b7e 1631
00000210: 4716 e130 e367 af30 0218 cd2f af87 3930
00000220: 261e ae30 4d37 1a31 eb90 532f 482f d030
00000230: 4d37 8f30 82b7 b92f bfed a62f 5ff3 3f30
00000240: ce32 2430 c7da 0430 8a7c 852f e58a d430
00000250: de31 b030 0877 f430 e741 b330 c56d bf2f
00000260: fd66 6130 662f bd2e 7344 0631 046b ab30
00000270: 4a18 ec2f 79f4 bd30 4cca 0b31 f6e8 d22f
00000280: 1948 2530 97bc 1e30 dd3d 6331 9c27 4631
00000290: 61d0 5d2f 1a39 9e2f ef24 022f acd3 b630
000002a0: f5c9 8e2f 2c4b ce2d 39f7 8e30 995e c22f
000002b0: f962 e230 f303 e82f 3bf7 ae2f a3fd ae30
000002c0: 6bc6 8131 04ef ff2e dfa3 4f2f ba5c 2f30
000002d0: c520 1c31 bf7f 1431 9d13 c830 9a5e 2f31
000002e0: 47c1 602f 3901 0230 3d0c 7d30 db13 2a31
000002f0: 4218 7431 0f4e 2b31 0107 2330 debf 0731
00000300: a17d 6e34 5a69 2b33 6565 f334 ecac bf35
00000310: 08ad a635 4543 3335 c1a5 9134 4322 c32c
00000320: 4796 9135 4096 6035 4bd0 6b34 9332 0336
00000330: 5dfd 8a35 5369 0034 66f1 6134 b3be fe34
00000340: fa7e 2b35 54ba 7635 39e8 8934 c45c e935
00000350: 2f7d 8f35 ccb6 3035 bf4f 8c34 c12a 9434
00000360: 1fd0 9235 df1b 3a34 f906 2136 0cc7 ac35
00000370: 96d9 3234 79e9 6e34 38c9 0936 0663 1f35
00000380: bfde 8c35 23d4 9e34 8489 2936 75fd 3e36
00000390: a0d5 bd34 e36e b834 23f3 ea31 befe 4e35
000003a0: 7f16 e032 2887 b332 860e 3d35 a435 e233
000003b0: 0ecf 4d36 734b 3733 3277 6834 d533 0d35
000003c0: e980 6a36 03e4 ce34 06c6 7334 88bf 9034
000003d0: 910e 2236 5fa3 6535 26a4 2b35 5470 ff35
000003e0: 7669 a534 7f75 7534 72d1 3e35 d329 fe35
000003f0: 83f8 0936 c06f 4236 9959 4034 3bfe c535
1.34488e-08 4.963439e-09 4.1092036e-08 6.2478286e-08 2.6599801e-08 3.1631767e-08 7.6958795e-09 4.8893694e-09
2.1427706e-08 3.4208547e-08 6.077481e-09 3.6919406e-08 1.585757e-08 7.620288e-09 9.938734e-09 1.336129e-08
1.9119884e-08 3.804794e-08 6.295816e-09 3.669351e-08 3.0419525e-08 3.5650473e-08 1.5499955e-08 7.244405e-09
1.4250743e-08 4.199032e-09 7.368512e-08 3.957268e-08 6.5473227e-09 1.8648317e-08 4.307723e-08 1.0465331e-08
2.0161565e-08 6.9506134e-09 4.6820364e-08 7.193664e-08 1.1557601e-08 8.0367e-09 6.810355e-09 3.3715946e-08
5.264266e-09 1.5047613e-09 2.0300796e-08 9.2625365e-09 4.924374e-08 9.147153e-09 9.633758e-09 2.517332e-08
6.554767e-08 7.386812e-09 4.903205e-09 2.3128283e-08 3.383511e-08 2.7954036e-08 3.242831e-08 5.4329202e-08
3.0930762e-09 1.4459174e-08 1.4170787e-08 6.642247e-08 7.207923e-08 7.089695e-08 1.0032505e-08 3.2591682e-08
5.943247e-07 6.155279e-07 3.1052973e-06 2.5236654e-06 6.2365086e-07 2.9916862e-06 1.0902276e-06 2.8749915e-07
6.9096893e-07 2.090191e-06 6.042274e-07 1.389518e-06 7.175081e-07 8.479035e-07 1.1125477e-06 5.303288e-07
5.071298e-07 2.5605787e-06 6.3001124e-07 1.4155172e-06 1.6436692e-07 4.5030733e-06 1.2621725e-06 8.308364e-07
1.3433039e-06 3.3149837e-07 3.978199e-06 8.792022e-07 2.8300423e-07 1.2355138e-06 5.899361e-07 1.4646384e-06
2.0392038e-06 2.066191e-07 4.0580153e-06 1.7071022e-06 1.1836995e-06 7.9124186e-07 5.840713e-07 1.5296447e-06
1.0166694e-07 1.419592e-07 2.4535404e-06 8.456074e-07 4.6738046e-06 7.9422034e-07 6.162565e-07 5.308596e-07
2.7189083e-06 7.7106955e-07 9.4155746e-07 1.0450196e-06 2.74882e-06 4.981895e-07 1.3389921e-06 1.9971417e-06
4.544925e-07 4.1786782e-07 6.4549437e-07 2.0445098e-06 4.1653752e-06 5.4020534e-06 8.5673355e-07 1.7577321e-06
2.699384e-10 1.5662568e-10 7.5834494e-10 2.1899662e-09 1.6377236e-09 1.2762452e-09 3.730634e-10 6.7495426e-10
1.2668735e-09 2.2441384e-09 1.9241823e-10 1.514743e-09 1.0420337e-09 3.3781694e-10 3.0364153e-10 6.9831246e-10
5.973505e-10 4.833222e-10 2.428105e-10 1.5464506e-09 1.2819859e-09 1.7787167e-09 1.3042695e-09 3.4820694e-10
8.200088e-10 8.6031446e-11 1.9538475e-09 1.2472303e-09 4.2945408e-10 1.3821043e-09 2.0342155e-09 3.8364306e-10
6.012911e-10 5.774807e-10 3.3068013e-09 2.8835307e-09 2.0173864e-10 2.8780606e-10 1.1836553e-10 1.3302404e-09
2.597315e-10 2.3452872e-11 1.0402125e-09 3.535561e-10 1.6471794e-09 4.220336e-10 3.1826083e-10 1.2732254e-09
3.7769516e-09 1.1638515e-10 1.8884759e-10 6.37964e-10 2.2719615e-09 2.160945e-09 1.455749e-09 2.5519626e-09
2.0441347e-10 4.729546e-10 9.2058255e-10 2.4749542e-09 3.5520462e-09 2.4928146e-09 5.930901e-10 1.975415e-09
2.2211181e-07 3.9909857e-08 4.533605e-07 1.4280936e-06 1.2418323e-06 6.6780586e-07 2.7128957e-07 5.546037e-12
1.0847078e-06 8.3665145e-07 2.1961857e-07 1.954996e-06 1.035554e-06 1.1959246e-07 2.1042578e-07 4.744994e-07
6.388724e-07 9.1913284e-07 2.5687203e-07 1.7386851e-06 1.0690763e-06 6.5831114e-07 2.6135055e-07 2.7598256e-07
1.0938419e-06 1.733274e-07 2.3994928e-06 1.2872929e-06 1.6656699e-07 2.2250414e-07 2.0531716e-06 5.9376214e-07
1.049564e-06 2.9584143e-07 2.5263007e-06 2.8459738e-06 3.5359426e-07 3.4353351e-07 6.8379378e-09 7.711168e-07
2.6087262e-08 2.0899805e-08 7.042912e-07 1.0533702e-07 3.0667902e-06 4.267663e-08 2.1650047e-07 5.260202e-07
3.4943753e-06 3.853639e-07 2.2703179e-07 2.6961447e-07 2.414836e-06 8.5546884e-07 6.394133e-07 1.9031672e-06
3.0810378e-07 2.2860148e-07 7.10853e-07 1.8936647e-06 2.0559244e-06 2.89733e-06 1.7913989e-07 1.4751635e-06
