improved_model/16-56.ckpt (torch, 352218 bytes, 48 tensors)

layer1.weight f4 [128, 13]
000000 de ac a9 be 64 ed c6 3c 29 3b 36 bc af 0c f4 3d
       -0.331397 0.024283119 -0.011122503 0.11916482
000010 73 10 82 3c 88 30 5a 3c 09 c1 15 3c 53 b9 5c 3d
       0.015876984 0.013317235 0.009140261 0.053887676
000020 6e 5c 3c 3e a4 59 c8 3c 49 17 3b bf 70 f1 05 be
       0.18394634 0.024456806 -0.73082405 -0.13080382
000030 5c cf 82 be 85 dd 05 bf c0 8c 9d 3c f6 4d f4 3c
       -0.25548828 -0.52291137 0.019232154 0.02982233
000040 96 f2 1e 3e ac f9 f9 bd f0 e3 0b 3d ec 1d e5 3c
       0.15522227 -0.12205824 0.034152925 0.02796837
000050 c6 64 0d 3e 97 5f 85 bd b3 6e 2d bc e3 a2 62 bf
       0.13807973 -0.06512373 -0.010585475 -0.88529795
000060 8b 4b e1 bb a5 27 29 3c 4f 3f 06 bf 5a 26 59 bd
       -0.0068754605 0.010324393 -0.5244035 -0.05301509
000070 2a 62 05 bd bd 7a 89 3e 8e 6c a4 be 04 57 9b be
       -0.03256432 0.26851454 -0.3211407 -0.30339825
000080 e1 ea d9 bc bf 23 17 be cf b0 56 be 2c 7f 9d 3c
       -0.026601257 -0.1475973 -0.20965885 0.01922568
000090 65 87 5a be bd 9a 58 3d dd 5c a4 bd 0b f4 38 bf
       -0.21340711 0.052881945 -0.08025525 -0.7224738
0000a0 ec 6d ca bd 2f 5d 93 3d 7c 00 4c be bf ff 14 bf
       -0.09884247 0.07195508 -0.1992206 -0.5820274
0000b0 05 a5 0f be a3 ba 8c 3d 31 47 ab bc 0e dc 03 3e
       -0.14027794 0.06871536 -0.02090797 0.12876913
0000c0 35 0c 82 3b 3c a5 57 be b3 54 2c 3e 3e a2 9b 3c
       0.0039687403 -0.21059126 0.16829185 0.018998262
0000d0 fd 20 28 be 7c be fc 3a af e3 aa bb bd f9 aa 3e
       -0.16418834 0.0019282843 -0.0052151303 0.3339366
0000e0 83 0d 29 bd 32 35 d7 3b c8 45 3d 3d a8 e6 9b be
       -0.04127265 0.0065676207 0.046209127 -0.30449414
0000f0 ec 53 01 3e 46 44 6f 39 e8 ce b5 3e c7 c8 54 be
       0.1262967 0.0002281825 0.3550942 -0.20779715
000100 aa aa 7c 3c 4e 22 b7 be 6a 66 f1 bd 58 9e 87 3d
       0.015421549 -0.3576836 -0.11787112 0.066219985
000110 67 31 01 3d 46 a3 b0 be 0d b3 b7 bd 0d 01 1e 3d
       0.031541254 -0.34499568 -0.08969698 0.03857522
000120 f8 db 9a 3d e5 39 8e bd d8 56 36 3c 04 6e 00 bf
       0.07561487 -0.06944636 0.011129104 -0.5016787
000130 ae cb 56 3e 41 66 26 3c f5 e0 3f bf 53 1e 24 bd
       0.20976135 0.010156215 -0.7495263 -0.040067982
000140 7e 8d 00 bd 3b ed c1 bd 9b 65 bb 3d 2c bf f4 bc
       -0.031384937 -0.09469076 0.09150239 -0.029876314
000150 b8 30 29 3d 60 45 a8 3b e1 49 f7 3d 9c 38 ad b9
       0.041306227 0.0051352233 0.12074638 -0.0003303931
000160 a5 ba 3e bf 18 68 34 3d 6f f8 8a bc e5 4a 4a bd
       -0.74503547 0.044044584 -0.016964165 -0.04938783
000170 ea d8 9e bc c5 ac cd ba d5 85 ad 3d a6 44 99 3d
       -0.019390542 -0.0015691748 0.08472792 0.07483797
000180 fd 40 a0 bd 5b bc 50 bc 16 8b c7 3c 59 e6 5b 3d
       -0.078248955 -0.01274022 0.024358314 0.053686474
000190 27 3d 41 3c d2 03 46 bf b3 f3 b4 3d 9a 83 97 bd
       0.011794365 -0.7734958 0.088355444 -0.07398148
0001a0 44 7d ce be ce 9b f0 bc 7c cd 49 3c d9 0e 30 3d
       -0.40329945 -0.029371168 0.012317058 0.04298291
0001b0 35 e7 04 bc 85 9c 65 3b 9d a8 63 3c 4b 9d 4c 3c
       -0.008111765 0.003503592 0.013895181 0.012488673
0001c0 d1 c1 92 3d cf e5 39 3b cf 92 73 bf 97 16 fd bd
       0.07165874 0.0028365736 -0.9514589 -0.12357824
0001d0 a6 fb 88 be 85 58 21 bf d7 e1 d7 3d c6 c6 b4 3c
       -0.26754493 -0.63025695 0.105411224 0.022067439
0001e0 07 f6 d3 bb cb a4 50 3e 45 ab 81 3d 6c b4 c2 bc
       -0.0064685377 0.20375364 0.06331495 -0.023767672
0001f0 27 07 17 3e 44 38 2b be a5 0c b0 3b 14 ba 18 bf
       0.14748822 -0.16720682 0.005372601 -0.5965893
000200 24 ca e1 3d be 1a 97 3d 60 89 95 be b6 fa 74 3d
       0.110248834 0.073781475 -0.2920637 0.05980941
000210 70 fb 21 bd ed 29 27 3e e7 e8 74 be 4b 4f 83 3d
       -0.03954643 0.16324587 -0.2391697 0.06411608
000220 e2 32 3e bd 57 9f fd 3d e0 a2 32 3d f7 56 61 bd
       -0.046435244 0.12383907 0.04361236 -0.055014577
000230 32 63 e1 be 89 b3 28 3e 2c 8e 8d be 25 69 2a bf
       -0.44020993 0.16474737 -0.2764753 -0.6656669
000240 65 c3 7e 3c a1 01 b0 bb 38 4e 0b bd 38 e1 ec 3c
       0.015549515 -0.005371288 -0.034010142 0.028915986
000250 1f 20 1b b9 2b 3b 32 b9 67 8e 85 3d f6 a3 59 bd
       -0.00014793918 -0.00016997445 0.06521302 -0.05313488
000260 b2 5a cc 3a 9b 63 02 bf e7 08 9d 3c 60 53 c1 3b
       0.0015590994 -0.50933236 0.019169284 0.0058998317
000270 66 d0 2d bf 09 00 6e bb ee 18 08 3b 9b fd 3e bc
       -0.67896116 -0.003631594 0.0020766812 -0.011657144
000280 d1 4a 0b 3d 2e 7f c5 3b c3 16 ef bb 3e 46 db 3d
       0.034006897 0.006027124 -0.0072964146 0.10706757
000290 ce fe 7c 3c 22 cc 84 3a 45 8c 37 bf c4 5a 0a bd
       0.01544161 0.0010131637 -0.7169841 -0.033777967
0002a0 00 56 5f 3c 18 2c b3 3e ff da 6a bd 7d 31 74 bc
       0.013631344 0.34994578 -0.057337757 -0.014904377
0002b0 f7 e6 8e 3d a6 b1 5c 3d 28 b3 22 bc e4 ff 1d bd
       0.06977647 0.053880356 -0.0099304095 -0.038574114
0002c0 04 d3 24 be 46 3e 75 3e 1a 22 16 3e ef 20 98 3e
       -0.16096121 0.23949537 0.14661446 0.29712626
0002d0 84 81 53 3e 75 47 30 bc 30 41 b8 3e 48 fa 44 3e
       0.20654875 -0.010759224 0.35987234 0.192361
0002e0 fa b9 a2 3c 55 2a e6 3b 8e 00 8a 3e 84 c2 9a 3d
       0.019864071 0.0070240893 0.26953548 0.07556632
0002f0 4e f7 e0 3c 3a 03 8b bc ab 5f 65 3d 46 c8 cc 3d
       0.027461674 -0.016969312 0.05599944 0.099991366
000300 38 f4 eb 3d e4 d1 a3 3e e5 e3 1f 3e 24 9d e4 3e
       0.115211904 0.3199607 0.15614279 0.4465114
000310 ee 7a 2f bc ae c8 4e bc 01 69 41 be 96 59 98 3e
       -0.010710461 -0.012621088 -0.18887712 0.2975585
000320 b7 f5 9a bb b0 18 af 3b 04 bf 37 be a4 4d 6b 3e
       -0.0047289985 0.005343519 -0.1794396 0.22978836
000330 c7 bb 6e 3d c6 97 ae bd 4c 54 18 3d 63 b6 cd bc
       0.058284547 -0.08525042 0.037189767 -0.025111383
000340 81 82 c2 be d1 6d e2 3c 86 cd 53 bd b4 00 73 3c
       -0.37990192 0.027640255 -0.051709674 0.014831711
000350 5e b5 c5 bd 34 93 74 3d 32 65 15 bd 03 20 99 bc
       -0.09653734 0.059710696 -0.03647346 -0.018692022
000360 3e 53 ac bb f8 1c a2 3d 84 d9 d9 be 20 6b 80 3e
       -0.0052589467 0.079156816 -0.42548764 0.2508173
000370 0e 09 5e be 55 f0 31 bf 13 16 8d 3c f2 0d 22 3c
       -0.21683142 -0.6950734 0.01722244 0.00989102
000380 c1 fd 5d 3e d1 db 8c bb 10 c7 04 3c 07 9f 45 3d
       0.2167883 -0.004298665 0.008104101 0.048247363
000390 71 8e 59 3e 9a aa 57 bc 92 9b 5c 3c 9e f4 e2 be
       0.21245743 -0.013163233 0.013464825 -0.44327253
0003a0 24 84 53 bc ca 90 4e bb c9 11 1e 3e cd bb 1c 3d
       -0.012909923 -0.0031519406 0.15436472 0.03826504
0003b0 f9 7a 27 bd c7 61 6e bb e3 1e 31 be 70 54 ab bc
       -0.04088876 -0.0036374198 -0.17296939 -0.020914286
0003c0 cf 11 f7 3c 74 36 b7 3e 09 d2 00 3e 8d 29 98 3d
       0.030159859 0.35783732 0.12580122 0.074298
0003d0 6f 48 bc 3d 13 3a 11 be df d8 13 3e 41 de b4 bd
       0.09193503 -0.1418231 0.14438199 -0.08831454
0003e0 76 80 09 be 3c f3 2b bd 0c c6 78 3e a7 a4 8e be
       -0.1342791 -0.041980013 0.24294299 -0.27859995
0003f0 15 5e 72 bd ac a8 0f 3c b2 83 2c bc 14 1b 0c 3d
       -0.059171755 0.008768242 -0.0105294455 0.03420551

layer1.bias f4 [128]
000000 03 c8 11 b5 dc 5a 62 37 08 14 36 b5 cc a4 8d b4
       -5.4307765e-07 1.3491805e-05 -6.782943e-07 -2.6383202e-07
000010 e0 8a 96 34 90 a1 bf 33 44 52 09 35 1a bd 13 36
       2.8040722e-07 8.9235186e-08 5.115619e-07 2.2014779e-06
000020 23 35 bc 37 10 5d 98 32 3a ca 28 b7 f7 de 9c b5
       2.243609e-05 1.7737449e-08 -1.0060665e-05 -1.1687797e-06
000030 fa cd 79 b6 0b 05 3a b1 90 9e e1 b4 78 3d 93 37
       -3.7223786e-06 -2.706943e-09 -4.2024885e-07 1.755239e-05
000040 d9 14 6c b6 6f 59 3b b3 dc 09 1e 35 db 4d 9a b6
       -3.5178875e-06 -4.362067e-08 5.8873934e-07 -4.598621e-06
000050 37 c5 de 36 d8 0d 1d 35 fc 24 4b 36 20 50 2e b2
       6.6390744e-06 5.8507203e-07 3.0270885e-06 -1.0146351e-08
000060 4e f3 02 33 d8 77 39 35 26 7d 85 34 3c 96 c5 33
       3.0489268e-08 6.9092266e-07 2.4864238e-07 9.200855e-08
000070 82 c6 ee 35 5f b0 44 33 13 fa 81 b7 b0 f4 8b b4
       1.7790155e-06 4.5795215e-08 -1.5494448e-05 -2.60688e-07
000080 64 b2 78 33 98 ca 40 33 96 53 9d b6 5d 83 5b 35
       5.7904245e-08 4.488774e-08 -4.6886953e-06 8.1775016e-07
000090 bd 9d 93 36 44 d3 9e 32 e8 45 01 34 40 52 c3 b4
       4.3993045e-06 1.8489693e-08 1.2039493e-07 -3.6381425e-07
0000a0 6e ad 32 b6 ad c2 d3 b2 41 44 eb b4 c6 b6 39 32
       -2.6625016e-06 -2.4652161e-08 -4.3821822e-07 1.0809975e-08
0000b0 46 d3 96 34 54 5e a3 b3 86 a9 84 34 02 df 73 b2
       2.80934e-07 -7.607437e-08 2.471026e-07 -1.4195168e-08
0000c0 76 10 76 b5 62 9a ed 35 b5 0c 39 32 61 e8 2f 36
       -9.1666095e-07 1.7702807e-06 1.07713065e-08 2.6212294e-06
0000d0 f4 22 0a 33 18 26 6d 35 64 82 8a 34 02 d6 ab 35
       3.216242e-08 8.8344814e-07 2.5799375e-07 1.2802777e-06
0000e0 c0 17 fb b4 9f 08 93 b4 fa 50 00 b3 4f 13 92 33
       -4.6769674e-07 -2.7387156e-07 -2.987597e-08 6.802167e-08
0000f0 21 b6 a2 33 be bf 12 b3 d8 c8 cd 31 04 64 23 31
       7.576842e-08 -3.4167662e-08 5.9891185e-09 2.3776474e-09
000100 b4 7b 3a b4 c0 62 09 b3 e4 79 ee 32 23 84 4b b5
       -1.7367603e-07 -3.198761e-08 2.7762276e-08 -7.581568e-07
000110 d7 26 79 35 36 45 88 b6 00 c3 e7 b2 e2 a2 01 34
       9.281625e-07 -4.061173e-06 -2.6980615e-08 1.2073318e-07
000120 df c8 9d 33 81 cb a5 b4 28 ee dc b4 c0 6a 3f 2f
       7.3474204e-08 -3.0881714e-07 -4.1151475e-07 1.7409274e-10
000130 6b 89 9b b7 de 31 94 35 c9 76 b8 34 04 83 ee 35
       -1.854143e-05 1.1041373e-06 3.4359098e-07 1.7770512e-06
000140 e0 5a 7e b1 f7 b4 7b b3 37 a2 28 b4 98 5f 68 32
       -3.7013521e-09 -5.8605078e-08 -1.5705233e-07 1.3525913e-08
000150 aa 0b 3e 33 f0 43 94 34 50 0a fb 33 88 8d d7 b2
       4.424843e-08 2.761658e-07 1.1689974e-07 -2.5093655e-08
000160 a9 8b f8 b1 95 19 5c b5 c9 04 51 33 3f 39 10 32
       -7.2336275e-09 -8.1993613e-07 4.8665957e-08 8.394919e-09
000170 7e 88 4b 36 40 5b 82 b4 de fe 62 32 e0 77 ba b3
       3.0328806e-06 -2.428078e-07 1.32128815e-08 -8.683105e-08
000180 f5 c2 41 37 c2 b1 85 b4 58 02 04 b6 37 8d 8d 34
       1.1549088e-05 -2.4902516e-07 -1.9670897e-06 2.6366044e-07
000190 d0 50 ab b4 5a b4 e8 b4 33 ce 0a b7 53 49 84 b5
       -3.191003e-07 -4.334459e-07 -8.2734505e-06 -9.856107e-07
0001a0 c6 64 c2 32 4f ae 5d 35 3c 83 97 b3 b2 e5 c9 b4
       2.2630399e-08 8.258257e-07 -7.055357e-08 -3.7606293e-07
0001b0 f2 79 4b 36 10 36 c7 31 ae 79 ee 33 a6 2f 0d 37
       3.0320339e-06 5.7978085e-09 1.1104872e-07 8.415349e-06
0001c0 2e dc 08 35 94 81 16 b5 14 1c fa b1 a4 e3 de 36
       5.098435e-07 -5.6067915e-07 -7.2791497e-09 6.6426164e-06
0001d0 9c 87 fa 34 db 87 3d b6 d8 29 82 35 09 7a 2f b2
       4.6664798e-07 -2.8242273e-06 9.697933e-07 -1.0214088e-08
0001e0 20 30 bc 34 0e 72 d9 35 d3 39 52 b3 c3 fa 0b 37
       3.5052744e-07 1.6200954e-06 -4.8947026e-08 8.343431e-06
0001f0 96 37 ec b6 00 d0 c2 31 e0 4e 08 32 bb 1a 5f 36
       -7.039819e-06 5.66979e-09 7.934176e-09 3.3245149e-06

bn1.weight f4 [128]
000000 2b 38 55 3f a1 0d 59 3f c8 c7 32 3f 2e 82 38 3f
       0.8328883 0.8478642 0.6983609 0.7207364
000010 15 07 6f 3f 7f f9 45 3f 38 b1 52 3f 74 48 4f 3f
       0.9337018 0.77333826 0.82301664 0.8096993
000020 97 c9 71 3f 8e 68 58 3f d6 b3 61 3f 5b c2 4f 3f
       0.94448227 0.8453454 0.8816503 0.8115594
000030 7e 8a 4e 3f 1b 70 3d 3f 47 24 4d 3f 32 01 56 3f
       0.8068007 0.73999184 0.8013348 0.83595574
000040 c3 27 46 3f 90 f7 40 3f 3b 0a 5a 3f a6 fe 41 3f
       0.7740442 0.7537775 0.8517186 0.7577919
000050 90 e4 68 3f d8 61 5c 3f d5 ff 50 3f 3b 54 74 3f
       0.9097376 0.860868 0.8164037 0.95441025
000060 fe 0c 5e 3f 3e dc 50 3f 6a a4 4f 3f c1 18 3b 3f
       0.86738575 0.8158606 0.8111025 0.73084646
000070 60 39 43 3f 45 45 7f 3f 57 5f 64 3f fb f1 83 3f
       0.7625942 0.9971507 0.8920798 1.0308222
000080 51 94 5e 3f a8 fa 5f 3f 5c 41 72 3f b2 49 56 3f
       0.8694506 0.87491846 0.9463098 0.837062
000090 4f fd 40 3f ea 0c 7a 3f ab 40 5a 3f 75 6e 46 3f
       0.7538652 0.97675955 0.85254925 0.77512294
0000a0 3e b8 73 3f a0 03 3f 3f 86 49 5d 3f cd e9 33 3f
       0.95203006 0.74614906 0.8644031 0.70278627
0000b0 2d fe 52 3f 03 01 42 3f 37 cb 46 3f 8c b4 48 3f
       0.8241909 0.75782794 0.7765383 0.7840049
0000c0 5e d1 70 3f e0 b2 29 3f c9 9b 81 3f d5 84 6e 3f
       0.9406947 0.66288567 1.0125667 0.93171436
0000d0 ff f3 3a 3f 72 34 54 3f 77 d2 66 3f c7 ef 42 3f
       0.7302856 0.82892525 0.90164894 0.7614712
0000e0 f6 bd 65 3f bf de 47 3f ee b2 75 3f d6 4c 5b 3f
       0.8974298 0.7807426 0.9597615 0.8566412
0000f0 9f 6b 46 3f b7 16 3e 3f 5f 08 4a 3f e7 f5 66 3f
       0.77507967 0.7425341 0.78919023 0.9021897
000100 2f 3c 49 3f ea a6 81 3f fe 8b 3f 3f c4 6a 27 3f
       0.7860746 1.0129063 0.74822986 0.65397286
000110 52 54 69 3f 9f 66 43 3f 3f 25 6f 3f b0 cc 47 3f
       0.9114429 0.7632846 0.9341621 0.78046703
000120 58 d9 5b 3f f6 d1 52 3f b9 59 46 3f 9f 0b 31 3f
       0.85878515 0.82351625 0.77480656 0.6915836
000130 c6 42 6c 3f 3d a3 46 3f 60 05 4f 3f e8 8f 47 3f
       0.9228939 0.7759283 0.80867577 0.7795396
000140 1c 82 49 3f 98 2a 6f 3f 8e 60 32 3f 5a f6 51 3f
       0.78714156 0.9342437 0.6967858 0.8201653
000150 a5 f6 58 3f 25 fb 48 3f 7b 3a 4e 3f e0 f0 50 3f
       0.8475135 0.78508216 0.80557984 0.81617546
000160 6b 78 54 3f 6b 09 77 3f 22 1d 79 3f 90 cf 67 3f
       0.82996243 0.96498746 0.9731008 0.9055109
000170 7b a3 83 3f 95 09 41 3f ef 57 5b 3f b6 19 70 3f
       1.0284265 0.75405246 0.8568105 0.9378923
000180 39 d2 42 3f 83 3c 28 3f 9d 71 4b 3f 07 7b 51 3f
       0.76102024 0.65717334 0.79470235 0.8182835
000190 83 e1 48 3f a4 be 53 3f 88 1e 67 3f 1e ff 3b 3f
       0.78469104 0.8271277 0.9028096 0.7343615
0001a0 5e f7 49 3f 3c e9 34 3f 35 4c 6c 3f b9 76 4a 3f
       0.7889308 0.7066839 0.9230378 0.79087406
0001b0 31 9e 55 3f 61 12 41 3f 13 bf 66 3f 92 ad 57 3f
       0.83444506 0.7541867 0.90135306 0.8424922
0001c0 16 c5 4d 3f a3 a1 4a 3f 28 1e 51 3f 1c 00 6a 3f
       0.80378854 0.7915289 0.8168664 0.91406417
0001d0 ee 3d 54 3f d5 5f 58 3f 84 a5 43 3f 42 50 7c 3f
       0.82907 0.8452123 0.7642443 0.98559964
0001e0 76 ae 69 3f f1 6d 45 3f 52 80 78 3f bf 24 6e 3f
       0.9128183 0.7712088 0.970708 0.9302482
0001f0 b0 dc 55 3f e7 62 67 3f c9 44 6b 3f 50 73 33 3f
       0.8353987 0.9038529 0.9190183 0.7009783

bn1.bias f4 [128]
000000 9f af 11 bf 89 91 14 bf 31 9f 15 bf fd f9 e7 be
       -0.569086 -0.5803457 -0.5844603 -0.45307913
000010 1a 56 41 be 2f 98 08 bf 74 de 2d bf df 68 2a bf
       -0.18880501 -0.53357214 -0.6791756 -0.6656627
000020 8d 23 f8 be d6 dc 2f bf 35 0c ff be b9 91 59 bf
       -0.48464623 -0.68696344 -0.49814 -0.8498798
000030 45 a3 5b bf d2 32 8f be 3c 32 93 be 61 36 c0 be
       -0.85796005 -0.2796846 -0.28749263 -0.37541488
000040 76 ba 38 bf 30 3f d8 be 58 60 0a be 4e e9 e9 be
       -0.72159517 -0.42235708 -0.13513315 -0.4568581
000050 d9 08 2b bf f3 79 61 bd 3f 8c 0f bf 17 29 bb be
       -0.66810375 -0.05504794 -0.56073374 -0.36554787
000060 3f dd cd be 92 f4 0d bf d6 03 11 bf 6a 8f a1 be
       -0.4020786 -0.5545131 -0.5664648 -0.3155473
000070 8c 3d 63 be 68 f6 da be cf 5d 97 bd 7b bf 92 bc
       -0.22191447 -0.42766118 -0.073909394 -0.01791357
000080 7f b1 f8 be c9 c8 97 be c2 28 3f 3c e8 dc 28 bf
       -0.4857292 -0.29645374 0.011667432 -0.65962076
000090 a8 37 04 bf 03 f8 cf be 03 0f 83 be 2f a9 b4 be
       -0.51647425 -0.40618905 -0.2559739 -0.35285327
0000a0 eb 34 79 3a 4b 37 1e bf 67 ae 14 bf 03 41 a1 be
       0.00095064816 -0.6180312 -0.58078617 -0.31494913
0000b0 8b 1e 28 bf f3 31 be be 38 b2 1c bf 9d 2f dd be
       -0.65671605 -0.37147483 -0.6120944 -0.4320039
0000c0 de 73 f8 be f4 ea 32 be c7 ef 49 bd b7 78 a3 bc
       -0.485259 -0.1747244 -0.049300935 -0.019955022
0000d0 82 b0 7b be 84 27 99 be 33 64 ec be 7c d7 33 be
       -0.24579051 -0.2991296 -0.46170196 -0.1756267
0000e0 67 7c 6d bd c0 ad 51 be 88 c1 e9 bd a5 5c b5 be
       -0.057979967 -0.20476437 -0.11413866 -0.35422245
0000f0 85 51 05 bf ec 89 ea 3c a8 17 48 bd 14 19 89 be
       -0.52077514 0.02863022 -0.048850685 -0.26776946
000100 44 8b aa bd 52 7e b4 be d5 87 57 be ec 83 2c bf
       -0.08327344 -0.35252625 -0.2104791 -0.67388797
000110 fe c8 5c be d7 bf c1 bd cf bb 3d 3e ad 66 39 bf
       -0.21561047 -0.09460419 0.18528675 -0.72422296
000120 1d d3 00 bf 34 77 21 bf a2 7d 16 bf dd 03 9e be
       -0.50322133 -0.63072515 -0.5878545 -0.30862322
000130 1c 51 01 bf 5d 6a 8e be 65 9f dd be 76 71 62 be
       -0.5051439 -0.27815524 -0.4328567 -0.22113594
000140 07 9f c2 bd fd be cd bd 90 b9 dd be a8 0b c7 be
       -0.09502988 -0.10046194 -0.43305635 -0.3887608
000150 6c 50 f1 be a4 e8 2d bf 39 4f 37 bf ac 42 7e be
       -0.4713167 -0.67933106 -0.7160526 -0.24830121
000160 09 66 59 be 40 3f cf be 4d 41 9e be b0 d1 bb be
       -0.2123033 -0.40477943 -0.30909196 -0.36683416
000170 d2 9d 5a bd 90 90 2f bd 17 73 1c 3d 63 f1 c4 be
       -0.053373165 -0.042862475 0.038195696 -0.38465413
000180 ee e3 b4 be 43 88 7e be 20 18 19 bf 14 2c b6 be
       -0.35330147 -0.24856667 -0.59802437 -0.35580504
000190 1f a6 32 bf c7 cd b4 be e8 ff d2 be 8c 15 83 be
       -0.6978473 -0.35313246 -0.41210866 -0.25602376
0001a0 d9 6c 0c be 5c 2b 50 bf 95 17 e1 be 50 06 ea be
       -0.13713397 -0.8131616 -0.43963304 -0.4570794
0001b0 21 aa 6a be df 17 79 be 64 41 74 3d a4 ff 0f bf
       -0.22916462 -0.24325512 0.059632674 -0.5624945
0001c0 8f 46 2e bf d1 95 2f bf 00 f7 2d bf c8 89 d0 bd
       -0.68076414 -0.68587977 -0.6795502 -0.1018253
0001d0 66 f1 37 bf 92 fb 0c be ae 3c 32 bf 1b 24 09 3d
       -0.7185272 -0.13767841 -0.6962384 0.0334817
0001e0 4a aa 11 be 80 dc 89 be 4d 84 b0 be 28 f4 02 bf
       -0.14225116 -0.2692604 -0.34475937 -0.511538
0001f0 8d aa af be 48 da ec be f0 b7 20 3b 14 da bd be
       -0.34309807 -0.46260285 0.0024523698 -0.37080443

bn1.running_mean f4 [128]
000000 ac 70 5c 3c da 91 8c 3c 52 dc 90 3c 67 8f 20 3c
       0.013454597 0.017159391 0.017683182 0.009799815
000010 2c 05 b9 3b 5c 37 5e 3c 3f 99 73 3c e0 91 15 3c
       0.0056463685 0.013563003 0.01486808 0.009129018
000020 7e b1 a9 3c ee 55 c2 3b 0d cf 9b 3b 72 c6 35 3c
       0.020714518 0.005930654 0.004754907 0.011094676
000030 35 59 68 3c 22 e6 5e bc ed ef bf bc d0 da 19 bc
       0.014181425 -0.013604673 -0.023429835 -0.009390548
000040 6c 7d 02 3b 54 e6 68 3c ae 0d ed bb 25 ab 41 3c
       0.0019911183 0.014215071 -0.0072342968 0.011820589
000050 3f 3b 1a 3b 3a 6d 02 bc 46 9d 6e 3c 30 43 95 bc
       0.0023533849 -0.007960612 0.014563864 -0.018220514
000060 38 4e b2 3c 96 c2 e0 3b c5 6c 5c 3c 6b 86 25 bc
       0.021765813 0.006859134 0.013453667 -0.0101028485
000070 26 3a d8 bb 18 0c 6a 3c bf 41 db 3c 28 81 e6 ba
       -0.0065987287 0.01428511 0.026764749 -0.0017586099
000080 c4 b0 c4 3b 4a fd 66 3c de 11 d6 bb 2a b1 84 3b
       0.0060025174 0.014098475 -0.0065328917 0.00404944
000090 ad 44 90 3c e5 e5 54 3c a4 9f 0a bc fb 69 34 3b
       0.017610872 0.012994264 -0.008460913 0.002752899
0000a0 10 32 84 3a 30 86 46 3b d2 97 30 3c b1 54 e9 3b
       0.001008572 0.0030292384 0.010778384 0.0071206917
0000b0 ac a5 68 3c e0 2f 71 3c bf ad f9 bb e7 5a 3a 3c
       0.0141996555 0.014720887 -0.007619589 0.011374212
0000c0 2e de 97 3c 4c 62 1d bc 1b 7c 89 3c c8 11 14 bc
       0.01853856 -0.009605955 0.01678281 -0.0090374425
0000d0 d8 a2 14 3b 14 f9 4c 3c 9f d2 ca bc 00 aa 8c bc
       0.002268007 0.012510557 -0.024758635 -0.017170906
0000e0 9a 91 16 3a 1c 43 d5 3a e8 64 62 bb ae 27 b5 3c
       0.0005743742 0.001627061 -0.0034545008 0.022113647
0000f0 42 12 21 3b 5a 7f cf bb 00 7b 92 b9 72 80 85 3c
       0.0024577533 -0.00633232 -0.00027938932 0.016296599
000100 58 48 22 3a 6e e1 45 3c 0c 7f 31 3c 5c 6a 4f 3b
       0.00061905896 0.012077672 0.010833513 0.0031649088
000110 2f 83 9f 3a 38 e8 7f bc b5 c2 01 bc ad fa 49 3c
       0.0012169833 -0.01561933 -0.007919957 0.012327832
000120 48 78 85 3c 02 2a 14 3c f0 c3 46 ba f4 a3 2a 3a
       0.016292706 0.009043219 -0.00075822975 0.0006509416
000130 90 a0 49 3c 76 72 95 bb 9e ca 5a 3b 35 bb a9 3b
       0.0123063475 -0.004560764 0.003338493 0.0051797875
000140 86 0f 93 bb f9 f1 1a bc a0 87 50 ba 56 05 67 3c
       -0.0044879345 -0.009457105 -0.000795478 0.014100393
000150 80 49 5e 3c 8a cf 06 3b a6 22 3a 3c 6c dc 3f bc
       0.013567328 0.002057048 0.0113608 -0.0117102675
000160 e2 6a 44 3c 25 1d 69 3c c8 62 1a 3c f5 b9 fe bb
       0.0119883735 0.01422814 0.009422965 -0.0077736326
000170 94 f2 05 3b e1 40 6c bb af 18 8b 3a 03 fc 7c 3c
       0.0020438777 -0.0036049413 0.0010612215 0.015440944
000180 b6 0b f3 3b 63 12 54 bc bc fa 84 3c b4 87 8e 3c
       0.0074171675 -0.012943837 0.01623284 0.017398693
000190 76 dc 5d 3c a3 de 04 bb 97 88 3a bb 54 67 0b bb
       0.0135413315 -0.0020274303 -0.0028462762 -0.0021271305
0001a0 be 74 3a bc e4 4b e6 bb 19 d8 58 3c 4a 8d 8e 3c
       -0.011380373 -0.00702809 0.013235115 0.017401356
0001b0 12 54 5d bc 4e 9d c1 bb 32 6e b9 bb 3d 16 69 3c
       -0.013508813 -0.0059086448 -0.0056588883 0.014226493
0001c0 ee 3a 6c 3c e8 c8 09 3c 68 41 6e 3b bf 04 f3 bc
       0.014418347 0.008409716 0.0036354903 -0.029665349
0001d0 2a 7c ea 3b ae 32 cd bb 94 9c b6 3b 28 b9 32 3c
       0.007155915 -0.006262145 0.005572865 0.0109084025
0001e0 15 be 02 bc 2d 66 a9 bc 5c 46 8a 3a c7 fd 02 3c
       -0.007979889 -0.020678604 0.0010549533 0.007995076
0001f0 37 90 82 bc d6 00 c6 bc 64 b1 88 3b 28 5b 4b bc
       -0.015937908 -0.02417032 0.0041715372 -0.01241187

bn1.running_var f4 [128]
000000 66 80 5d 3f e0 fc cf 3f bb 61 6d 3f e2 57 42 40
       0.86524045 1.6249046 0.9272725 3.036614
000010 0e c7 17 3e d3 0a a1 3f d7 e0 05 40 d7 63 f3 3e
       0.14822027 1.2581428 2.0918481 0.4753711
000020 5e 7e d3 3f c5 c5 4d 3f f6 bd 31 3f fc 07 92 3f
       1.6522939 0.803799 0.6943048 1.1408687
000030 14 e7 c4 3f e5 a3 f9 3e 64 e4 06 3f fa 0a 28 3e
       1.538302 0.48757854 0.52692246 0.16410437
000040 ea ea 69 3f cd f6 2f 3f dd 24 37 3e 29 9a 18 3f
       0.91374075 0.68735963 0.17885156 0.5961023
000050 de 85 7c 3d f6 d9 d7 3e a9 2f 71 3f fb 35 b3 3e
       0.061651103 0.42158478 0.9421335 0.3500212
000060 85 c7 a2 3e 38 d1 59 3f c1 64 53 3f 48 85 e9 3d
       0.31792846 0.8508487 0.82575613 0.114023745
000070 bf 18 96 3e e1 7f 2b 3f 95 51 1f 3f 09 11 96 3f
       0.29315755 0.66992 0.6223386 1.1723949
000080 95 b8 38 3f 3a 6f 8c 3e d4 59 34 3f 1e 70 6d 3e
       0.7215665 0.2742861 0.70449567 0.231873
000090 5f 29 53 40 d8 1e 51 3f ba a2 0b 3f b0 1d 1a 3f
       3.2994 0.8168769 0.54545176 0.6020155
0000a0 8e 02 58 3f fd 37 7e 40 e4 a1 8b 3f 9a c1 5e 3f
       0.843789 3.9721673 1.090878 0.8701416
0000b0 6a 88 a4 3f 06 88 d2 3e 80 9c 92 3f 74 e5 9d 3f
       1.285413 0.41119403 1.145401 1.2335649
0000c0 25 30 02 40 8c 8c 06 3f 37 28 b5 3e 5f 6d 40 3f
       2.0341885 0.5255821 0.35382244 0.7516689
0000d0 f9 aa 1e 3f 02 9a de 3e a3 61 16 3f f8 06 15 3f
       0.61979634 0.43476874 0.5874273 0.5821376
0000e0 bb 3b 22 3f 36 7f c7 3e b6 f6 a8 3e d4 c3 18 40
       0.6337239 0.38964242 0.33000726 2.3869524
0000f0 13 62 84 3e d9 10 2c 3e 8b 95 a3 3e b0 0a 14 3f
       0.25856075 0.16803302 0.3195003 0.5782881
000100 2a 92 46 3e b9 6c 9e 3e 35 68 7a 3e 98 7a 51 3f
       0.19391695 0.30942324 0.24453814 0.8182769
000110 89 86 9f 3e 55 f7 2d 3f 2c f0 0f 3f 95 3e a5 3f
       0.3115733 0.67955524 0.5622585 1.2909724
000120 9a 5c a9 3f c8 55 3d 3f ec a2 2c 3e 16 4c 64 3e
       1.3231385 0.73959017 0.16859025 0.2229465
000130 fe 82 b4 3e c4 d2 f4 3e 82 73 14 3f 3b d6 3f 3e
       0.3525619 0.4781705 0.5798875 0.18734066
000140 ed 01 bb 3e 73 29 31 3f 76 6b 3c 40 43 69 89 3f
       0.36524907 0.6920387 2.944059 1.0735248
000150 74 47 c9 3e d0 bf e1 3e 70 08 52 3f 89 ee 05 3f
       0.39312327 0.44091654 0.82044125 0.523171
000160 41 61 d5 3e 83 b1 33 3f ef b6 45 3e 52 b1 b8 3d
       0.4167576 0.70192736 0.19308065 0.09018196
000170 0e ee 16 3f 64 f6 96 3e f8 1e 95 3e 94 0f 8a 3f
       0.5895699 0.29484856 0.2912519 1.0786004
000180 f0 46 05 40 0c aa 8e 3e 79 c9 7e 3f 4a 6e 10 40
       2.0824547 0.2786411 0.9952617 2.2567315
000190 c8 6e e2 3e e6 fe 2e 3e d5 5c 62 3d c0 20 8b 3e
       0.44225144 0.17089424 0.055264313 0.27173424
0001a0 8e e1 70 3e 8c 3a 3f 3f 0a 36 a1 3e 80 3d 94 3f
       0.23523542 0.7469871 0.3148654 1.1581268
0001b0 05 b1 b1 3e e7 4a 92 3e d0 73 90 3f d9 76 87 3f
       0.34705368 0.2857277 1.1285343 1.0583144
0001c0 a9 bd b9 3f f8 b1 36 3f 98 c1 e2 3f f2 e8 1f 3f
       1.4511005 0.7136531 1.771533 0.6246482
0001d0 24 2b 26 3e 4b f4 a0 3e 98 70 19 3f 15 c4 5e 3f
       0.16227394 0.3143638 0.5993743 0.8701795
0001e0 f6 3c 02 3f ff 0b 89 3e 4d f2 d5 3e 09 b5 5d 3e
       0.5087427 0.26766965 0.41786423 0.2165109
0001f0 53 a5 e9 3e 2a 35 a2 3e 6b 28 ab 3f 2c 40 8e 3e
       0.45633945 0.31681186 1.337171 0.27783334

layer2.weight f4 [128, 128]
000000 28 9c 28 3d 3b e1 b9 bd 7b 6c 61 bd b2 c2 12 be
       0.041164547 -0.090761624 -0.055035096 -0.14332083
000010 a7 ef 95 3e f7 c9 e0 bd bb b5 9b bd bd 34 c6 bd
       0.29284403 -0.10976022 -0.07603022 -0.09678028
000020 bf ea 82 be 00 10 1a be 07 0d 4f 3d a3 85 27 3b
       -0.25569722 -0.15045166 0.050549533 0.0025561831
000030 72 68 83 bd 9a d3 b2 3d be 94 1b 3e 09 82 1d 3c
       -0.06416406 0.08731766 0.1519346 0.009613522
000040 8f bb 6a be fe 9d 41 3e c1 66 10 bd 60 9d 11 3e
       -0.2292311 0.18907925 -0.035254244 0.1422019
000050 d1 d9 42 3d f6 f9 05 bd 2c f8 8a 3d 4c 4b 29 be
       0.047571007 -0.032709084 0.06785616 -0.1653263
000060 1f 94 93 3d 47 8a a5 bc bc 33 8a bc 34 7c 81 3d
       0.07205986 -0.020207537 -0.016870372 0.06322518
000070 3e ca 00 be 11 af 81 be 19 07 a7 3d ba 69 3c 3c
       -0.1257715 -0.25328878 0.08155651 0.011499817
000080 b1 88 c5 3d 35 69 41 3e b3 e8 42 3b 43 8b 86 bc
       0.096452124 0.1888779 0.002974075 -0.016423827
000090 0e d9 32 3e 51 66 3d bd de c3 d4 bd 77 30 c6 3c
       0.17465612 -0.046240155 -0.10388921 0.024193032
0000a0 d7 c1 b9 3d a7 69 2c be 75 4e 98 3d 02 0b 55 bb
       0.09070175 -0.16837178 0.074368395 -0.0032507782
0000b0 d2 ad 0d 3e d2 9b d1 3c a1 55 68 bd b2 5d 73 bd
       0.13835838 0.025586996 -0.056722287 -0.059415527
0000c0 09 6d ab bd ea 33 1e 3c 3a 90 f1 3d ea 79 06 3d
       -0.08370406 0.009655932 0.11795087 0.03283111
0000d0 3e b1 0d 3c ce 11 e1 3d c6 ac 80 bd 92 74 d2 bd
       0.008648215 0.10989724 -0.06282954 -0.1027614
0000e0 b3 6d 84 bd 5d c1 3a 3e ff 75 4d bd 11 6c cf 3b
       -0.06466236 0.18237825 -0.050161358 0.006330021
0000f0 19 99 3c 3e da b4 40 bd a6 38 ca 3b db 00 cd bd
       0.18417777 -0.047047473 0.006171304 -0.10009929
000100 f2 cb 42 bc e4 50 2f 3d ee 67 a5 bb 87 7a bb 3d
       -0.011889445 0.042801753 -0.00504779 0.091542296
000110 2c e4 31 b9 0e a2 24 be 5f 89 81 3d 0f 4c 15 be
       -0.00016965036 -0.16077444 0.063250296 -0.14579795
000120 86 6b bd bd 71 8f 75 be f7 66 a3 bd c8 9d b7 3d
       -0.09249024 -0.239805 -0.07978623 0.08965641
000130 a9 13 52 3e d1 27 83 3c 6f 60 5f bd b8 9b 2f 3e
       0.20515312 0.016010197 -0.054535326 0.17149246
000140 ff 70 e2 3d 9a 62 23 3d db 41 d3 bd 9b 25 b5 bd
       0.110567085 0.039888956 -0.10315295 -0.08845063
000150 0f c9 af bc b2 b0 78 3d 8e 3b 19 be 50 66 96 3c
       -0.021458177 0.060715385 -0.14964125 0.018359333
000160 10 2c 92 bd c9 1f 1c be 7c 41 a1 bd 50 ee 77 3d
       -0.071373105 -0.152465 -0.07873818 0.060530007
000170 f2 d4 e7 3c 09 be fe bc e4 aa 6e 3d 6c b9 b0 bd
       0.028299782 -0.031096475 0.058268443 -0.086291164
000180 af 4b d8 bd 93 cd 32 bd 94 3e c7 bd c8 e9 8f be
       -0.105613105 -0.043653082 -0.09728733 -0.28108048
000190 83 c0 76 3d 1e 02 27 bc ab 5d 10 3e 57 ed 44 3d
       0.060242187 -0.010193376 0.14098231 0.048077907
0001a0 fa 0e 8e 3d cc dc 1e be 24 44 16 3d e6 76 97 3d
       0.0693645 -0.15513915 0.036686078 0.07395725
0001b0 a9 18 93 3c 88 5a 94 3d d8 e9 25 3e e7 1f 15 be
       0.017956095 0.0724383 0.16202486 -0.14562951
0001c0 2c dd cb ba ab da 27 3e 42 dd 11 be d9 89 3a 3e
       -0.0015553585 0.16392009 -0.1424456 0.18216647
0001d0 4d af 37 be 37 28 16 3e 75 67 21 be ac d6 e1 3c
       -0.17937966 0.14663778 -0.15762122 0.027568184
0001e0 00 e1 22 3d 84 53 9a bd 20 bf d1 3d 06 40 b4 3d
       0.039765358 -0.075354606 0.10241532 0.08801274
0001f0 0d e0 e3 bc d2 bf 6f be c3 c7 e3 bb 46 4c e3 bc
       -0.027816797 -0.23413017 -0.0069513037 -0.027746331
000200 b6 97 b0 3d 72 ea 1c 3e 3c a8 f3 3d 20 1b 6f 3d
       0.086226866 0.15323809 0.118973225 0.058375478
000210 e1 37 81 be ac 70 f7 3c 8f 16 a4 3d fa d7 b6 3a
       -0.25237945 0.030205093 0.08012115 0.0013949864
000220 af 4d b5 3d 65 25 19 3e 60 7d f6 bd 29 98 b0 3e
       0.088527076 0.14955671 -0.12035632 0.3449109
000230 0f b2 89 3e 20 cf 38 bd 01 61 f8 3c 1a ac d5 3c
       0.2689366 -0.045119405 0.030319693 0.026083041
000240 e5 0d 83 3e 3b ba 74 bd e1 08 57 bc ef 22 41 3d
       0.25596538 -0.059747916 -0.0131246755 0.047152456
000250 7a 85 bf bc 25 8b 75 be 8f 18 54 bd 78 64 37 3d
       -0.023379076 -0.2397886 -0.051781233 0.04477355
000260 c0 36 53 3d 50 bd 40 3d 46 62 85 3d 61 9a 10 3c
       0.051565886 0.047055542 0.06512885 0.008825869
000270 f9 b3 e3 bd 66 b9 22 3d d6 7b 7f be 63 87 20 3d
       -0.111183114 0.03972759 -0.24949583 0.039191615
000280 bc 69 f0 3d 4e 0d a2 bd 60 01 82 bc 38 be 60 bc
       0.11738917 -0.07912694 -0.015869796 -0.013717227
000290 bc eb 64 bd 75 2a b0 bc ee 91 b9 3d b1 2d 05 bd
       -0.055888876 -0.02150462 0.09061037 -0.032514278
0002a0 af 20 11 be 1b 27 44 3c 41 0b 83 3d cd db 2a be
       -0.14172624 0.011972214 0.06398631 -0.1668541
0002b0 da 72 11 3e be 9d 05 3e 31 e6 89 3d ed 2e cb bd
       0.14203969 0.13048455 0.06733359 -0.0992106
0002c0 4c 06 1a 3e 75 ca c7 3c b0 48 88 bd dc 80 4c be
       0.15041465 0.024388531 -0.06654489 -0.19971031
0002d0 3e a5 ac bd 96 30 e6 bd 09 29 1f 3e 7f e2 87 3d
       -0.08429955 -0.11239736 0.15542997 0.066349976
0002e0 2f 80 72 be 26 37 d2 bd 42 e2 88 3b 91 70 c2 3c
       -0.2368171 -0.10264425 0.0041773627 0.023735316
0002f0 d1 3b b5 3b af 31 6b 3d f6 1a 88 bd a6 88 a4 bd
       0.0055308123 0.05742043 -0.066457674 -0.08033876
000300 ab af 2c bd aa f5 cc 3a 08 ba ff bd 49 6a db bd
       -0.042159718 0.0015637178 -0.124866545 -0.10713632
000310 1c 60 f5 bd e1 e2 32 be f1 cf 27 be c0 f1 61 3d
       -0.11981222 -0.1746936 -0.16387917 0.05516219
000320 5d be e6 3d bd 44 8c 3d 98 c5 c7 bd 10 a5 70 3d
       0.11266778 0.06849048 -0.09754485 0.058751166
000330 83 6a 15 3e 53 76 c0 bc c5 6e 5b bd e7 0b 57 3e
       0.14591412 -0.023493921 -0.053572435 0.21000634
000340 16 98 bc bc c3 58 e9 bd dd fc c1 3d b6 99 b1 3b
       -0.023021739 -0.11393883 0.09472058 0.005419935
000350 c6 79 a3 bc 68 71 fa 3d e3 6b 73 3e 0c fd 7c bc
       -0.019955527 0.12228662 0.23771624 -0.01544119
000360 d8 b9 12 bb 1e a1 33 3e 78 65 a0 be cb c7 06 3e
       -0.0022388604 0.1754193 -0.31327415 0.13162152
000370 93 eb fb 3d b1 a7 22 3d b9 27 7b be 88 a6 21 bc
       0.123007916 0.039710704 -0.24526872 -0.009866364
000380 1b 6e 18 3d b9 4f 60 bd 54 06 01 3e 00 2d 99 bd
       0.03721438 -0.05476353 0.1260007 -0.07479286
000390 58 5c 06 3c 9d b4 35 bc 3b b3 0e 3e df 4a a1 3c
       0.008200727 -0.011090425 0.13935558 0.019689022
0003a0 c6 8c 89 bd 30 94 64 3d 30 59 a1 3d fb af 71 bd
       -0.067163035 0.055805385 0.07878339 -0.05900572
0003b0 04 0f 3f 3d ba ae b1 bd 20 98 f2 3c 1f 3e db 3d
       0.04664518 -0.086759046 0.029613554 0.10705208
0003c0 f2 a2 79 bc e9 9e 19 3c b4 85 f6 3d 24 f2 05 3e
       -0.015236603 0.009376266 0.120372206 0.1308065
0003d0 e0 d8 14 3e 02 6d ab bd 45 01 31 3e 43 c3 19 bb
       0.14535856 -0.08370401 0.1728564 -0.0023462332
0003e0 8f 35 05 bd 83 15 1f 3d 8c 65 e2 3d 2b a5 80 3d
       -0.03252178 0.038838875 0.11054525 0.06281503
0003f0 8f 20 12 3d cb e0 6f 3e 11 ad 13 3d de 56 34 3d
       0.03567558 0.23425595 0.03605372 0.044028156

layer2.bias f4 [128]
000000 d0 63 b3 31 6a e8 e8 b1 ed 88 99 32 16 bc 91 b2
       5.220933e-09 -6.778511e-09 1.787381e-08 -1.6965753e-08
000010 14 27 5e 32 0c ca 1f b1 d3 d5 10 b3 1e 61 3c b3
       1.2930986e-08 -2.3252396e-09 -3.3722085e-08 -4.386049e-08
000020 3e c6 a4 b5 46 cf 0c 36 af 11 9d b2 d0 42 a7 b0
       -1.2276648e-06 2.0982275e-06 -1.8285247e-08 -1.2169838e-09
000030 f5 99 0d b6 a0 a4 1d 34 db 95 49 b7 f0 de d4 37
       -2.1100252e-06 1.4681655e-07 -1.20154245e-05 2.5376183e-05
000040 00 92 80 b2 33 2d 19 32 9a 1b 00 35 90 a2 da 2f
       -1.4967554e-08 8.916049e-09 4.772388e-07 3.9769477e-10
000050 0a b1 5e b2 d6 8a f8 b0 a6 6d db b5 bc 49 2e 35
       -1.2962355e-08 -1.8083834e-09 -1.6348683e-06 6.492735e-07
000060 00 e0 c2 30 8c da e3 b1 04 a5 00 b2 af 87 08 b5
       1.4179022e-09 -6.6314154e-09 -7.488101e-09 -5.0861394e-07
000070 4a 6c a3 b1 2d a6 28 34 56 2e a2 37 68 49 a5 33
       -4.7562354e-09 1.5706674e-07 1.9333482e-05 7.696764e-08
000080 5c d0 9e 34 8f 2e d5 33 df 56 ed b6 7b 58 1b 32
       2.9581395e-07 9.9270544e-08 -7.0732635e-06 9.042306e-09
000090 36 2b ae 37 76 bc d0 31 72 f5 86 33 95 15 3c 32
       2.0762538e-05 6.0750223e-09 6.2845075e-08 1.0947947e-08
0000a0 d7 f6 c7 33 d3 dd e4 b7 0a 44 5a 32 3a ec c9 b1
       9.3115595e-08 -2.7283013e-05 1.270474e-08 -5.8767258e-09
0000b0 38 53 c5 34 90 4d 93 b5 06 6c 18 35 20 53 ce 35
       3.675466e-07 -1.0974927e-06 5.678161e-07 1.5372389e-06
0000c0 54 fa 8b b3 de 43 33 32 d0 8d b6 32 f0 23 cc 31
       -6.518226e-08 1.04346025e-08 2.1252077e-08 5.941267e-09
0000d0 f3 be 11 37 2e 7e 05 b3 35 b1 15 32 b8 68 32 b6
       8.687132e-06 -3.1081235e-08 8.713234e-09 -2.6585021e-06
0000e0 6e fe 8f 37 a1 a6 0a b2 6c ea 89 b2 b0 5f c7 b4
       1.7165406e-05 -8.070544e-09 -1.6055502e-08 -3.713626e-07
0000f0 a8 68 04 31 5e 0e de b4 8e 92 21 b2 a4 f9 06 35
       1.9268018e-09 -4.1361176e-07 -9.404756e-09 5.0282165e-07
000100 b8 a8 11 35 54 52 01 b6 48 d3 06 b2 d3 fe 0a b2
       5.426223e-07 -1.927042e-06 -7.847866e-09 -8.0905975e-09
000110 4c b1 f6 b3 50 59 47 33 47 82 3e b6 e4 05 62 37
       -1.1487518e-07 4.6414527e-08 -2.8388038e-06 1.3472021e-05
000120 c0 02 87 32 d6 84 37 31 7c 90 9c 31 40 e1 dd b1
       1.5717319e-08 2.6705513e-09 4.5566235e-09 -6.4575545e-09
000130 5a ac 4c b4 46 6d 29 33 c6 8e a8 32 c4 78 c0 b5
       -1.9061682e-07 3.9447762e-08 1.96227e-08 -1.4340262e-06
000140 02 ed 58 34 23 27 20 b4 30 a0 4a 34 90 a0 14 b2
       2.020279e-07 -1.4915399e-07 1.8870992e-07 -8.6512415e-09
000150 22 ba 74 b7 7d 42 01 b2 26 61 30 37 df 5e b5 b4
       -1.4586871e-05 -7.523906e-09 1.0513037e-05 -3.3782905e-07
000160 98 82 26 b2 50 dc 40 b3 28 b9 86 b4 42 a7 c1 32
       -9.692165e-09 -4.4903857e-08 -2.5094164e-07 2.2544217e-08
000170 a4 58 25 b6 ec 32 16 34 48 51 f6 b2 18 5c a7 32
       -2.4638512e-06 1.3988364e-07 -2.8675132e-08 1.9483238e-08
000180 c0 fe a0 b3 57 bc 29 35 68 bf 1c 36 5c bd 1c 32
       -7.496919e-08 6.3231477e-07 2.3357225e-06 9.12345e-09
000190 78 02 ca 32 00 0a ba b2 aa e6 18 b1 20 8c e8 35
       2.3517018e-08 -2.1657797e-08 -2.2250028e-09 1.7326129e-06
0001a0 58 b0 75 b3 c8 c6 c1 b0 ac 7e d8 b5 a7 72 d2 b2
       -5.720389e-08 -1.4099095e-09 -1.613012e-06 -2.4499355e-08
0001b0 eb 10 53 b1 b2 f4 af b3 00 db e8 af cd a9 3a 35
       -3.0714158e-09 -8.193582e-08 -4.2356163e-10 6.953749e-07
0001c0 70 6a 02 33 1f 92 69 b6 ed 39 92 b1 8a 02 0c b6
       3.0364788e-08 -3.480476e-06 -4.2557446e-09 -2.0863104e-06
0001d0 d7 0e c4 33 e4 d3 8a 34 3b f5 ac b5 00 51 ce 31
       9.1296606e-08 2.5858674e-07 -1.288637e-06 6.0045977e-09
0001e0 16 32 d9 b2 80 1f 21 32 4a 5c 26 b2 6f e3 a6 32
       -2.5284901e-08 9.378596e-09 -9.683456e-09 1.9428368e-08
0001f0 88 0c 77 b6 a5 45 11 b6 af 9a 60 34 98 69 e4 32
       -3.6813162e-06 -2.1647222e-06 2.0917899e-07 2.6590712e-08

bn2.weight f4 [128]
000000 25 fc 60 3f e6 c4 60 3f cc 73 63 3f 60 f2 5b 3f
       0.8788474 0.87800443 0.88848567 0.8591671
000010 8b 00 5b 3f 31 a6 51 3f 81 33 59 3f c0 46 54 3f
       0.85547704 0.8189421 0.84844214 0.82920456
000020 9a 93 62 3f fd bc 63 3f 8b 35 7d 3f e0 85 7c 3f
       0.8850647 0.8896025 0.98909825 0.9864178
000030 5a 8d 5e 3f 15 52 59 3f eb d4 59 3f c5 18 57 3f
       0.86934435 0.8489087 0.8509051 0.8402217
000040 cd bc 66 3f 3c 53 56 3f 97 00 6d 3f df dc 7c 3f
       0.9013184 0.83720756 0.92579025 0.9877452
000050 c1 9d 4d 3f e8 5c 45 3f 4d bd 6f 3f 25 f1 6a 3f
       0.8031884 0.7709489 0.93648225 0.9177421
000060 17 57 65 3f 85 98 61 3f fb df 5d 3f 84 25 81 3f
       0.89586014 0.8812335 0.8666989 1.0089574
000070 43 bf 7d 3f 82 57 55 3f 94 2d 82 3f 1f 85 41 3f
       0.9911997 0.8333665 1.0170159 0.7559375
000080 57 6b 82 3f 95 f6 5e 3f 3f 6e 82 3f ff 0b 73 3f
       1.0189008 0.87095004 1.0189894 0.9494018
000090 ff 6b 84 3f 05 53 47 3f a4 ce 5e 3f 60 f9 7a 3f
       1.0345458 0.7786105 0.8703406 0.98036766
0000a0 23 41 86 3f 36 ca 74 3f e6 60 49 3f fc 8a 6b 3f
       1.0488628 0.9562105 0.7866348 0.9200895
0000b0 36 22 64 3f 52 bd 76 3f 96 8d 5a 3f c2 df 86 3f
       0.891147 0.9638263 0.85372293 1.0537035
0000c0 2a 0b 5f 3f 1e 14 65 3f 1b 0d 69 3f ed 88 66 3f
       0.8712641 0.8948382 0.9103562 0.9005268
0000d0 3d 5e 87 3f b2 49 63 3f fa 5c 67 3f d5 9e 67 3f
       1.0575634 0.88784325 0.90376246 0.90476733
0000e0 7c 0b 73 3f dd ec 80 3f 98 34 61 3f 07 30 74 3f
       0.949394 1.0072285 0.87970877 0.95385784
0000f0 b1 36 56 3f 4e cf 66 3f a5 d0 53 3f 44 51 6b 3f
       0.836772 0.9016007 0.8274024 0.91920877
000100 44 92 68 3f c5 15 6e 3f 21 bb 57 3f 5c 70 65 3f
       0.90848184 0.9300197 0.8426991 0.8962457
000110 18 76 54 3f 2d d0 5c 3f 26 3c 54 3f e5 dc 5d 3f
       0.82992697 0.8625515 0.8290428 0.86665183
000120 37 93 69 3f 43 ec 5d 3f 3a 5a 62 3f 9a b7 5d 3f
       0.9124026 0.8668863 0.88418925 0.8660828
000130 17 6d 62 3f a9 89 54 3f 09 81 62 3f 53 1a 59 3f
       0.8844771 0.8302255 0.8847814 0.8480579
000140 e9 21 82 3f ea 5a 60 3f 89 b9 83 3f 52 77 5f 3f
       1.0166599 0.87638724 1.0290996 0.87291443
000150 de 05 5c 3f de 73 66 3f f2 68 5d 3f 7c 14 86 3f
       0.8594645 0.9002055 0.8648826 1.0475001
000160 24 4e 52 3f f7 85 76 3f 07 03 4a 3f 6a 72 50 3f
       0.82150483 0.96298164 0.7891087 0.8142458
000170 a1 98 83 3f 3e 1c 6c 3f 31 06 57 3f 75 a9 68 3f
       1.0280954 0.92230594 0.8399382 0.9088357
000180 6f d1 68 3f ff 39 65 3f 12 7f 67 3f 34 62 60 3f
       0.9094457 0.8954162 0.9042827 0.87649846
000190 c8 92 68 3f 41 ee 54 3f ce 4a 56 3f d3 ea 5c 3f
       0.9084897 0.83176047 0.8370789 0.86295813
0001a0 d9 d4 81 3f 85 3d 53 3f a6 d3 6f 3f 16 df 7f 3f
       1.0143081 0.82515746 0.93682325 0.9994978
0001b0 db 66 62 3f 58 25 54 3f 19 36 88 3f 7e 3a 73 3f
       0.88438195 0.8286948 1.0641509 0.95011127
0001c0 df db 62 3f a9 7f 60 3f 42 6b 7a 3f fa cf 5f 3f
       0.88616747 0.87694794 0.9781991 0.8742672
0001d0 05 e3 6e 3f 47 6f 65 3f 9b da 86 3f 60 9b 76 3f
       0.93315154 0.8962292 1.0535463 0.96330833
0001e0 6f c1 6b 3f d5 cc 5f 3f a7 e5 50 3f 5e f6 76 3f
       0.9209203 0.87421924 0.8160042 0.96469676
0001f0 17 c6 6e 3f 64 07 60 3f be 51 85 3f 3e 8d 87 3f
       0.9327101 0.8751128 1.0415571 1.0589979

bn2.bias f4 [128]
000000 65 33 8a be 5b a2 05 bf 39 3f 90 be 91 1f b2 be
       -0.26992336 -0.5220086 -0.28173235 -0.34789708
000010 62 0b c6 be 55 2b f5 be c1 12 97 be 25 03 2a be
       -0.3868056 -0.47884622 -0.29506496 -0.16602762
000020 ed b7 e1 be 6e 62 e1 be 9e 63 e8 be e8 63 2f be
       -0.44085637 -0.44020408 -0.45388502 -0.17127955
000030 4b ac a3 be 36 ea a9 be cf 84 e8 bc ec be 8f be
       -0.31967387 -0.331865 -0.02838364 -0.2807535
000040 10 1a 95 be 19 9c 5b be 57 27 fc bd e6 87 37 be
       -0.29121447 -0.21446265 -0.12312191 -0.17922935
000050 d8 d1 63 be a7 2b 45 be 9f a3 8c be fd 7e 81 be
       -0.22248018 -0.19254933 -0.27468583 -0.25292197
000060 7c 24 da be 27 75 07 bf 7d 6b a4 be fc 41 76 be
       -0.4260596 -0.52913135 -0.32113257 -0.24048609
000070 e6 3e 10 be 0c 1e d0 be 25 10 8e be de d9 1f be
       -0.14086494 -0.40647924 -0.27746692 -0.15610453
000080 da dc 76 be bc d0 02 bf 20 4f 0c be a0 aa ab be
       -0.24107686 -0.51099753 -0.13702059 -0.33528614
000090 8d 59 4e be 69 1a 6b be c8 31 f2 be ba 1b 4f be
       -0.20151348 -0.22959293 -0.47303605 -0.2022542
0000a0 fe d0 e8 bd ca b4 3a be bf 59 8d be dc 08 df be
       -0.11367987 -0.18233028 -0.27607533 -0.43561447
0000b0 f1 e7 95 be c3 e4 21 be 57 6c be be 0b 5e 13 be
       -0.2927852 -0.15809922 -0.37192032 -0.14391343
0000c0 2a 44 c1 be f8 6b 81 be 19 63 8d be 93 53 da be
       -0.37747318 -0.25277686 -0.27614668 -0.42641887
0000d0 72 58 da bd e6 2a f3 be 0d 4b ae be 75 a4 e0 be
       -0.10661401 -0.47493666 -0.34041634 -0.4387547
0000e0 7c 3e 06 be f1 2d 8f be 27 0b 85 be 67 b7 7e be
       -0.13109773 -0.27964738 -0.2598507 -0.2487465
0000f0 57 05 e6 be ef 54 a1 be bf 2e e5 be 1f 33 d6 be
       -0.4492595 -0.31510112 -0.44762227 -0.41835877
000100 16 95 60 be 5a 07 e0 be 3b d0 74 be 09 ab e5 be
       -0.21931872 -0.4375561 -0.23907559 -0.44857052
000110 76 39 0f bf 29 e8 a9 be b3 8b db be 0f d5 8f be
       -0.55947053 -0.33184937 -0.4288002 -0.28092238
000120 30 6d 11 be c7 39 b0 be 20 e4 ad be 21 2b 4f be
       -0.14201808 -0.3441908 -0.33963108 -0.20231296
000130 5d 82 10 bf 40 69 62 be 09 f1 f1 be 09 88 d8 be
       -0.5644892 -0.22110462 -0.47254208 -0.42291287
000140 62 9e 16 be ed 14 cf be c9 ee 2f be c2 cc 88 be
       -0.14708856 -0.40445653 -0.17180933 -0.26718718
000150 81 c8 17 bf fe 97 6a be 6a 1f 6a be fd bd 3e be
       -0.5929032 -0.22909543 -0.22863546 -0.18627162
000160 c0 5b 6a be bf da 8b be 31 f0 89 be c2 11 22 bf
       -0.22886562 -0.27315328 -0.26941064 -0.63308346
000170 7a 21 32 be ce c9 d9 be b1 f5 23 bf 4b 40 e9 be
       -0.17395583 -0.42536777 -0.6404677 -0.45556864
000180 20 5b cd be 5e 58 66 be 6c 83 d7 be e8 8a 77 be
       -0.40108585 -0.22494647 -0.42092454 -0.24174082
000190 80 2d db be 69 94 7f be 9e cb 44 be 69 d6 81 be
       -0.4280815 -0.24958958 -0.19218299 -0.25358894
0001a0 83 b8 9c be 09 0f b8 bd 93 2e b7 be cb 1e 43 be
       -0.3060952 -0.08987243 -0.3577772 -0.19054715
0001b0 ed 2f e7 be 30 5f e8 be b7 1b 8a bd 98 54 79 be
       -0.45153752 -0.45385122 -0.067435674 -0.24348676
0001c0 4f 26 93 be 3f 59 00 bf 34 25 bd be d8 c8 c2 be
       -0.28740165 -0.5013618 -0.36942446 -0.38043857
0001d0 a1 5a d9 be 92 3b 91 be 79 8e 3a be 9e f9 94 be
       -0.42451957 -0.2836576 -0.18218412 -0.29096693
0001e0 a6 19 d1 be a8 b5 e7 be e9 42 d4 be 5c 0a 6a be
       -0.4083988 -0.4525578 -0.41457298 -0.22855514
0001f0 71 0b 88 be 52 2d c8 be c3 e2 5e be db 2c 32 be
       -0.2657123 -0.39097077 -0.2176619 -0.17399924

bn2.running_mean f4 [128]
000000 89 9f 3b 3e 90 fb b3 be 8f 9f f6 be 69 cf 9d bd
       0.18322577 -0.35152864 -0.4816861 -0.07705576
000010 2f 51 10 bf 39 fb c6 3e 0b cb f3 be f6 78 da be
       -0.56373876 0.38863543 -0.47615847 -0.4267041
000020 64 a8 5b 3e 61 e3 fd 3e 26 b2 0e 3f a2 9f 25 bf
       0.21450955 0.4958754 0.5574058 -0.64696705
000030 a7 45 57 be e7 d8 89 be 53 b0 a2 bf 9c 05 73 3f
       -0.21022664 -0.26923296 -1.271006 0.94930434
000040 0f 4c 58 be 03 b7 52 be 2e ea 59 be ce 7e ac bf
       -0.21122764 -0.20577626 -0.21280739 -1.3476198
000050 6d ab f8 be 06 dd 31 bb ec 01 cd be 1f f4 20 bf
       -0.48568287 -0.0027139797 -0.4004053 -0.628725
000060 61 0a 5d 3f c8 be 31 be 0e d6 0a 3f 71 9c 47 bf
       0.8634396 -0.17357934 0.5423287 -0.77973086
000070 80 ed 07 bf f7 97 0d 3f f0 c5 28 bf 99 b6 06 bf
       -0.5309677 0.55310005 -0.6592703 -0.5262237
000080 00 15 37 bf da 1e 3e 3f 1a 30 07 bf 17 f7 af be
       -0.7151642 0.74265826 -0.5280777 -0.34368202
000090 52 b5 66 bf 41 84 d9 3c fe bc dc 3c 64 62 44 bf
       -0.9012042 0.026552321 0.026945587 -0.7671263
0000a0 87 a8 01 bf d3 98 68 bf 42 88 b8 be 7c 80 47 3e
       -0.5064778 -0.9085819 -0.36041456 0.19482607
0000b0 70 11 87 bf b8 a8 90 bf 08 16 a0 be 69 5e 0f bf
       -1.0552197 -1.1301489 -0.31266809 -0.56003433
0000c0 e8 62 e7 be b8 75 ab be 75 80 01 bd b8 28 50 3f
       -0.45192647 -0.3348825 -0.031616647 0.8131213
0000d0 ca 66 f0 be 3b a0 99 3c 3e 84 75 bf 63 46 8a bd
       -0.46953422 0.018753162 -0.9590491 -0.067517065
0000e0 83 a9 13 bf 3b 43 57 bf e6 00 f4 be 5a 3c 1f bf
       -0.5768053 -0.8408696 -0.47656935 -0.62201464
0000f0 2e 9d f2 bd d1 9e eb be 1b 64 98 bc aa 3c 20 bf
       -0.11846386 -0.46019605 -0.018602422 -0.62592566
000100 46 68 d7 be 44 e0 8e 3f bf f1 0d bf d2 d1 3a be
       -0.42071742 1.116219 -0.55447 -0.18244103
000110 d7 38 4e 3f 24 69 57 be 62 9c 23 be 5e 13 ff be
       0.8055548 -0.21036202 -0.15977624 -0.49819463
000120 a0 11 96 bf c2 e5 a5 be b2 3a b9 bf 9a a1 2d 3e
       -1.1724129 -0.32401854 -1.4471037 0.16956177
000130 6d c7 26 3f 8a 09 d9 be 9d 53 59 3e 76 f3 6a 3f
       0.6514805 -0.4239009 0.21223302 0.9177774
000140 15 5e 10 bf c0 4d 46 be e2 f7 34 bf eb cb de be
       -0.5639356 -0.19365597 -0.7069074 -0.43514952
000150 8f ae 4d 3d 99 f0 3b bf b8 1d 0d 3f 85 27 08 bf
       0.0502153 -0.73414 0.5512347 -0.531853
000160 7b cb a7 be 88 2b 46 bf 03 da 67 bf f9 65 31 3f
       -0.3277243 -0.77410173 -0.90567034 0.6929622
000170 d2 6b 5b bf 6b 14 1a 3f 3b a2 5e 3f c7 77 97 3f
       -0.85711396 0.60187405 0.86966294 1.1833428
000180 0f 07 2f 3e e7 bd 2c bf b7 e3 36 3f 04 9f f4 be
       0.17092536 -0.6747727 0.71441215 -0.4777757
000190 ba 18 d0 3f 03 76 06 bf 9a 58 87 bd 5e 15 b8 be
       1.6257546 -0.5252382 -0.06608696 -0.35953802
0001a0 f6 01 92 3f cc 6d 5a bf fd c5 9e 3f fc c1 78 bf
       1.1406848 -0.85323787 1.2404171 -0.97170997
0001b0 2f b2 93 3e 03 8b c6 bd 5a 40 0b bf 20 83 59 bf
       0.2884688 -0.09694483 -0.5439507 -0.84965706
0001c0 14 a0 f0 be ef 53 d2 3c 7d 8d bc 3f cb ae 30 bf
       -0.4699713 0.025674788 1.4730679 -0.6901671
0001d0 8f 51 0f 3f 27 8e d1 be 04 7b 17 bf 4f b2 6e bf
       0.55983824 -0.40928766 -0.5917208 -0.9324083
0001e0 67 8e 66 3f 06 fe 9d be 21 55 0a 3d 59 55 55 bf
       0.9006104 -0.30857867 0.03377259 -0.83333355
0001f0 bb db 3c bf 16 4e 4e be 2d ca 6b bf 50 1d 0f bf
       -0.7377278 -0.20146975 -0.9210537 -0.559041

bn2.running_var f4 [128]
000000 3a f1 6b 3f 79 f9 bd 3f 3a 4b da 3f 74 55 9c 3f
       0.9216496 1.4841758 1.7054207 1.2213578
000010 2e c0 f9 3f ac ed 36 3f 7a 84 bc 3f 68 8b 12 3f
       1.9511774 0.7145641 1.4727929 0.5724397
000020 8d e4 3b 3f 26 f7 21 3f e1 21 2c 3f f1 e2 da 3f
       0.73395616 0.63267744 0.67239195 1.7100507
000030 4c 70 aa 3f 32 e0 a1 3f ad 20 bc 3f 1e a5 48 3f
       1.331552 1.2646544 1.4697472 0.7837695
000040 c0 62 c0 3f a9 1b 3b 3f 94 24 37 40 f3 a3 38 40
       1.5030136 0.7308908 2.8616076 2.8850067
000050 57 88 e6 3f fb 99 7f 3f 9c f1 cc 3f a4 52 02 40
       1.8010358 0.9984433 1.6011233 2.036294
000060 70 37 59 3f a4 66 a7 3f 76 51 19 3f ab 38 83 40
       0.84850216 1.3078198 0.59889925 4.1006675
000070 52 f4 7d 40 e5 3d 12 3f b8 98 7e 40 af 10 f6 3e
       3.9680371 0.57125694 3.9780712 0.48059604
000080 ff 0e 76 40 c9 ac 22 3f 86 82 3a 40 0c 22 b0 3f
       3.8446653 0.635449 2.9142165 1.376039
000090 e9 1d 60 40 4a 77 c3 3e 7a b6 86 3f 4c a0 8b 40
       3.5018256 0.38176948 1.0524437 4.3633175
0000a0 d1 19 87 40 47 6a 3f 40 27 9e cb 3f 1d d6 61 3f
       4.2219014 2.9908617 1.5907639 0.88217336
0000b0 1d 39 47 40 e3 34 4d 40 b1 0d b5 3f 18 ea 83 40
       3.112861 3.206353 1.4144803 4.122326
0000c0 f6 10 ae 3f 0a 5f ee 3f 53 58 a1 3f cc 9f 43 3f
       1.3598926 1.8622754 1.260508 0.76415706
0000d0 b6 bb 15 40 0b 09 62 3f 3e 3f f1 3f 9c e2 56 3f
       2.339582 0.8829505 1.8847425 0.8393953
0000e0 4b e5 1e 40 1a f4 58 40 33 95 41 40 08 99 2d 40
       2.482745 3.3898988 3.0247314 2.7124653
0000f0 8c eb 93 3f e3 8e a9 3f db 5e 22 3f 09 1d a9 3f
       1.1556258 1.324673 0.6342599 1.3211986
000100 bd 9b fc 3f 5d 86 66 3f ba f4 3d 3f 62 ce 5e 3f
       1.9735028 0.9004877 0.7420155 0.87033665
000110 b4 7d 48 3f e4 04 3f 3f 7e 97 48 3f a8 9b 1a 40
       0.7831681 0.7461684 0.7835616 2.4157505
000120 09 e4 25 40 53 0d c1 3f dc 92 87 40 77 ab ef 3e
       2.5920432 1.5082191 4.236677 0.46810505
000130 08 48 1e 3f 80 b4 24 40 72 e0 80 3f ac 60 3c 3f
       0.6182866 2.5735168 1.0068495 0.7358501
000140 4f e0 0f 40 c5 1c f4 3f 0b 0f 5d 40 b8 c8 00 40
       2.2480657 1.907128 3.4540431 2.012251
000150 05 53 34 3f f2 fb 3b 3f 23 7d 6d 3f 81 ec 1c 40
       0.7043918 0.73431313 0.9276907 2.451935
000160 c1 e8 03 40 b5 e8 54 40 3e 9b fd 3f 8f 2d 47 3f
       2.0610812 3.3267033 1.9813001 0.7780389
000170 25 43 90 40 06 c7 0f 3f 8c 6b 18 3f 5d 43 39 3f
       4.5081964 0.5616306 0.59539104 0.72368413
000180 1a c1 5c 3f 3c 31 cf 3f 7f eb 48 3f 58 17 d5 3f
       0.8623215 1.61869 0.7848434 1.6647749
000190 2e 29 c0 3f d6 9e f9 3e c0 5a 19 3f a1 e4 14 3f
       1.5012567 0.48753995 0.599041 0.5816136
0001a0 77 99 8d 3f b1 9f c7 3f 72 34 89 3f bd d9 7d 40
       1.1062459 1.5595609 1.071913 3.9664147
0001b0 79 28 41 3f 35 d5 61 3f 53 cb 39 40 94 fa 6a 40
       0.7545238 0.88215953 2.903035 3.671544
0001c0 0b ee e5 3f e5 af 51 3f 92 6c bc 3f 90 b3 f1 3f
       1.796327 0.8190902 1.4720633 1.8882923
0001d0 38 72 0a 3f 48 35 02 40 5c 35 7c 40 98 5d 3b 40
       0.54080534 2.034502 3.9407568 2.9275875
0001e0 9c 8d 4c 3f ba 8c 7e 3f f7 99 af 3f 06 98 2c 40
       0.7990358 0.9943348 1.3718861 2.6967788
0001f0 e7 de 53 3f 7e fc 80 3f b5 17 90 40 38 ee 25 40
       0.82761997 1.0077055 4.502894 2.5926647
