improved_model/19-15_cos.ckpt (torch, 352474 bytes, 48 tensors)

layer1.weight f4 [128, 13]
00000000: 5b89 8dbc 77bb 8a3c a41e c2bd 059d 043f
00000010: e960 1ebe 0e5a 893d eedc 06bc 6726 9ebe
00000020: 1642 c53d 3d6a 19bd 8291 133e d092 54be
00000030: ae3d 39be 60e3 943d 48d1 dcbd b4ed f63b
00000040: 1248 5b3e 6a08 fd3d 7f1e 1abd ae81 12ba
00000050: bf52 81bd 509d fbbd 4c3d 16bd 66ab ccbe
00000060: 8180 a93e fb10 2dbe ce2b cbbe 2fdd 3d3d
00000070: 4487 b8bc e6a1 523e dc9b 84bd fc2e ec3c
00000080: 0d44 36bc 7d80 0a3e 38e6 6fbe 9dec ffbc
00000090: 4aae 02bf 4f15 b33e 60b0 1abc 6ffd f8be
000000a0: 0c49 243d aa0e 8e3c 71cc a43d 1088 5b3e
000000b0: dcc8 8b3d 956c 953c f597 b43d cbe4 09be
000000c0: 34f1 5abd 7697 27bf 5529 613e b1bc 9fbc
000000d0: c673 27bf 3166 39bd 1376 34bb f01f ff3d
000000e0: fdd1 0bbe 4f8e c5bc 29c1 bc3c 7e82 ee3d
000000f0: 2be6 a2bd 119b 993c 1f8b ffbe 3de2 9f3d
00000100: 9ad9 00bd 7ecb 05bf feea a4ba a702 873c
00000110: 5c9e 953d e1ca d0bc 36bd be3c f935 413c
00000120: cef5 4c3e 0eb0 51be e5d9 28bd b64e bcbe
00000130: dbc6 bb3e 4aa1 acbd fe73 553e 59da 4d3d
00000140: 4fa0 0b3b 81ec 62be 5b8f cc3e 7ead ca3d
00000150: beb0 723a 7ba6 1abf c7d6 693e 9eb6 833b
00000160: e6a5 35be da68 74bd d2d2 4bbc 5fa4 323f
00000170: 85c3 e4bc c607 2e3e 89b4 0bbe c44e 883e
00000180: 0ccf fdbc 26f9 9d3d b4ef 2abd fc43 63bd
00000190: 1528 223b bb6b d83e 96f2 a0bd 58c3 023e
000001a0: d4a1 4ebf e489 973d 4dfc ee3d a633 20bd
000001b0: 6f3f 7f3d 5335 ae3d 36f3 073d a4fe eb3d
000001c0: 46d4 623d 74ff a3bb 2f30 acbe aa68 b93c
000001d0: 3ef8 b53b 8aab 3bbf bc6e b53b 5b4b 9a38
000001e0: 2215 6ebc 6bc3 583e 4f1b 563c da0c 9abc
000001f0: c849 843d 8bc2 8f3d 1343 19bc 0a91 39bf
00000200: 5145 91bd 2a75 733c f387 3ebf 7734 07bd
00000210: 12a7 81bd b0f9 8a3d 30a2 53be cc00 eb3d
00000220: 15c6 91bc 5163 9dbc d9d5 86be 99a7 8b3b
00000230: c9ab ffbe ce2f aebd 5411 dcbd 5c12 88be
00000240: d02a 32bd eaae 03bd e1fe 573e 6162 71be
00000250: 4142 e7bd 1835 0b3a f4c2 a23d 8b5f 3a3e
00000260: a3e0 b8bc e842 68bf da8d 0dbe fee1 babd
00000270: b662 3dbf 07c2 8e3d 1109 23bd 0133 a73d
00000280: 7518 73be 9ac8 d5bb 05c8 20bd b763 4e3d
00000290: 646c 01be 0670 babb a749 8abe 4fd9 5a3e
000002a0: 4e09 ee3d 83db 073e 2919 0dbb 7ba1 0f3c
000002b0: c907 183d 70a0 533e a4fa 8cbc 035e 983c
000002c0: 28e2 0f3c 3356 d9bd f8f4 d03c f36d 0dbf
000002d0: 0e29 873e c4a4 d1bd 8982 4dbf 9f30 ed3d
000002e0: e629 313d bdf9 e93d a3db 41be 6ca5 cd3d
000002f0: 3b6b c5bb fda3 153e 5a70 72be 2957 303b
00000300: ebc6 f6be f990 5b3d ed0e f33c 803d ae3e
00000310: 01d0 133e 2769 983d 9f6b ce3a 6ba7 1dbd
00000320: 6cac b13b 594a 973d dde3 70be 99b5 303e
00000330: e969 04bc f8db 823e fe55 8dbe 17f6 04be
00000340: 42b8 e0be 4e6f d03d 910d fb3c 0e51 cf3e
00000350: 80a6 fabe a0c0 853d a35b 733c a0d5 b83d
00000360: 8e17 293b 9a8c 3f3c 0625 4d3d eb91 d2bb
00000370: 660f 78be fc7c 29be be76 233c 3d16 b23c
00000380: cfc2 a33d bdcc 333e d0aa a33b faa1 4e3c
00000390: 51f7 403c b1d5 8a3e 0bee 9ebc e21c 1cbf
000003a0: 774c 21be 2728 51be 0de4 4a3e 883b 6b3d
000003b0: 0d55 c03d 078f 46be 98b7 5d3e d214 483d
000003c0: e463 ab3c 51f4 3abc 5645 9cbd e0eb 7c3e
000003d0: e039 923e d079 693d 6573 d3be 4624 eb3e
000003e0: 3185 403d e8ed 753e 29f7 d13d 866e 713e
000003f0: c925 f03d 8960 b2bd 17f1 80be 3fcd a63d
-0.01727741 0.016935093 -0.094785005 0.5180209 -0.15466656 0.0670663 -0.008231385 -0.30888674
0.096317455 -0.037454832 0.14410976 -0.2075913 -0.18089935 0.07269931 -0.10782105 0.0075356606
0.21414211 0.123551205 -0.03762674 -0.0005588782 -0.06314611 -0.12285864 -0.03667955 -0.39974517
0.33105853 -0.16901009 -0.39681858 0.046353515 -0.022525437 0.20569572 -0.0647504 0.028830998
-0.011124623 0.13525577 -0.23427665 -0.031240756 -0.51047194 0.34977195 -0.009441465 -0.48630854
0.040108725 0.017340977 0.080468066 0.21438622 0.0682542 0.018240253 0.08818046 -0.13466184
-0.053452685 -0.65465486 0.21988423 -0.019499155 -0.6541103 -0.045263473 -0.0027536198 0.124572635
-0.13654323 -0.02411571 0.023041325 0.11645983 -0.07954057 0.0187507 -0.49910828 0.078068234
-0.03145752 -0.5226363 -0.001258224 0.016480757 0.07305595 -0.025487365 0.023283582 0.011792653
0.20015642 -0.20477316 -0.041223425 -0.36778802 0.36675152 -0.08429201 0.20845029 0.05025706
0.0021305268 -0.22160532 0.39953122 0.09896372 0.0009257904 -0.6041028 0.22835837 0.0040195724
-0.17739066 -0.059670307 -0.0124404 0.6978206 -0.027925262 0.16995153 -0.13643087 0.26622593
-0.030982517 0.07713537 -0.041732505 -0.055484757 0.002474313 0.42269692 -0.078587696 0.1276983
-0.8071568 0.073993474 0.11669216 -0.039111756 0.062316354 0.085062645 0.03319093 0.11523178
0.05537822 -0.0050048176 -0.3363051 0.022632916 0.0055532744 -0.7330862 0.005536882 7.357328e-05
-0.014531406 0.21168296 0.013068034 -0.018804956 0.06459385 0.07019528 -0.009354371 -0.7248694
-0.07093299 0.014859477 -0.7442619 -0.03300902 -0.06330694 0.06785905 -0.20667338 0.11474761
-0.017794648 -0.019212397 -0.26335028 0.0042619226 -0.4993575 -0.08505212 -0.107454926 -0.26576507
-0.04349786 -0.032149233 0.21093322 -0.23572685 -0.11291934 0.0005310341 0.079473406 0.18200509
-0.022568053 -0.9072709 -0.13823643 -0.09125136 -0.73978746 0.069706015 -0.03980357 0.08164025
-0.23739798 -0.0065241577 -0.039253253 0.050388064 -0.12639004 -0.0056896238 -0.27009317 0.21371959
0.116228685 0.13267331 -0.002152989 0.008766527 0.0371168 0.20666671 -0.017209359 0.018599516
0.008781947 -0.10612144 0.025507435 -0.55245894 0.2639851 -0.10236505 -0.80277306 0.11581539
0.043252848 0.11424587 -0.18931441 0.10041317 -0.0060247458 0.14613338 -0.23675671 0.002690742
-0.48198637 0.053605054 0.029670203 0.34031296 0.14434816 0.07441931 0.0015748626 -0.03848974
0.0054221656 0.073872276 -0.23524423 0.17256774 -0.008081892 0.25558448 -0.2760467 -0.12984501
-0.43890578 0.1017748 0.030646117 0.40491527 -0.48955154 0.06530881 0.014853391 0.09025121
0.0025801393 0.011691237 0.050084136 -0.006426086 -0.24224624 -0.16551584 0.009977041 0.02173912
0.07996141 0.1755857 0.0049947277 0.01261186 0.011777715 0.2711616 -0.019400617 -0.6098157
-0.15751825 -0.20425473 0.19813557 0.05742982 0.09391222 -0.19390498 0.21652067 0.04884798
0.020921655 -0.011410789 -0.07630412 0.24699354 0.2855978 0.057000935 -0.41298977 0.45926112
0.04700202 0.24016535 0.1025222 0.23577318 0.11725957 -0.08709819 -0.25183937 0.08144616

layer1.bias f4 [128]
00000000: 2a35 2eb3 f068 3bb5 86a5 d331 b8c3 28b2
00000010: 5850 43b4 5812 8532 00bc 5034 e85a 11b5
00000020: b5b1 8a34 837b 9cb3 5094 bdb4 723d 1bb4
00000030: 9c71 fa2f 7c7d 1f35 1f74 1533 8afa 0937
00000040: 8802 e0b5 12a4 e331 d2c0 8733 b4f8 9ab2
00000050: f8e5 e6b4 30c3 eab4 ea69 07b3 6c8a efb2
00000060: d021 a62e aecb 37b5 900f 0d34 4c60 beb3
00000070: 2853 7d32 acb4 9f2e 69f1 67b2 f7ab dc36
00000080: 42a6 8fb1 906b 2db2 8090 e0b2 feb4 5f33
00000090: 5f19 1bb3 6ffc 7635 e4a5 8635 b15b 9a31
000000a0: 8022 76b1 c895 24b2 54cd 8d36 8cf1 b0b3
000000b0: 18f2 deb4 8f7e bb37 a000 6f32 67ce a135
000000c0: 7845 a7b3 e823 3833 480c 05b3 bcdd c531
000000d0: a8ca 9932 d005 2b34 dd52 8935 3ccc eab2
000000e0: c0f9 8f34 bc58 f3b1 0055 0432 4072 b5b0
000000f0: 405c b334 005e a835 77d6 26b4 e4e9 26b2
00000100: 5cc6 8b32 7c2e 6431 8ca8 cab3 f375 05b5
00000110: e098 67b4 f0f8 44b5 0793 4236 7140 7d37
00000120: 3072 8930 e14a a333 3b07 8235 b05f 17b3
00000130: 1ee4 65b2 49d6 80b5 2045 05b4 504a 81b4
00000140: 82ec b733 780a 20b5 2057 4b32 6819 3834
00000150: 0029 2a34 e0ac 3cb1 2ce2 8034 5844 0db1
00000160: 60c4 6eb2 204b 6431 a889 5136 4c7f b7b3
00000170: dd54 8436 02e3 8931 5233 0eb6 8005 1831
00000180: 5656 ab33 1c4d 9734 e06c 8bb2 e549 99b4
00000190: 98b6 10b1 b56b fcb5 0833 1a35 20f3 f0b1
000001a0: b287 1834 3c37 3bb5 38a7 0c32 208f d331
000001b0: 0c6a 24b5 e49f 7fb5 5051 ff32 4c94 0e32
000001c0: 8054 5034 5fc6 b631 8020 ab34 86dd 39b6
000001d0: f87a 15b1 2845 10b1 432b 9e31 0cc5 b7b3
000001e0: 9627 1337 851a 89b6 e838 8bb1 ac16 7236
000001f0: e340 eeaf 5c3d 06b3 ade2 c134 284e b0b4
-4.0560884e-08 -6.981563e-07 6.159726e-09 -9.823388e-09 -1.8190019e-07 1.549158e-08 1.9439904e-07 -5.4148995e-07
2.5833802e-07 -7.286783e-08 -3.5311905e-07 -1.4457854e-07 4.555546e-10 5.941472e-07 3.4797377e-08 8.2241695e-06
-1.6690037e-06 6.625222e-09 6.321501e-08 -1.8041057e-08 -4.3008163e-07 -4.3727914e-07 -3.1528465e-08 -2.7886209e-08
7.554812e-11 -6.8469205e-07 1.313731e-07 -8.865081e-08 1.4745446e-08 7.2625767e-11 -1.350086e-08 6.5765303e-06
-4.180749e-09 -1.0094382e-08 -2.6142743e-08 5.2085845e-08 -3.6111825e-08 9.200948e-07 1.0032059e-06 4.492414e-09
-3.5817322e-09 -9.580113e-09 4.226031e-06 -8.239576e-08 -4.152687e-07 2.235107e-05 1.3911773e-08 1.2055506e-06
-7.78918e-08 4.2873495e-08 -3.0977645e-08 5.758663e-09 1.7903702e-08 1.592773e-07 1.0231412e-06 -2.733406e-08
2.6817543e-07 -7.0823187e-09 7.702738e-09 -1.3201955e-09 3.340847e-07 1.2544333e-06 -1.5537977e-07 -9.715652e-09
1.6271933e-08 3.320479e-09 -9.4370165e-08 -4.9718e-07 -2.1569167e-07 -7.337794e-07 2.8993834e-06 1.5094979e-05
1.0000516e-09 7.6038994e-08 9.687859e-07 -3.5244454e-08 -1.3381422e-08 -9.599108e-07 -1.2411738e-07 -2.4082192e-07
8.564622e-08 -5.961988e-07 1.1835965e-08 1.7145578e-07 1.58474e-07 -2.7455869e-09 2.400642e-07 -2.055705e-09
-1.3898074e-08 3.322107e-09 3.1223553e-06 -8.544757e-08 3.943786e-06 4.0130326e-09 -2.1189521e-06 2.2122038e-09
7.9785124e-08 2.8182046e-07 -1.623124e-08 -2.8552236e-07 -2.105855e-09 -1.880681e-06 5.744373e-07 -7.0125594e-09
1.4205469e-07 -6.9743305e-07 8.187094e-09 6.1571797e-09 -6.124908e-07 -9.5227574e-07 2.9722884e-08 8.299207e-09
1.940225e-07 5.3194493e-09 3.187488e-07 -2.7696092e-06 -2.1752253e-09 -2.0994069e-09 4.6033235e-09 -8.557444e-08
8.7711e-06 -4.0860054e-06 -4.051902e-09 3.6074007e-06 -4.3338053e-10 -3.1255112e-08 3.611398e-07 -3.283942e-07

bn1.weight f4 [128]
00000000: 40d7 3c3f 19a5 433f 46d0 463f ad5f 4d3f
00000010: 2886 543f 6635 4b3f a835 393f 481c 7a3f
00000020: 0535 593f 6d05 4f3f 4b6c 583f 9d71 453f
00000030: 77ef 533f b841 5f3f f8da 553f eec2 7c3f
00000040: 09da 4b3f 5420 4d3f 081f 4a3f 1bf4 343f
00000050: e404 523f 043e 803f fc4e 473f bae4 8a3f
00000060: 1035 4d3f f462 573f 1a6f 613f 0d57 293f
00000070: 315b 5f3f e5fc 423f 2cd9 463f cca6 103f
00000080: 5973 353f b492 5d3f 0a52 5e3f c7f7 443f
00000090: 24fb 443f 9c74 4d3f 0f6b 6f3f cc85 373f
000000a0: c396 523f 8068 4f3f 091a 863f c8aa 3b3f
000000b0: 56d8 6c3f 4f06 803f 9cf7 533f eaad 533f
000000c0: 4cf5 6b3f 5913 453f 8447 3f3f a620 513f
000000d0: 3bc7 5f3f 34a3 763f c525 573f 357a 463f
000000e0: d39a 4d3f 3611 473f 4c62 4a3f 14af 663f
000000f0: 32c2 553f 0483 4f3f 1a4b 5e3f 7a37 563f
00000100: ae5f 6d3f 28fa 2b3f bd15 493f bb46 3a3f
00000110: ac72 473f c2f2 693f 250d 6e3f 0d97 4e3f
00000120: 0ce6 3a3f 5888 583f bf13 583f 93c5 5e3f
00000130: 12df 343f c27f 5e3f 73e1 1f3f 4bcd 583f
00000140: 429a 2f3f 6550 833f b3ac 3e3f 0f8e 473f
00000150: 47aa 503f c7a9 313f e7fb 223f 7d6d 323f
00000160: 28a3 3a3f 9a72 5b3f bcfd 1a3f 36e4 783f
00000170: 8abd 5e3f 0f1f 6a3f 28f2 633f 7476 5e3f
00000180: 706c 383f 59c4 673f 72f8 4b3f 4e05 4c3f
00000190: 1f6c 4d3f e6b5 413f 065e 613f 8dd7 373f
000001a0: 07a7 343f cd26 443f c5d2 533f c4a3 343f
000001b0: b18d 553f f205 3a3f 1d47 4d3f 6a8d 2e3f
000001c0: 7ef3 503f a431 4d3f 3fa4 5d3f 768d 4c3f
000001d0: 55b8 643f b2de 4a3f 01ee 4d3f dfb4 563f
000001e0: 4891 663f 3603 363f 6b71 443f f708 473f
000001f0: 7ecb 803f 33b6 553f 8ed9 4a3f 58a2 5e3f
0.73765945 0.76423794 0.7766155 0.80224115 0.83017206 0.79378355 0.723475 0.97699404
0.84846526 0.80867654 0.8454024 0.77126485 0.8278727 0.87209654 0.83537245 0.9873494
0.7962957 0.80127454 0.789536 0.70684975 0.8203871 1.0018926 0.77854896 1.0851052
0.8015909 0.84135365 0.8806015 0.66148454 0.8724852 0.76167136 0.7767513 0.5650451
0.7087913 0.86551976 0.8684393 0.7694058 0.7694571 0.80256057 0.93522733 0.7168853
0.82261294 0.8101883 1.0476695 0.73307467 0.925176 1.0001925 0.82799697 0.82687247
0.9217117 0.7698265 0.747185 0.8169044 0.87413377 0.9634278 0.84042007 0.77530223
0.8031437 0.77760637 0.7905624 0.901109 0.83499444 0.8105929 0.86833346 0.836784
0.9272412 0.67178583 0.78548795 0.72764176 0.7790935 0.91386044 0.92988807 0.80699235
0.73007274 0.84583044 0.8440513 0.87020224 0.7065288 0.8691369 0.62453383 0.8468825
0.68594754 1.025891 0.7448227 0.7795114 0.8150982 0.69399685 0.6366562 0.69698316
0.72905207 0.85721743 0.6054342 0.9722322 0.87007964 0.9145364 0.89041376 0.86899495
0.7204046 0.9053398 0.7967597 0.79695594 0.80243105 0.7566818 0.88034093 0.7181328
0.70567364 0.76621705 0.82743484 0.70562387 0.8341933 0.7266532 0.80186635 0.6818453
0.8162154 0.8015387 0.86578745 0.7990335 0.8934377 0.79246056 0.8044129 0.8386974
0.9006543 0.7109865 0.7673556 0.77748054 1.0062101 0.8348114 0.7923821 0.86966467

bn1.bias f4 [128]
00000000: 628f 5abe 69c7 63be cfc2 ebbe e021 1dbf
00000010: ce66 1bbf 84fc 49bf ef1a efbe b130 903e
00000020: 2c84 0abf 892a 5cbf 1f89 c7be 8477 0ebf
00000030: b6a4 30bf b8a0 2ebf 1142 2cbf ef86 dfbd
00000040: 8810 c9be 963e 28bf 5c0f f9bd b297 86be
00000050: 28a3 a7be 988b d2be 198e fcbe 9d72 02bf
00000060: a712 02bf 1f28 5bbe 900e 1ebf 02c6 a6be
00000070: 5fd7 f2be e33d 46bf 3bce c13d 60cf 57be
00000080: 5f50 8fbe cd8e 18bf 9042 16bf fffa 37be
00000090: 7830 00bf 39ca 04bf 720d d3be 146a 0ebe
000000a0: deff bfbd 1883 01bf a673 10bf b929 d8be
000000b0: ff6c ca3d ebfd d3be ba2a 36bf 55a0 a2be
000000c0: 4cea 133e 5d51 bbbe 1b12 aebe 0f68 d0be
000000d0: d9a7 58be d06f 12bf a9ec e0be 23c6 38bf
000000e0: 821a d8be ff68 adbe 4ec5 58bf b3d1 71be
000000f0: a232 18bf 7b5b 29be f6b3 bbbe 36d3 fcbe
00000100: 1ddb e7be 518d b1be a797 a7be c843 e7be
00000110: f487 18bf a245 5bbe 02ab a6be 17fb e8bd
00000120: 97b8 18be d14b 56bf 0b2b 3abf 1b02 c9bd
00000130: f512 1fbe 401f cdbe 6b86 a9be 582b 20bf
00000140: 7b55 56be 9762 d7be 97ce b0be 88b1 04bf
00000150: 1f1c cdbe 6ecc 53be 5b9d 63be b76e 9fbe
00000160: dd48 9abe 6986 2bbe 1d4e 6dbe 9266 763e
00000170: 7b61 723d 4d26 8ebd fcc6 ddbc bef1 05bf
00000180: 7dec 7bbe 8056 0ebe c357 3dbf ca49 aabe
00000190: 53b0 9ebe 5667 07bf a936 30be 361e 95be
000001a0: bbf7 24be 3626 a7be e581 48bf 35b6 e7bd
000001b0: 7f82 edbe c476 bc3d d839 71be 778e 67be
000001c0: 7f55 19be da81 72be 0ac3 c2be e03c abbe
000001d0: 5794 e8be cebc 81be acc3 22bf e183 61be
000001e0: 7cb6 88be e1f2 1cbe 2a71 b1be 2ede bdbe
000001f0: 90a9 353e b2cc f1be dce7 2fbe 12af 1ebe
-0.21343759 -0.22244038 -0.46047065 -0.61379814 -0.6070374 -0.78900933 -0.46700236 0.2816215
-0.5410793 -0.86002403 -0.38971803 -0.55651116 -0.6900133 -0.6821399 -0.6728831 -0.109144084
-0.39270425 -0.657205 -0.12161133 -0.2628761 -0.32741666 -0.41122127 -0.49327162 -0.50956136
-0.5080971 -0.21402024 -0.6174097 -0.32572943 -0.4742994 -0.7743818 0.094631635 -0.21075201
-0.27991006 -0.59592897 -0.58695316 -0.17966841 -0.5007396 -0.5187107 -0.41221195 -0.13907653
-0.09374975 -0.5059066 -0.56426466 -0.42219332 0.098840706 -0.41404662 -0.71158946 -0.3176295
0.14444846 -0.36585513 -0.33998188 -0.4070439 -0.21157779 -0.5720186 -0.43930557 -0.7217733
-0.42207724 -0.33869168 -0.84676063 -0.2361515 -0.5945226 -0.16538803 -0.36660737 -0.4937989
-0.45284358 -0.34678128 -0.3273289 -0.451689 -0.5958245 -0.21413282 -0.32552344 -0.113760166
-0.14914165 -0.83709437 -0.7272193 -0.09814855 -0.15534575 -0.40062904 -0.33110365 -0.6256614
-0.20931046 -0.42067406 -0.34532616 -0.5183339 -0.40060517 -0.20683452 -0.22227995 -0.31139156
-0.30133715 -0.16750492 -0.23174329 0.24062565 0.059174996 -0.06940899 -0.027072422 -0.52321994
-0.24601932 -0.13900185 -0.7396204 -0.33259422 -0.309939 -0.52892053 -0.17208351 -0.29124612
-0.16110127 -0.3264634 -0.78323203 -0.1131405 -0.46388623 0.0920234 -0.23557222 -0.2261294
-0.1497402 -0.23682347 -0.38039428 -0.3344488 -0.45425674 -0.2533936 -0.6357982 -0.22022964
-0.26701725 -0.15327026 -0.3465665 -0.37083572 0.17740464 -0.47226483 -0.17178291 -0.15496472

bn1.running_mean f4 [128]
00000000: 76d7 073c 4004 b23b 0418 4bbb 6aeb 34bc
00000010: 09ca 1dbc 2249 36bb 25f2 55bc 247f 0a3c
00000020: 1d63 4fbc b113 9fbc da3f b1bc 6a04 33bc
00000030: 1a58 0cbc 6649 41bb 0e3c 88bc 3871 36ba
00000040: be44 d33b fedc 02bc b85a e03a a2d3 153c
00000050: 0fbf 89bc cd6d 8dbc ccd0 f9bb c933 0a3c
00000060: 2de7 11bc 589c 773a 5798 f4bb 14b2 2bbb
00000070: 5246 05bc 1813 e9ba 3744 413b 80a6 263c
00000080: 60b9 bd3c b590 6cbc 32d6 10bc 8c27 c03c
00000090: dcbc 39bc 3aec 05bc 82bf a5bc 53bc 253c
000000a0: 808f 2bbc 70d6 f139 c0af d2b9 0e04 073c
000000b0: 0aea 253c 9e1e bdbc 974f a3bc 72c0 2e3c
000000c0: 5e8d ee3b c337 753b d84f f8ba 5dc0 11bc
000000d0: f042 493c 8af3 15bc e031 40ba 7efe 83bb
000000e0: 3870 de3b c093 883b f7bb 8fbc 69c1 ae3b
000000f0: 1e3f 0dbb 2852 cc3c b843 523c c836 7c3a
00000100: 84c0 0fbb 2d63 153c f0cd 6a3b cd6a 44bc
00000110: 0906 11bc 3c09 c0bb 34cd f9bb 5083 6f3b
00000120: e685 c03c 768c 3ebc d3d9 65bc 55d1 85bb
00000130: 7fac 35bc ec54 57bb 1955 0c3c 64cb 4bba
00000140: 3ecf 00bc 6730 83bc b8e5 5b3c 1848 41bb
00000150: 5b0f 743b d8dd 1d3c db31 6f3c 0676 323b
00000160: 4347 863c c65e 1d3c c1d2 c13b cab0 7b3b
00000170: 28e3 e93b a815 53ba d023 34ba d400 ba3a
00000180: 90fb 0839 2e60 ce3b 5ebe aabc b8e3 a63a
00000190: 1c9c cabc de16 55bc 7aa3 243b bde3 2c3c
000001a0: ad67 1f3c 682a 993a f1f7 99bc bd45 833b
000001b0: 42ab e1bb 1a2c 47bb 00fd 56b9 0f40 163c
000001c0: 922f f3bb 6b47 a83c 0adc 6eba f8e7 763a
000001d0: ab98 98bc ce64 943c d00a 1abb 4c1c 893c
000001e0: b284 4f3c 84b5 133c c058 93b9 7452 eb3a
000001f0: f015 173a 842e 07bc 8c34 c03b 5043 20ba
0.008291116 0.0054326355 -0.0030989656 -0.011042455 -0.0096306885 -0.0027814587 -0.01305822 0.008453164
-0.012657908 -0.01941857 -0.021636892 -0.010926345 -0.008565927 -0.0029493212 -0.016630199 -0.000695962
0.0064474037 -0.007987259 0.001711688 0.0091446955 -0.016814737 -0.017264271 -0.0076237675 0.008435198
-0.008905214 0.0009445599 -0.0074644494 -0.0026198672 -0.008134441 -0.001778218 0.0029490122 0.010171533
0.023159683 -0.014438798 -0.008840131 0.023456357 -0.0113365315 -0.008173997 -0.02023292 0.010115701
-0.010471225 0.0004612687 -0.00040185265 0.008240713 0.0101266 -0.023085888 -0.019935412 0.010666
0.007280036 0.003741727 -0.0018944694 -0.008895961 0.012284026 -0.0091523025 -0.00073316507 -0.0040281406
0.00678828 0.004168004 -0.017545683 0.005333115 -0.0021552513 0.024941519 0.012833528 0.00096212
-0.0021934817 0.009117884 0.0035828315 -0.011988354 -0.008851537 -0.005860476 -0.007623339 0.0036546774
0.023501348 -0.011630168 -0.014028984 -0.004083792 -0.01108849 -0.0032857014 0.008565211 -0.0007774143
-0.00786191 -0.016014291 0.013421468 -0.0029492434 0.0037240598 0.009635411 0.014599289 0.0027230992
0.016391402 0.009605115 0.0059150164 0.0038404935 0.007137675 -0.0008052238 -0.00068717916 0.0014190921
0.00013063685 0.0062980866 -0.020842727 0.001273266 -0.024732642 -0.01300594 0.0025121854 0.010552344
0.009729308 0.0011685612 -0.018794985 0.004006116 -0.0068868706 -0.0030391277 -0.0002050288 0.009170546
-0.0074214423 0.020541867 -0.0009111768 0.00094187213 -0.018627485 0.018114474 -0.002350498 0.016737126
0.012665914 0.009015445 -0.0002810415 0.001795365 0.0005763462 -0.008250836 0.005865639 -0.0006113546

bn1.running_var f4 [128]
00000000: 01a3 733e 43d9 bd3d e97b 0d3f e406 293f
00000010: aff5 943f 1fd1 183f cebf 8e3e be6b ce3f
00000020: afd9 893f ff86 b23f 92ab de3f 725a b73f
00000030: c12e a73f b452 9f3d 6ac2 bb3f b34e 603e
00000040: 4f60 d23e 8382 ba3e 2dbe 0f3f b2ce c13e
00000050: 2042 bf3f a8ea 443f 7bf5 f93f 3511 df3e
00000060: 4a8b 1a3f c44e 033f d5eb 7b3e 3a7d 593e
00000070: a1ec 143f ea06 203f 1ab7 b23e b3f8 b53e
00000080: c17a 0d3f e0d6 943f ce5b 473f 384f 303f
00000090: fab6 db3f 2f23 d53f ef8c c43f f755 323f
000000a0: f97b 8f3e f836 ca3e cacc 943e d5ca ac3e
000000b0: bace c43f 4c58 f13f d7af 0340 c8ca be3e
000000c0: 0e2e cb3f a7b7 603e 7b86 093f 60a7 003f
000000d0: 2a17 cd3e 7b2a 273e de2b 0c3f 1931 813f
000000e0: b5da ee3d 3e53 003f 4c67 0240 6d98 5b3e
000000f0: cf49 693f 696f 703f 95ac 9a3e f995 1f3f
00000100: 61fe be3e 8593 083f 0a0a e73e 9b8b 563e
00000110: a133 b03f 26ce ea3d a2a2 933d 1092 d43e
00000120: a66c 163f 9fd5 a23e 491b 693f f209 5c3e
00000130: 4716 503e 36a9 a03f d476 d23e fea7 a83e
00000140: eafa 4e3f b803 343f 53ca 943e a6d0 b23f
00000150: 9ad2 203f b4d5 013f f98b a43e 0277 ef3e
00000160: 99da ce3e 2f33 c23e 4dfc 473e fdfc 5c3f
00000170: 5c68 163f 0e10 c83e 9a30 b03e f70f 993e
00000180: afcc 7f3e bcd8 9e3f 1ee1 ed3e 8044 6d3e
00000190: 2e3c 0740 869d 1e40 2657 ea3e d7f0 d83e
000001a0: e451 823e 5d2f 913e 775d d13f 9b57 c53e
000001b0: 3cc6 8f3f 51c5 573e 7472 113f 7d79 833e
000001c0: b19f a13e 7ff2 053f 895d 273e c627 903f
000001d0: bef5 8b3f b6bc ab3e a068 073f 7c7c f73e
000001e0: cf65 c33e c73f b03e 01ed bc3e e502 263e
000001f0: 88c1 8d3f 7479 3e3f 5477 d73e c8d7 b83e
0.2379265 0.09269955 0.55267197 0.6602614 1.1637477 0.59694093 0.2788071 1.612663
1.0769557 1.3947448 1.7396109 1.4324477 1.3061143 0.07779446 1.4668705 0.21905021
0.41089103 0.36427698 0.5614956 0.37853009 1.4942055 0.7692056 1.952804 0.43567815
0.6036879 0.5129206 0.24601682 0.21239176 0.5817357 0.6251055 0.3490532 0.35541305
0.5526543 1.1628075 0.7787446 0.6887088 1.7165215 1.6651362 1.535551 0.6966242
0.2802427 0.39495063 0.29062492 0.337485 1.5375588 1.8855071 2.0576074 0.37264085
1.587343 0.21945058 0.53720826 0.50255394 0.40056735 0.16324799 0.54754436 1.0093108
0.11662809 0.5012702 2.0375547 0.21444865 0.9112825 0.9392 0.30209795 0.62338215
0.3730345 0.53350097 0.45124847 0.20951693 1.3765756 0.11465101 0.07208754 0.41517687
0.58759534 0.31803605 0.9105726 0.21488169 0.20320998 1.2551639 0.41106284 0.32940668
0.80851614 0.70318174 0.2906061 1.3969924 0.6282135 0.5071671 0.3213804 0.46770483
0.40401152 0.37929675 0.19529839 0.8632353 0.5875299 0.3907475 0.3441208 0.29894993
0.24980424 1.2409892 0.46460813 0.23170662 2.113048 2.4783645 0.45769614 0.42371246
0.25453103 0.28356448 1.6356648 0.385434 1.1232371 0.21071364 0.56815267 0.25678626
0.31567147 0.52323145 0.16344275 1.1262138 1.093437 0.33542413 0.5289402 0.48337162
0.3816361 0.34423658 0.3689957 0.16212042 1.1074686 0.7440407 0.42083228 0.36102128

layer2.weight f4 [128, 128]
00000000: 4cc1 293e 1d5a 283e d54d 173d 6a94 383e
00000010: 79f2 db3d a9b0 683e 6668 893c 09fe c43d
00000020: b287 39bd 878e a13e f120 ee3d 9823 173d
00000030: 7fce 493c e6db c03b a240 2bbd 78e5 a93d
00000040: fef2 413e a7ae a13e e89f 033d 08aa 0c3e
00000050: e40a dc3d f415 4f3d 0832 c63c 97ae 7cbd
00000060: 61d7 c9bc 7862 d8bc 2717 de3c 26bb e73d
00000070: fdbb 963d 5efb 863d 880a d5bc 3da3 d2bc
00000080: 96ac be3c 7617 dd3d 2f99 603c 10dd 043e
00000090: 586f 80bd 1b4c fc3d b544 83bc 9824 d5bc
000000a0: 4d17 bcbd 697a 933d cbfe 2fbd 8b00 9ebd
000000b0: 35cd 603d 4c5c 283e 026e e63c 2faf 8abc
000000c0: fca0 f53c 63cc 65bd 9b8c 4a3e 8eca d2bc
000000d0: d29f 033e 2fb1 7d3d a2af 63bc 2eb9 593d
000000e0: f8a3 a7bc 9d1b 983d bfa9 a43e ae80 ca3d
000000f0: f6ff 0d3e 0ca9 1e3e a808 0a3e b033 1a3d
00000100: 1815 15bd 4b57 aebd c3ad e03d f5d4 153e
00000110: d760 b6bc 3612 fb3d 92f7 113d a7d1 1a3e
00000120: 776e 45bd 682e 603e 36fb 2b3e 5022 13be
00000130: c58e 9cbd d60e 803d 9ebf ca3d 87ea 11be
00000140: 136b 3bbd b248 b33d 0b80 e63c b5fc fe3d
00000150: fbe8 b63d b00b 52bc e212 423d 4af8 d5bd
00000160: a1d1 913d cf00 023e d884 5dbd dadf 50bd
00000170: e292 c33c f794 183e 51b0 0f3d be3c 843d
00000180: c194 eabc 9d75 503d 5fe0 1cbd cfec b2bd
00000190: 4b91 0d3e c435 803e 61d7 003e d588 9abd
000001a0: 18c4 c7bd 7486 2ebd 521c 243e b0f2 0ebc
000001b0: 3b04 f33c ce9a 283c 9f12 df3d aa31 aa3d
000001c0: a7cf f63c 9bc8 183e bf7e 1a3e ddfb 2ebd
000001d0: b9e5 9d3c 8331 0e3e 6ed5 c13d c87f 09be
000001e0: fcdf 17bd 3b3f 10bd 8942 843e c60a c5bd
000001f0: 7779 643e b09f 4e3d 9eb2 9e3d 8291 733d
00000200: 22d4 fabd 246a 72be 1eb5 31be f6b3 51bd
00000210: 3b35 55be b881 71be 7cbd e03c eca5 383e
00000220: c12c 43bc a025 e8be 825b 33be 0d2e 4dbd
00000230: 997f e4be ffb6 cdbd a350 1cbe 09b1 433d
00000240: fc07 8cbe 9310 8abd 70e4 273d ac38 cb3d
00000250: a87a 2e3d 9410 1bbe 2f7b 67be e598 8dba
00000260: 3edd 2ebe 85eb 1d3d b357 76be 24bd babb
00000270: 881a 02bd e225 83be 911b d53d 7c03 babd
00000280: efdf aebc d78c 9fbd ad8b 29be c92f 85bc
00000290: 088b 09be 75c7 69be bf7d 19be 6d56 323d
000002a0: 0792 083e c9d1 91bd 19d4 a53d 9e6c c5bd
000002b0: 2758 c73d 59b2 34be f10e 05be e8b0 c03d
000002c0: 4a91 463d 2984 51bd fde8 6b3d b2ab 39bd
000002d0: a407 9c38 46d6 6cbe 8c70 0dbe f2c2 71be
000002e0: 23b5 973a 0db7 873d 5fb0 9fbe 158b 2c3d
000002f0: d6d7 edbd 8bcd ee3d 6b4a 573c 188d 3fbe
00000300: 6d47 f73d 2fdd 95b9 449a 693d 40f2 923c
00000310: c040 8abc 7898 47bd 1dcb bf3d 8927 023e
00000320: dee8 c13c d52b babe 7b4c 7bbe fdea 663c
00000330: c48c f5bc f059 01bf a005 dfbb 5976 5dbd
00000340: 66a4 643d eaeb 1abe 1779 81bd cdfa 89be
00000350: bc5a fcbd 9c23 46bd 0106 983c b001 8bbc
00000360: c347 3fbd d4f6 f03b d583 31bc 4a45 e13d
00000370: a495 063e 91e0 2cbc a97a bc3c 403a 15be
00000380: b71a ccbd 5ae0 143d ff27 58bd ea9b 0bbe
00000390: 8654 ec3c 7756 74be 443a 863b 67d2 c0bc
000003a0: b1b1 6b3d 06bb 2dbd 9a74 91be 57fd 093b
000003b0: 2b94 c1be 3ef9 4d3d 9a56 84bd ba73 b53c
000003c0: ff4c 983d 0c5e a2bd 9e93 633d 25e0 7cbe
000003d0: b80e 04be 1c95 69bd e391 d9bc acfc a4bd
000003e0: be11 40be 9576 a33c 1d85 013d 1686 5f3c
000003f0: 637f 4bbb cf83 ecbd 5029 ee3c 12af 073c
0.16577643 0.16440625 0.03693946 0.18025365 0.10739607 0.2272364 0.016773414 0.09618766
-0.045295425 0.31554052 0.11627377 0.03689918 0.012317299 0.005885589 -0.041809686 0.08295721
0.1894035 0.31578562 0.03213492 0.13736737 0.10744265 0.050558046 0.024193779 -0.06168994
-0.024638833 -0.026414141 0.02711065 0.113149926 0.07360075 0.06590913 -0.026005998 -0.025712604
0.023275655 0.107954904 0.013708397 0.12974954 -0.06271237 0.123192035 -0.016023973 -0.026018426
-0.09184132 0.07201082 -0.0429676 -0.07714947 0.0548832 0.16441458 0.028128628 -0.016929237
0.02998399 -0.05610312 0.19780199 -0.025731351 0.12853935 0.061936554 -0.013896855 0.053155117
-0.020463929 0.07427142 0.32160756 0.09887825 0.13867173 0.15494174 0.13479865 0.03764695
-0.03639707 -0.085127436 0.109706424 0.14632018 -0.022262974 0.12259333 0.035636492 0.15119039
-0.04820105 0.21892703 0.16795048 -0.14368558 -0.076444186 0.0625283 0.09899829 -0.14249621
-0.04575641 0.087541 0.028137228 0.12450544 0.08931156 -0.012820169 0.04738129 -0.10447748
0.07120062 0.12695621 -0.054081768 -0.05099473 0.02387375 0.14900576 0.035080258 0.06456898
-0.028635385 0.050893415 -0.038299914 -0.08736574 0.13824956 0.2504102 0.1258216 -0.0754563
-0.09754199 -0.042608693 0.16026428 -0.008724853 0.029665103 0.010290815 0.108922236 0.08310254
0.030128313 0.14920275 0.15087412 -0.042720664 0.01927458 0.13886075 0.094645366 -0.13427651
-0.037078843 -0.03521655 0.25832012 -0.096211955 0.2231196 0.05044526 0.07748912 0.05946494
-0.122474924 -0.23673302 -0.17354247 -0.051197015 -0.20821087 -0.2358464 0.027434103 0.18032044
-0.011912526 -0.45341206 -0.17515376 -0.050092746 -0.446286 -0.10044669 -0.15265135 0.047776256
-0.27349842 -0.067414425 0.04098934 0.09922919 0.042597443 -0.15143043 -0.22605585 -0.0010803012
-0.17076585 0.038554687 -0.24056892 -0.005698817 -0.031763583 -0.2561484 0.104056485 -0.09082696
-0.021347014 -0.07790535 -0.16557188 -0.016258137 -0.13431942 -0.22829993 -0.14989375 0.043539453
0.13336955 -0.071200915 0.08097095 -0.09639858 0.097336106 -0.17646159 -0.12993981 0.09408742
0.048478402 -0.05115143 0.05759524 -0.045329757 7.440083e-05 -0.23128614 -0.13812464 -0.23609522
0.0011574369 0.06626711 -0.31189248 0.042124826 -0.11613433 0.11660298 0.013140301 -0.18706167
0.1207417 -0.0002858429 0.057031885 0.01793778 -0.016876578 -0.04872939 0.09364913 0.12710394
0.02367061 -0.36361566 -0.24540894 0.0140941115 -0.029974349 -0.5052786 -0.0068060905 -0.054067943
0.055820845 -0.15129057 -0.06321924 -0.26949158 -0.12321994 -0.048373803 0.01855755 -0.016968578
-0.046699297 0.007353643 -0.010834654 0.10999544 0.13143021 -0.010551588 0.023007708 -0.14573002
-0.09966033 0.03634677 -0.05277252 -0.13633695 0.028848898 -0.23861109 0.0040963013 -0.023537828
0.057542507 -0.042414688 -0.28409272 0.0021055543 -0.37808356 0.050286524 -0.064618304 0.02214991
0.07436561 -0.07928094 0.0555607 -0.2469488 -0.1289624 -0.057026967 -0.026558822 -0.08056006
-0.18756768 0.019954005 0.031621087 0.013642808 -0.003105127 -0.11548578 0.029072434 0.008281486

layer2.bias f4 [128]
00000000: 5a4f 81b2 9e99 fdb4 93e8 3533 2978 e7b2
00000010: c86d c3b1 cdc5 43b4 442a 1e31 d410 5934
00000020: fcff d3b6 a505 6d33 08ef 8b33 a4bb a935
00000030: 8843 2d35 1d97 79b1 1726 e8b0 4831 09b2
00000040: d2c0 99b2 96e0 2634 e425 b933 3bc7 10b1
00000050: 7047 d3b3 e456 3a32 ee90 53b4 1c1a 2933
00000060: bcb6 05b2 b310 d6b3 5eaf 01b1 b4ea 0b34
00000070: ee02 41b4 ea07 29b7 3814 2cb5 a082 4933
00000080: f889 24b1 5f66 5437 6cc8 5fb5 e956 3232
00000090: 8016 0d33 add1 abb1 0ddd 0eb4 de69 0933
000000a0: 5d02 7c34 3a5b d932 28bc bb34 7f32 ffb0
000000b0: 36f1 0f35 3abc 36b2 a82e e236 c441 a834
000000c0: 233f 2ab4 f6d8 7ab1 ca43 85b6 8810 6e30
000000d0: 0e8d 6031 a650 41b2 31ef 2db4 78c7 0f36
000000e0: 0662 3934 62f4 6532 82b5 00b5 84b8 d7b4
000000f0: c018 48b6 a3a3 08b4 a409 1436 b8e1 84b4
00000100: fe7d a1b2 fb0f 46b1 d5a2 e5b1 0633 f1b0
00000110: a47b 8a35 b419 16b6 2665 1337 540c 35b2
00000120: 1820 57b4 a05f 0db3 2515 9931 b09e a931
00000130: 40f6 2d30 06eb 4db3 94d8 eeb4 2adb 52b2
00000140: 0b2f 2fb3 be9b 81b4 94a0 7e32 a2e8 c0b6
00000150: 05c2 75b6 322e 24b2 d125 6cb4 7d70 96b1
00000160: 2a0e 25b1 d4a6 e334 3272 8e31 a8f4 4932
00000170: b4d0 5436 5027 5830 40aa d0b3 efdb 6233
00000180: d044 2231 b462 b432 0437 7131 5f76 1fb2
00000190: 5730 a531 9e20 81b6 0c54 2cb2 0751 1ab3
000001a0: 9b88 5837 2d40 1033 bc4b 5e35 319f 9b31
000001b0: 0c2f 9b31 f039 2136 efc9 79b7 0a77 5cb6
000001c0: ba2f 8eb2 8920 05b2 0b3b 96b1 fe52 09b4
000001d0: ebdb dab1 0b62 d2b1 2e66 6f32 a4d1 79b5
000001e0: 8623 1433 dfde 85b1 c666 0931 b0a7 81b3
000001f0: 180f 3830 a029 8fb5 540e e6b3 e442 7a31
-1.5053661e-08 -4.7236693e-07 4.235387e-08 -2.6946582e-08 -5.6877276e-09 -1.823275e-07 2.3016051e-09 2.0215822e-07
-6.3180905e-06 5.5185996e-08 6.5161714e-08 1.2646092e-06 6.4545793e-07 -3.6320167e-09 -1.6891047e-09 -7.985655e-09
-1.7899229e-08 1.5541659e-07 8.621626e-08 -2.1068007e-09 -9.8384476e-08 1.0846382e-08 -1.9703631e-07 3.9372125e-08
-7.783168e-09 -9.968189e-08 -1.8871655e-09 1.3030768e-07 -1.7975592e-07 -1.0075028e-05 -6.4104415e-07 4.6917762e-08
-2.3943567e-09 1.266002e-05 -8.3365626e-07 1.0380725e-08 3.2849584e-08 -5.0005924e-09 -1.3305198e-07 3.1994084e-08
2.3470189e-07 2.530361e-08 3.4968366e-07 -1.8568044e-09 5.362266e-07 -1.0636592e-08 6.7407564e-06 3.134029e-07
-1.5855453e-07 -3.6503116e-09 -3.9716006e-06 8.660739e-10 3.267647e-09 -1.1252416e-08 -1.6198898e-07 2.1424767e-06
1.7265128e-07 1.3385121e-08 -4.7947844e-07 -4.0181123e-07 -2.9816729e-06 -1.2725518e-07 2.205933e-06 -2.4751148e-07
-1.8800161e-08 -2.8821876e-09 -6.683289e-09 -1.754956e-09 1.0317785e-06 -2.2366703e-06 8.785433e-06 -1.053839e-08
-2.0035111e-07 -3.291609e-08 4.45529e-09 4.936588e-09 6.3286976e-10 -4.7944035e-08 -4.4488536e-07 -1.2273441e-08
-4.0788148e-08 -2.414144e-07 1.4821257e-08 -5.749128e-06 -3.662078e-06 -9.55656e-09 -2.199297e-07 -4.378363e-09
-2.4018711e-09 4.2403428e-07 4.1457264e-09 1.1755368e-08 3.1711943e-06 7.863621e-10 -9.716723e-08 5.2819754e-08
2.3613218e-09 2.0999643e-08 3.5101388e-09 -9.2819326e-09 4.8076276e-09 -3.8482967e-06 -1.0030828e-08 -3.5929613e-08
1.2906409e-05 3.358598e-08 8.281165e-07 4.5291917e-09 4.5164423e-09 2.4024594e-06 -1.4888573e-05 -3.2851844e-06
-1.655268e-08 -7.7490165e-09 -4.372287e-09 -1.2789312e-07 -6.369637e-09 -6.1229506e-09 1.3934864e-08 -9.3064796e-07
3.4491244e-08 -3.896147e-09 1.9994544e-09 -6.037533e-08 6.696026e-10 -1.0666445e-06 -1.0712816e-07 3.641781e-09

bn2.weight f4 [128]
00000000: 56be 443f 30ed 873f 20b6 463f 68b8 6f3f
00000010: 7ccf 6d3f f8ef 5d3f ec56 7f3f 95f0 653f
00000020: 8e67 6c3f e8ea 743f 5020 573f 01ad 7b3f
00000030: 2a93 653f 111c 5c3f 9010 613f a579 643f
00000040: cc06 613f db5e 633f f933 633f 067d 853f
00000050: eb0c 633f ce76 7e3f 3d25 373f 5033 733f
00000060: 7a95 5c3f 24c5 613f bfba 4a3f a4b1 583f
00000070: 7ca5 633f 3af2 613f b276 663f bf86 823f
00000080: e43f 583f b510 763f b0a7 493f af21 593f
00000090: c2dc 503f 4f6f 753f 8a23 663f 9ff3 6c3f
000000a0: d191 843f 6f94 733f 7d22 8e3f 6e3b 603f
000000b0: e8d5 463f 6179 483f 12fa 553f 1073 563f
000000c0: 306f 623f a751 623f 2438 6c3f cc33 5a3f
000000d0: ca44 5a3f f871 5f3f 8f0a 6f3f 6a90 593f
000000e0: fc75 583f 79f0 5e3f b99e 653f fde7 683f
000000f0: bcfe 2a3f cf0e 553f 984f 6b3f 495a 843f
00000100: 2ce7 623f 1dcb 863f 05b3 593f 6b41 633f
00000110: ac14 7f3f e843 653f fbe5 603f abb2 653f
00000120: 16d2 833f 5224 693f 4d2b 603f 47a2 863f
00000130: 1046 653f 3246 673f 9dcf 803f c7d0 4e3f
00000140: 947a 503f d306 5e3f 742a 733f 0214 6b3f
00000150: 5aca 6d3f 0184 5c3f f62e 763f cb7a 693f
00000160: c2f6 603f 241e 633f 1fe5 693f ab14 493f
00000170: 5759 603f 009a 533f f360 763f 5b94 7c3f
00000180: cd45 873f 2886 793f ed59 7e3f 7afd 6e3f
00000190: 3474 6c3f 62bb 5c3f 4c0f 7b3f 2af1 633f
000001a0: 6c92 823f a079 683f ac85 5d3f 5c67 4a3f
000001b0: b422 723f 984e 743f bae4 5d3f 0d15 613f
000001c0: 35c4 863f 4ec6 7c3f fd46 6b3f 0beb 543f
000001d0: 4063 433f 6231 653f 81a2 573f 2f25 893f
000001e0: 4cfe 8a3f 860a 803f 246f 633f f721 653f
000001f0: 22e2 683f c54a 6a3f f08e 643f 39e5 813f
0.7685293 1.0619259 0.7762165 0.93640757 0.9289472 0.8669429 0.9974201 0.89820224
0.9234551 0.9567094 0.8403368 0.9831086 0.8967768 0.85980326 0.879159 0.89248115
0.87900996 0.8881661 0.8875118 1.0428779 0.88691586 0.9940003 0.71541196 0.9500017
0.86165583 0.8819144 0.791912 0.8464606 0.88924384 0.88260233 0.90024865 1.0197371
0.8447249 0.9611924 0.78771496 0.8481702 0.8158685 0.9587297 0.8989798 0.92559236
1.0357 0.95148367 1.1104275 0.8759068 0.77670145 0.7831021 0.835847 0.8376932
0.8845091 0.8840584 0.92273164 0.85235286 0.85261214 0.8728328 0.93375486 0.84985983
0.8455503 0.8708568 0.89695317 0.90978986 0.66794944 0.8322572 0.91918325 1.0340053
0.8863399 1.0530735 0.8503879 0.88771695 0.9964092 0.8955674 0.8785092 0.8972575
1.0298488 0.91071045 0.8756607 1.0518273 0.8956003 0.90341485 1.0063359 0.8078732
0.8143704 0.8672916 0.94986653 0.91827404 0.9288689 0.8613892 0.96165407 0.9120299
0.8787652 0.88717866 0.91365236 0.7854716 0.8763632 0.8265686 0.9624168 0.9866387
1.0568177 0.9747033 0.99355966 0.93355525 0.9236481 0.86223423 0.98070216 0.8903986
1.0200934 0.90810585 0.8653209 0.79063964 0.945842 0.95432425 0.86677134 0.87922746
1.0528628 0.9874009 0.91905195 0.8317115 0.7632332 0.8952848 0.84232336 1.0714473
1.0858855 1.0003211 0.8884146 0.8950495 0.9097005 0.9152034 0.89280605 1.0148078

bn2.bias f4 [128]
00000000: 921b 67be 7d58 25be 1eee 80be 3e8c c9be
00000010: bcb2 1abf 89d2 06bf 72d0 7bbe 303e 80be
00000020: 9a64 fdbe d0a9 eabe f9f5 00bf d6d9 58be
00000030: cd6d 94be 0c32 b3be 0621 c5be 909f a5be
00000040: 02dc d9be 73b3 68be c4a1 33be 76bc 9ebe
00000050: 5b5b e4be 4106 12be ff67 f6be d5b3 28be
00000060: 7a53 edbe cf3b 7bbe 3c3a 99be a12a c1be
00000070: dd51 b2be 27fc eabe 6c07 9fbe 591b cdbd
00000080: b45c 8cbe 5085 dabe 70d5 b0be 62b0 1cbe
00000090: 2284 a2be 142d 90be 7e18 03bf 04f4 e3be
000000a0: 001f 79be 403c 3fbe 9613 18be 1b07 eabe
000000b0: f2e1 75be 2eb1 4dbe 3f24 8ebe 4e8f 13bf
000000c0: f807 babe 90f7 b5be f0ce cfbe 48ee c0be
000000d0: da23 cfbe affb 86be 50c2 90be 7dfc d0be
000000e0: 5d67 fabe 6bca a4be 055a dcbe 6fc6 cbbe
000000f0: aefa 88be 98f3 8bbe a491 a4be 8916 33be
00000100: e51b b0be 5d46 e5bd 13d1 36be 6c50 73be
00000110: a57d 18be c1fe 6bbe ef9d e2be 81d5 a9be
00000120: bba3 1ebe 0baa 3fbe cec6 aabe 3912 a3be
00000130: 7d1b adbe caa4 8abe 3133 1fbe 686c 89be
00000140: 56ee a7be 8397 68be 26a1 47be 9b5f 67be
00000150: 2b3a 83be 8da2 0bbf 7032 a7bd 8a1f a2be
00000160: cf25 a0be e728 ddbe 3ee0 94be cc33 84be
00000170: dfad 87be 41b5 b2be c283 1fbe 4584 abbe
00000180: 53f4 4ebe 4296 f1bd 5ca8 6abe 2ad1 9ebe
00000190: 2da5 8fbe 86d7 ebbe bb28 24be 779b dabe
000001a0: 8934 31be 377c 83be 6fc1 94be d31f d1be
000001b0: f0f5 49be 582b 6dbe 4864 babe f712 c7be
000001c0: 0017 a9bd 89ed 90be f839 d4be 0467 47be
000001d0: c5d0 4abe f947 c3be 74cc 79be f161 9cbd
000001e0: 6d86 00be 5e03 3dbe ef95 dfbe d25d c9be
000001f0: 155f b4be 0e07 01bf 1692 a8be 87b2 cdbe
-0.22569111 -0.16147037 -0.2518167 -0.3936481 -0.60428977 -0.52665 -0.24591234 -0.25047445
-0.49490815 -0.45832682 -0.50375324 -0.21176848 -0.2899002 -0.3499912 -0.38501757 -0.323483
-0.42550665 -0.22724704 -0.17542177 -0.3100316 -0.4460095 -0.14260198 -0.48126218 -0.1647485
-0.4635275 -0.24534534 -0.29927242 -0.37727836 -0.34828082 -0.45895502 -0.3106035 -0.10014982
-0.27414477 -0.42679834 -0.3453784 -0.1530166 -0.31741434 -0.28159392 -0.5120925 -0.44522107
-0.24328232 -0.18675327 -0.14851221 -0.45708546 -0.24011973 -0.2008712 -0.2776203 -0.5764054
-0.36334205 -0.35540438 -0.40587568 -0.37681794 -0.4045704 -0.26363894 -0.2827325 -0.40817633
-0.48906985 -0.32185683 -0.4303743 -0.3979983 -0.26753753 -0.27334285 -0.32142365 -0.17489065
-0.34396282 -0.11195061 -0.17853193 -0.23761147 -0.1489168 -0.230464 -0.4426112 -0.33170703
-0.15492146 -0.1871721 -0.333548 -0.3184984 -0.33810034 -0.2707885 -0.15546872 -0.2684052
-0.32799023 -0.22714047 -0.19495067 -0.22595064 -0.25630316 -0.5454491 -0.08163917 -0.31664687
-0.31278846 -0.4319527 -0.29077333 -0.25820768 -0.2649984 -0.3490391 -0.15577605 -0.3349935
-0.2021039 -0.117962375 -0.22915787 -0.31018955 -0.28055707 -0.4606287 -0.16031162 -0.42696735
-0.17305197 -0.25680706 -0.29053828 -0.40844592 -0.19722724 -0.23161066 -0.36404634 -0.38881657
-0.0825634 -0.28306225 -0.41450477 -0.19472891 -0.19806202 -0.38140848 -0.24394399 -0.07635868
-0.1255128 -0.18458316 -0.43669078 -0.39329392 -0.35228792 -0.5040139 -0.32923955 -0.40175268

bn2.running_mean f4 [128]
00000000: 0d15 8e3f 34a2 1bbf 8e0e 10bf 194b 6a3f
00000010: 6f22 7c3f 6cf7 363e 7e01 3fbf 85e6 81be
00000020: d358 913f f667 363e fe3c 52bd f214 94bf
00000030: 36ed 11bf 0cae e4be 5b10 9ebe 566b 17bf
00000040: 2951 1cbf fa34 02bd 5247 86bd e42e bb3f
00000050: f477 db3d 3784 5fbf fa24 573f 5f7a 08bf
00000060: 72fd 7ebe 1219 6cbf fec3 02bf bcce a1be
00000070: 7a81 eabe c1cc 833f b062 dabe 1dc6 36bf
00000080: edf4 f9be b753 8e3f afdf 613f 7e6e b1be
00000090: ccc9 9cbd 1d18 66bf 1bfa 763e da70 a33d
000000a0: 5546 42bf 911b e5be 0951 24bf eed1 ab3d
000000b0: cc40 78bf 6a06 bebe 0f78 3cbf 8cf9 3c3f
000000c0: 5c5a aebe e958 11be 57a9 583f 0f62 9c3e
000000d0: 961f 013d 8fed 3bbf 8813 9dbe 0e45 d0be
000000e0: c257 553d 1a0b 07bf 7451 69be 9be1 93be
000000f0: b2a8 1dbf 0253 47be c618 2abf 8e25 7cbf
00000100: beb8 5b3e c3b6 2dbf b780 d6be 9bdd 91bf
00000110: 0826 14bf cd9b 05bf 3a08 4d3d 7341 c6be
00000120: 785a 01bf a657 0abf 960b 423f 3fd5 d03f
00000130: 6749 dfbe 08e6 26bc 68af 07bf b925 1cbf
00000140: c5fe 6b3d d6fe 29bf ccc1 f9be 60f2 8abf
00000150: 8c62 65bf 6dc4 893f 4afc d5be 2ea8 7dbf
00000160: 7a44 efbe d798 8d3f e672 88bf 23a9 dbbe
00000170: e263 c3be 72e8 f4be d78e 7dbf efff 82bf
00000180: 4dc4 41bf c739 0dbf c8f2 64bf ec9d aabe
00000190: ff53 16bf f9e6 6e3f 10ee afbe 0a4c 0e3f
000001a0: 7fc9 b0be 2e9c 7dbe d5d6 83be fdec 523f
000001b0: ae0a 23bf ce01 38bf 9ef7 aebd d575 aa3d
000001c0: e38a 1cbf 9fc5 24bf 7701 543f 71dc 71be
000001d0: d063 8abf 842b 4ebe 350a aebe f067 15bf
000001e0: a2e0 16bf e0cc 28bf faf6 21bf 00a0 c13b
000001f0: 18b5 89bf 5074 073e fd4c f8be c97a 743f
1.1100174 -0.6079438 -0.5627221 0.9152084 0.9849004 0.17867821 -0.7461165 -0.25371185
1.1355232 0.17813095 -0.051327698 -1.1568892 -0.5700258 -0.44664037 -0.30871853 -0.59148157
-0.6106134 -0.031788804 -0.06556572 1.4623685 0.107162386 -0.8731112 0.84040797 -0.53311723
-0.24901369 -0.92225754 -0.5108031 -0.31603038 -0.45801908 1.0296861 -0.42653418 -0.71396047
-0.48819676 1.1119298 0.8823194 -0.3465461 -0.07655677 -0.89880544 0.24118845 0.07980509
-0.7588857 -0.44747594 -0.6418615 0.0838965 -0.9697387 -0.3711427 -0.73620695 0.7381828
-0.34053314 -0.14194073 0.8463339 0.30543563 0.031524263 -0.7340936 -0.30678964 -0.40677685
0.052085645 -0.52751315 -0.22784978 -0.2888306 -0.61585534 -0.19465259 -0.6644405 -0.98494804
0.21457192 -0.67857 -0.41895077 -1.1395754 -0.5787053 -0.5219086 0.050056674 -0.3872181
-0.5052867 -0.5403999 0.7579893 1.6315078 -0.4361069 -0.01018668 -0.53002024 -0.6099506
0.057616014 -0.66404474 -0.48780668 -1.0855217 -0.89603496 1.0763069 -0.41794044 -0.99084747
-0.4673193 1.1062268 -1.0660064 -0.4290248 -0.38162142 -0.47833592 -0.9904608 -1.0234355
-0.75690156 -0.55166286 -0.89432955 -0.3332361 -0.5872192 0.93321186 -0.34361315 0.55584776
-0.3452873 -0.24766609 -0.2574984 0.82392865 -0.6368817 -0.71877754 -0.08543323 0.08323256
-0.61149424 -0.64364046 0.82814735 -0.23619248 -1.081171 -0.20133787 -0.33992162 -0.5836172
-0.5893651 -0.65937614 -0.6326748 0.005908966 -1.075839 0.13227963 -0.48496237 0.95499855

bn2.running_var f4 [128]
00000000: 7ef9 273f f45e 6540 0f37 e13f 6c53 403f
00000010: cab2 273f 303c 633f 855a 3e40 86a6 a23f
00000020: 6dc7 633f 8306 393f de87 223f e503 3140
00000030: c764 0d40 4680 5c3f 143e d63f ac6d 0140
00000040: 65cc cf3f d9a1 2640 e156 123f 8ff0 be3f
00000050: f99b 163f 8639 3740 8440 3b3f fde1 d33f
00000060: e905 1c3f 3bb9 3d40 86b1 753f 866f c43f
00000070: 8d9c 853f 358b 2f3f a396 863f fd9e 6e40
00000080: fc11 a93f 4109 323f 9119 333f d0c2 413f
00000090: 2e6b c03f 821b 8a40 a004 723f 2b48 393f
000000a0: 14e9 6240 fdca 2b40 3747 4240 4c42 6a3f
000000b0: 8903 7b3f 591d 2440 cee4 0040 b3f6 393f
000000c0: 0c1e 5b3f 6bda 5c3f 8939 793f 5a38 f53e
000000d0: b885 323f 2693 5840 6022 303f 7a02 9d3f
000000e0: e8f3 2a3f 5e5f ee3f 18d9 ab3f 0341 c03f
000000f0: c903 953f 10fe b23f 9219 823f aa06 3840
00000100: 58e9 d23f 7631 7140 7bb1 233f 1f40 4d40
00000110: 5acd c73f 4a2b ef3f 6177 fa3e bb54 d93f
00000120: 9d8f 4b40 81b8 f83f 837d 413f 67e8 be3f
00000130: d10d b83f 8693 113f 3d76 2d3f 1180 ba3f
00000140: 9173 d23e a021 1d40 f723 153f d85f 3b40
00000150: f4bf 5440 c54c 673f 05d6 0c40 e285 7240
00000160: 222d b13f 1065 393f afd7 7840 3c9d b63f
00000170: 902d f93f 63bb 823f 7b79 7040 2c2d 4640
00000180: de26 7540 b001 0440 9142 5040 d121 983f
00000190: a827 483f 04fb 213f 207b bf3f d52c 703f
000001a0: 0a5a de3f cea3 373f 2677 f33f d2bc 2c3f
000001b0: f80f 4a40 8034 3240 a437 8e3f c419 923f
000001c0: a0d4 4240 fcd0 d33f ce8e 183f 738c 1040
000001d0: 5fd9 823f c2a0 253f 1ace 3940 e904 5540
000001e0: d66d 7840 b355 3040 13a5 0f40 900a 7c3f
000001f0: fc40 4f40 8d34 403f 0ff0 f83f 1df1 553f
0.6561507 3.5839205 1.7594928 0.7512729 0.65507185 0.88763714 2.9742749 1.2707069
0.88976175 0.7227556 0.63488567 2.7658627 2.209276 0.8613323 1.6737695 2.0223188
1.6234251 2.6036284 0.57163817 1.4917163 0.58831745 2.862886 0.7314532 1.6553341
0.6094652 2.9644306 0.95974004 1.5346534 1.04384 0.6857179 1.0514721 3.7284539
1.3208613 0.6954537 0.69960886 0.75687885 1.5032709 4.315858 0.9453831 0.72375745
3.545476 2.6842644 3.0355966 0.9150741 0.9805227 2.5642912 2.0139651 0.7264206
0.8559272 0.8627078 0.97353417 0.47894555 0.6973529 3.3839812 0.6880245 1.2266381
0.6677842 1.8622854 1.3425627 1.501984 1.164178 1.3983784 1.0164053 2.8754067
1.6477461 3.7686439 0.6394269 3.2070386 1.5609543 1.8685086 0.48919204 1.6978983
3.1806405 1.9431306 0.7558214 1.4914674 1.4379216 0.5686573 0.6775854 1.4570333
0.41103795 2.4551773 0.58258003 2.9277248 3.324216 0.90351516 2.2005627 3.7894216
1.3841898 0.72419834 3.8881643 1.4266734 1.946703 1.0213436 3.7574146 3.096507
3.8304973 2.062603 3.254063 1.188532 0.7818551 0.63273644 1.495945 0.9381841
1.7371228 0.7173432 1.9020736 0.67475617 3.1572247 2.7844543 1.111073 1.1414113
3.0442276 1.6548152 0.595929 2.2585723 1.0222586 0.6469842 2.9032044 3.3284247
3.8817039 2.7552307 2.2444503 0.9845362 3.2383413 0.75080186 1.944826 0.83571035

layer3.weight f4 [64, 128]
00000000: 359c 593d 77df f43d 68dc 22bd 001c 19bd
00000010: 381f 3abe 8777 d3bd a3bd 0a3e 811c 9bbd
00000020: aacc 23bd 2492 69bd 5478 31bd 754b 03bd
00000030: 1444 23bd eab5 dabd 9ee7 11bd 13c1 08be
00000040: 03b1 d5bd 00b9 9abd e6f7 283e 4387 78bd
00000050: b01a d63a 6a97 003e 01fc 573c 7748 c23d
00000060: 0908 bfbd 58ab 9a3c 8dbc c53d 7af7 8a3c
00000070: 730a bfbd 7b04 4dbd a2c3 dbbd a4e1 303e
00000080: b6e4 a1bd fdab 4bbe 3668 9cbc 552a 4b3d
00000090: a782 283d 6a56 443e 7f11 e3bd 6cf2 c5bd
000000a0: 5ce3 eb3d 14d5 6fbd 0ab3 6d3d 065a 0dbe
000000b0: 81be 913d c4a5 c8bc 7920 95bd 8132 c8bd
000000c0: 7b12 89bd 41ea e8bd 2aa8 80bc 8f4e 0abe
000000d0: a1d9 b8bc 90b2 863d a7fd 933c d986 b1bd
000000e0: 0475 c1bd 5026 22bd 892a 62bd 6306 e8bd
000000f0: 988c 7ebd 9635 c23b b674 d23c 3595 2d3e
00000100: db07 18be 2763 d53d 2090 9b3c 20f0 9e3d
00000110: 8dc1 af3d 0990 a83c d8e2 30ba 817a a6ba
00000120: d969 0c3e 5476 5239 5596 70bc 2ab0 abbd
00000130: 8ec9 f7bd 95d8 95bd 66c5 b83c c328 af3c
00000140: 5a93 8cbd 339f 5bbd 71d6 a53d 4769 dc3c
00000150: a47d ffbc 8c09 a0bd 99d8 f63d d91d cb3d
00000160: bf1e 0abe 863e 76be a236 113e 4642 ba3d
00000170: 1989 0abe 5c05 a7bc 8a13 e63d e00f 363e
00000180: 1dca 3a3e 1962 b93d a01d 053e 30fc 12be
00000190: 5946 2d3e 6988 1bbc 8f65 b23d 3a74 c6bd
000001a0: dd61 223e 008e c93d 0de3 58bd 8049 0b3d
000001b0: fa27 063e 523f 003e 6a27 03be 1c11 cfbd
000001c0: 0bcd f13d f143 b43d 3d27 4dbd 32b7 58bd
000001d0: 619d 943b 0f20 53be 2627 f2bc ff67 db3d
000001e0: 283b ea3c 0e05 523e 1248 25be 8ef8 29be
000001f0: c1f9 cd3d 2ff4 31be 5793 c1bd 91d9 20ba
00000200: 3dc4 b93d 0f99 bbbc b88f 213d c608 6bbe
00000210: 23da e4bd 4a74 203e 88d8 87bd 9089 733d
00000220: 22e7 54be 58d3 303e d771 c53d 4b76 c8bc
00000230: 5b96 203c a92a bfbc b87d eb3b 96dc df3d
00000240: 2793 983d fd60 bcbd bbd6 813d 55bf 803e
00000250: f59e 2c3e 9e16 013c 9ca0 ab3d 34ff 0bbc
00000260: 45c7 1b3e 4a89 58be 355b 0abe 8460 aa3d
00000270: 75df f83d acb7 6cbe 2467 713d cc0d 823c
00000280: 19a5 9e3d 97b9 893d 494d 793b ee85 373d
00000290: 4691 de3d b49e 14be d985 4b3e 8247 053e
000002a0: e416 4cbd 3eeb 87be f86e 2f3d dbb3 97bc
000002b0: d8a4 583d 2ce2 bcbc 032f 3abd a4bb 953d
000002c0: 27bc 963d 7caf 2abd ca5e 9bbd cce2 7b3d
000002d0: 9e1e a73d d4dd a3be 656a a5bb 212b 023c
000002e0: 12ff ce3d 058b 3c3d 12ac d63c 4feb 1ebc
000002f0: 7514 b03d 9601 863c 7fda ebbd f63d 4cbd
00000300: 86bd 4a3d 95d5 4bbd b329 e5bc ff44 cfbd
00000310: 2278 9b3d b868 4fbe f69f 813d edd2 18bc
00000320: f9d3 363d 43f5 6abd 3f93 61be 3eef 543e
00000330: 7b66 ed3d 2569 e8bc 89c2 d53b 41fd b6bd
00000340: 8935 1abd ed9c 94be db22 f63d e344 adbd
00000350: 7792 71be 666c 4dbe 8d03 023d 3a30 6ebe
00000360: 0b6c 9d3c 45e5 b2bd 9062 38be 61b5 093d
00000370: 8e9c 09bc 107f e43d 851c 51bd 6283 46be
00000380: 50f9 043d aed6 0dbd 93ce 8dbc ecea 593d
00000390: 315d 8c3d 7ca3 d83c dcc9 063a e58f c63b
000003a0: 6595 96bd 1d20 a7bd 8d9a 74bd 6aa1 f8bd
000003b0: 7338 79bd 541b a5bd bffa 863c 76d8 ac3d
000003c0: 5cd3 0f3d 9a3f 01be 5c0f 30be 4fcb 9fbc
000003d0: 9cd6 89bb e715 413d e011 9b3d 1110 7b3d
000003e0: a48e 33bc 9ac4 02bd d82a 23bd dbe9 843c
000003f0: 16d4 5fbe f2b6 1b3e 881c 973b eaa2 9b3e
0.053127486 0.11956685 -0.039760977 -0.03738022 -0.18175972 -0.103255324 0.13548903 -0.07573796
-0.039990105 -0.057024136 -0.043327644 -0.032054383 -0.039859846 -0.106792286 -0.035621278 -0.13354902
-0.10434153 -0.07554817 0.16500816 -0.06067587 0.0016334858 0.1255776 0.013182641 0.09486478
-0.093277045 0.018880531 0.09655104 0.01696371 -0.09328165 -0.0500531 -0.107306734 0.17273575
-0.07904951 -0.19889827 -0.01909266 0.049600918 0.041140225 0.1917359 -0.110873215 -0.09665379
0.11517975 -0.058552817 0.058032073 -0.13803872 0.07116414 -0.024493106 -0.07281584 -0.09775258
-0.06692978 -0.113728054 -0.015705187 -0.1350653 -0.022564711 0.06577027 0.018065287 -0.08668298
-0.09446147 -0.03958732 -0.055216346 -0.11329343 -0.0621458 0.005926798 0.025690418 0.16951449
-0.14846747 0.104193024 0.018989623 0.07760644 0.08581839 0.020576494 -0.00067476695 -0.0012701304
0.13712253 0.00020071241 -0.014684279 -0.0838321 -0.120989904 -0.073167 0.022555064 0.021381741
-0.068640426 -0.05361862 0.08097542 0.026905669 -0.03118784 -0.07814321 0.120530315 0.09917802
-0.13488291 -0.24047288 0.14180997 0.09094672 -0.13528861 -0.020388298 0.112341955 0.17779493
0.18241163 0.09051914 0.12999582 -0.14354014 0.16921367 -0.009492972 0.08710777 -0.09690137
0.15857644 0.098415375 -0.052950907 0.034005642 0.13101187 0.12524155 -0.12808004 -0.10110685
0.11806687 0.08802021 -0.05008625 -0.052909084 0.0045353626 -0.20617698 -0.029559683 0.10713195
0.028592661 0.2050974 -0.16140774 -0.16598722 0.100574024 -0.17378305 -0.09451931 -0.00061359355
0.090706326 -0.022900132 0.0394437 -0.22952566 -0.11174419 0.15669361 -0.06633097 0.05945736
-0.20791295 0.17268121 0.09640854 -0.024470469 0.009801473 -0.023335772 0.0071866177 0.10930745
0.07449942 -0.091981865 0.06339785 0.25145975 0.16857512 0.0078789275 0.08380243 -0.008544732
0.15212734 -0.21146122 -0.13511355 0.0831919 0.12151996 -0.2311694 0.058936253 0.01587572
0.07746334 0.067248516 0.003804045 0.04480546 0.108675525 -0.14513665 0.19875278 0.1301556
-0.049826518 -0.26546663 0.042830437 -0.018518379 0.052891582 -0.023057066 -0.04545499 0.0731118
0.07360106 -0.04167126 -0.07586439 0.061495587 0.08160137 -0.3200518 -0.0050480836 0.007944853
0.101072446 0.046031017 0.026205096 -0.009699657 0.08597652 0.016358178 -0.11516284 -0.049863778
0.04949715 -0.049764235 -0.027973985 -0.10120582 0.07591273 -0.20254791 0.06329338 -0.009327632
0.044635747 -0.057362806 -0.22028826 0.20794389 0.11591812 -0.02837045 0.0065234345 -0.08935023
-0.03764871 -0.29025975 0.12018367 -0.08460405 -0.23591028 -0.20060882 0.031741668 -0.23260584
0.019216558 -0.08735136 -0.18006349 0.033620242 -0.008399142 0.11157048 -0.05105259 -0.19386056
0.032464325 -0.034628563 -0.017310416 0.053202555 0.06853712 0.026445143 0.0005141774 0.006059634
-0.073527135 -0.08160422 -0.059717704 -0.12140162 -0.06084485 -0.08061853 0.016476987 0.08439724
0.035113677 -0.12621918 -0.17193359 -0.019506125 -0.0042064916 0.04714003 0.07571769 0.06129462
-0.010959301 -0.031925775 -0.03983578 0.016224792 -0.21858248 0.15206507 0.0046115555 0.3039773
