improved_model/best_model.ckpt (torch, 352154 bytes, 48 tensors)

layer1.weight f4 [128, 13]
000000 c3 dc 82 be a2 68 cd 3c 42 ca a0 bc 68 0d 9b 3d
       -0.25559053 0.025074307 -0.019627694 0.075709164
000010 a5 f6 e1 bd 20 47 2c 3d 42 c4 1a 3a ea 26 2b 3e
       -0.11033372 0.042060018 0.00059038785 0.16714063
000020 78 42 2b be 1f d8 9e bc 01 94 b1 be 9d 64 92 3e
       -0.16724575 -0.019390164 -0.3468323 0.28592387
000030 ff da 18 be 8b 18 8e be 09 59 0a be dd 77 86 bd
       -0.1492729 -0.277531 -0.13510527 -0.06565831
000040 dc eb 27 3e 89 5c ea 3c 25 59 7d bd 9b 0f 7f bd
       0.16398567 0.028608577 -0.061852593 -0.062270742
000050 bd c7 14 bd bf 61 e7 bb 8a fb df b9 52 21 d9 be
       -0.036323298 -0.007061213 -0.00042721286 -0.42408234
000060 f8 8d 5e 3e 38 21 61 be 2f 2b c8 be b2 eb 10 3e
       0.21733844 -0.21985328 -0.39095446 0.1415241
000070 c3 9f 8f bd c7 64 5a 3c 61 bc 52 be f6 b1 b3 3d
       -0.07012894 0.013329691 -0.20579673 0.08774178
000080 d7 4e 76 3d e5 76 8c be 04 02 88 be 63 be 47 bc
       0.06013378 -0.2743446 -0.26564038 -0.012191388
000090 9a e7 a9 be 10 12 f6 bd c5 94 91 3a f4 9d bd 3d
       -0.3318451 -0.12015164 0.0011106959 0.09258643
0000a0 da 8c 26 be 87 cf 7a bd de b4 3b be 45 92 9b 3e
       -0.16264668 -0.06123307 -0.18330714 0.30385032
0000b0 de af bf be d6 c2 2c be 58 fd 77 3d 37 95 96 be
       -0.37438864 -0.16871199 0.06054434 -0.29410717
0000c0 cc 46 14 3b cf 91 af bd 3c 1c 2b be e8 8c ee 3d
       0.0022625206 -0.08572733 -0.1670999 0.116479695
0000d0 1e fd b3 3d c4 83 07 bd 35 96 06 bd ff 39 9e be
       0.08788513 -0.033084646 -0.032858092 -0.30903623
0000e0 9c f9 6f 3e 08 93 1f 3e da fe 11 bd eb 3e df 3d
       0.23435062 0.15583432 -0.035643436 0.109006725
0000f0 31 ad 52 3e 44 c5 37 3b c0 ab 3d 3e fc 3d 9f be
       0.2057388 0.0028041163 0.18522549 -0.31101978
000100 e5 d1 0d be f4 62 c4 be 09 38 d6 3c e0 97 15 3d
       -0.138496 -0.38356745 0.026149767 0.036521792
000110 80 9a 8c 3b f0 30 3c bd 75 8f 8b 3c 94 1b 3c 3b
       0.004290879 -0.045945108 0.01703618 0.0028702961
000120 d9 8a 3b 3e d8 4c c3 bd 0b be b9 bc 50 b7 9a be
       0.18314685 -0.09536141 -0.022673627 -0.3021798
000130 4f 32 59 3e d4 25 3b 3d 33 7b 99 3e 96 75 14 3d
       0.21210597 0.045690373 0.29976806 0.03624495
000140 1f 55 e6 bc ab a5 cc 3d a8 d8 3d 3d f9 44 68 bd
       -0.02811676 0.09992536 0.046349198 -0.056706402
000150 1b ff 06 be ac 48 9b 3e 91 5a 58 3e 32 96 e1 3c
       -0.13183253 0.30328882 0.21128298 0.027537439
000160 d1 d3 0e 3e 25 6e 68 bd 6e 3f 67 3e ed 4a cd be
       0.13947989 -0.056745667 0.2258279 -0.40096226
000170 5c 96 3f bc ee 2c 9f ba 8e 2e 9e 3d b2 7d e8 3c
       -0.011693563 -0.0012144127 0.07723723 0.028380249
000180 e8 a7 a1 ba cf 2e df 3b e1 79 ba 3d dc 87 74 be
       -0.0012333365 0.006811 0.09105278 -0.23879951
000190 bd c6 14 3d c5 75 89 be ed 5b 95 3e ba 27 b1 3c
       0.036322344 -0.26847664 0.29171696 0.021625388
0001a0 e9 e3 a2 bd 47 25 18 3e 45 5b 0b be 43 84 06 3e
       -0.07953627 0.1485797 -0.13609035 0.13136391
0001b0 71 40 84 3e 87 12 ea 3d ca b9 36 3e f4 a0 c1 ba
       0.25830415 0.11429315 0.1784431 -0.0014772699
0001c0 83 be 46 bd 9d 1b 0b be 55 91 93 3e 1f 9c 67 be
       -0.04852153 -0.13584752 0.28821817 -0.22618149
0001d0 0b 4a b6 be 5c e5 8d 3e be eb 34 be 34 f3 24 be
       -0.35603365 0.2771405 -0.17668054 -0.161084
0001e0 07 ec 3d bd 3d de 30 be b0 36 e2 3d c5 77 d2 3d
       -0.04636767 -0.17272277 0.11045587 0.102767505
0001f0 8c 07 87 bd 28 17 b2 bd ff 8c c5 bd c7 6d 8d 3e
       -0.06593236 -0.08695823 -0.096460335 0.27622816
000200 51 cb 04 be c0 1e 54 3c 02 d8 ff bd 78 81 d8 3c
       -0.12968184 0.0129467845 -0.12492372 0.026428923
000210 a5 05 79 3c a2 2a 9b 3d e1 45 d5 be e0 d2 66 bb
       0.0151991 0.07576491 -0.41654876 -0.0035220906
000220 ff ae a6 bc f5 17 a8 3d a4 bc 29 be b9 ea 63 bc
       -0.020347117 0.082076944 -0.16575867 -0.013910943
000230 27 d2 89 bd c5 30 46 3e 26 a2 8a be 89 ad 81 3e
       -0.067295365 0.19354542 -0.27076834 0.2532771
000240 97 08 2c bd 77 ea 80 3e 2b 1d e4 3c 0e 2e 50 3c
       -0.04200038 0.25178882 0.02784594 0.012706293
000250 5c 88 1d 3c f0 f2 cb bd dc a7 72 be 57 48 1f 3d
       0.00961503 -0.09958446 -0.23696846 0.038887348
000260 49 f8 b0 bd be 1d 22 3e 60 bd 31 be e0 31 fa bc
       -0.08641107 0.15831658 -0.17357397 -0.03054136
000270 c2 48 a0 3e ae 05 67 be 4d 96 aa bc 4b b3 a0 3e
       0.3130551 -0.2256076 -0.020823622 0.3138679
000280 5e 28 21 be a9 99 0f 3d f1 f5 2f bc 26 81 84 be
       -0.15738055 0.03505865 -0.010739789 -0.25879782
000290 fd 79 ca 3d 96 6f 62 bc f0 24 53 3e 4e b1 8f be
       0.09886549 -0.0138205495 0.2061956 -0.2806496
0002a0 38 db 1b be dc a2 84 3e a7 5d 4d be df 31 2f bd
       -0.15220344 0.25905502 -0.20055257 -0.04277217
0002b0 3a 44 f2 3e 75 32 19 3e d0 45 a6 bc 81 d4 d5 3d
       0.47317678 0.14960654 -0.020296961 0.104409225
0002c0 47 c4 a0 bd a9 2c 50 3d d5 8c 09 be 65 d4 16 bd
       -0.07849937 0.05082384 -0.1343263 -0.03682365
0002d0 10 17 1b 3d 87 12 c8 3d 94 1b 73 3e 8c 31 1a 3d
       0.03786379 0.09769159 0.23740989 0.037644908
0002e0 3b 61 2d 3d 33 e6 53 bd 70 ad 82 3e 50 1b 07 be
       0.042329054 -0.051733207 0.25522947 -0.13194013
0002f0 01 77 d0 bc a6 80 bf be 83 7a 37 be cb 6b 83 ba
       -0.02544737 -0.37402838 -0.17917828 -0.0010026632
000300 24 35 ee 3d 1c 28 3b 3e 55 ef de 3d 10 81 26 be
       0.116312295 0.1827702 0.10885493 -0.16260171
000310 14 ed 04 3c 2c fa 01 3c ee 06 b9 3c 8d a9 f9 bd
       0.008113164 0.007933181 0.022586312 -0.12190542
000320 6c c3 50 3c 14 d7 c9 3b 53 79 52 3d 42 12 5a 3d
       0.012741905 0.0061596725 0.051385235 0.05324007
000330 3c 73 f6 3b 44 af 3a bf 55 50 85 bd c8 1c fb bd
       0.007521061 -0.72923684 -0.06509463 -0.12261349
000340 62 81 da 3d 79 80 18 be ba a5 82 3e c5 b3 32 3e
       0.10669209 -0.14892758 0.25517064 0.17451389
000350 8e 32 24 3e f3 df 0b be d2 5e 29 3d 75 fe 0d 3e
       0.1603491 -0.13659649 0.041350193 0.13866599
000360 59 fe bb 3d e6 5e 8b be 8e b8 f6 3d d7 40 72 3e
       0.09179372 -0.2722084 0.1204692 0.23657547
000370 ad 4a a7 be 19 c8 1c bf 4d f1 bb bd 75 40 bd bd
       -0.3267416 -0.61242825 -0.09176884 -0.0924081
000380 8e 08 5d 3c 28 65 78 be dc a4 02 be 13 54 08 be
       0.013490809 -0.24257338 -0.12758201 -0.13313322
000390 e0 11 15 be 5e 74 04 3e 5c 17 81 3b 7c ac 13 be
       -0.145576 0.12935016 0.003939552 -0.14421266
0003a0 11 8b ab 3c f3 d5 04 bb 44 ed 8f 3e 2c d3 64 be
       0.020940335 -0.0020269125 0.28110707 -0.2234618
0003b0 90 8f cb 3c 91 39 77 be fa 31 53 bd e7 96 6f 3d
       0.02484873 -0.24143054 -0.051561333 0.05849352
0003c0 e6 f9 9c 3c a8 56 90 3e ff f5 50 be 50 7c d6 bd
       0.01916213 0.28191113 -0.2040634 -0.104729295
0003d0 c2 59 50 be 45 ec 78 3e 08 4d 8b bd 84 ef 23 3d
       -0.2034674 0.2430888 -0.06801802 0.04002334
0003e0 0d 3e 06 bd b6 0b 77 bd 2f b5 f1 3d 39 77 96 3e
       -0.03277402 -0.060313903 0.11802136 0.29387835
0003f0 c6 92 12 bd f3 41 1e 3d b3 72 40 3d ad b7 05 3e
       -0.035784505 0.038637113 0.046984386 0.13058348

layer1.bias f4 [128]
000000 88 a6 88 36 ae 33 b7 b4 bc 3f 6c b5 14 c2 e6 33
       4.0725026e-06 -3.4124008e-07 -8.8009597e-07 1.0745512e-07
000010 4c 3d 9c 32 86 6a 8e 32 20 fe 72 31 94 a8 08 37
       1.8188665e-08 1.6579417e-08 3.5360088e-09 8.145482e-06
000020 01 d4 7d 38 c3 53 ef 33 3c c5 1b b7 0e 94 89 b5
       6.0517345e-05 1.1144541e-07 -9.284642e-06 -1.0250385e-06
000030 10 17 fd b5 9b 03 15 33 3e 21 d2 b2 08 73 8c 35
       -1.8856681e-06 3.4695045e-08 -2.4462334e-08 1.0464291e-06
000040 c8 dc fc 30 a2 ba e8 b2 b6 44 62 b5 b6 bb 26 b2
       1.8398163e-09 -2.7093225e-08 -8.429155e-07 -9.705152e-09
000050 49 b4 9c b5 ca 17 1b b3 b0 e5 26 b4 a1 58 81 b3
       -1.1675376e-06 -3.6110386e-08 -1.5543515e-07 -6.023152e-08
000060 28 e0 34 b7 a4 40 2c 35 b0 30 71 b3 b2 e1 2e 33
       -1.07810265e-05 6.416906e-07 -5.6156466e-08 4.07178e-08
000070 cd 88 47 b5 ac 5d 33 b2 e4 50 ad 33 06 08 d6 35
       -7.433235e-07 -1.044047e-08 8.070654e-08 1.5946578e-06
000080 00 70 91 b4 84 dd 08 b3 ac 7b 01 32 55 d4 89 31
       -2.7089845e-07 -3.1866435e-08 7.536908e-09 4.011364e-09
000090 cd 4e 8f 33 72 a7 a1 32 7a 3f 1e 37 96 80 ac b2
       6.67329e-08 1.8819012e-08 9.432313e-06 -2.008191e-08
0000a0 18 c2 bf 32 f8 29 38 b6 80 25 4c b3 00 7d cf b4
       2.232359e-08 -2.7442566e-06 -4.7531557e-08 -3.8647704e-07
0000b0 41 82 2f 37 d3 fc 15 37 18 f5 fc 33 2c f8 17 b1
       1.046114e-05 8.939957e-06 1.1779247e-07 -2.2114461e-09
0000c0 a4 99 25 b6 a8 7f 2f 36 40 f6 1c b4 6b 14 02 b7
       -2.4676347e-06 2.6151338e-06 -1.4618217e-07 -7.753358e-06
0000d0 1f b0 8a 33 ec 9c 5b 33 cf 71 de 36 be 77 94 b5
       6.458162e-08 5.113263e-08 6.6293646e-06 -1.1061709e-06
0000e0 c0 8c f4 32 c0 ee b2 b2 fc 34 84 b2 0e 70 75 33
       2.8469344e-08 -2.0830498e-08 -1.5390917e-08 5.714542e-08
0000f0 d9 f5 19 33 01 f3 41 32 fd 35 5a 33 fa 2e 36 b5
       3.5846686e-08 1.1289331e-08 5.0806182e-08 -6.7868643e-07
000100 00 9e 99 33 dc eb d6 b1 ce b5 1e b4 e0 c3 53 35
       7.153358e-08 -6.255034e-09 -1.4781037e-07 7.888866e-07
000110 a0 1d b8 b4 e4 f7 23 b7 52 7e 94 37 16 3b 9c b8
       -3.4294226e-07 -9.773274e-06 1.7701797e-05 -7.449665e-05
000120 8d 97 50 b2 c2 17 5a b5 ac 43 ec 34 e4 56 90 36
       -1.2141652e-08 -8.12459e-07 4.4007663e-07 4.30165e-06
000130 c2 69 b6 b6 19 1b 22 b5 96 18 b6 32 b3 59 1f b6
       -5.4363345e-06 -6.0389135e-07 2.1198769e-08 -2.3745058e-06
000140 f0 38 6c 36 a5 33 2b b4 f2 76 92 b4 03 6c 2d 35
       3.5199882e-06 -1.5944404e-07 -2.7281163e-07 6.46047e-07
000150 ac 0b 11 b4 27 01 0d b5 ce 29 36 b2 04 50 27 35
       -1.3508424e-07 -5.252827e-07 -1.06033e-08 6.2328786e-07
000160 16 24 13 37 7e 47 c2 b4 97 6f 99 b2 49 e5 a0 b3
       8.770285e-06 -3.6187333e-07 -1.786229e-08 -7.492287e-08
000170 c1 14 6d 33 7b 2a b7 32 6f b5 24 35 08 e8 5b b1
       5.5199738e-08 2.1323322e-08 6.135878e-07 -3.2000589e-09
000180 10 33 1d b4 94 cc 4e 35 15 b4 79 36 d4 9e ff 31
       -1.4640341e-07 7.703868e-07 3.7208713e-06 7.4395334e-09
000190 08 6c e4 32 e5 28 6e b3 3d 48 e2 b1 f0 32 15 32
       2.659182e-08 -5.5450887e-08 -6.5856782e-09 8.684523e-09
0001a0 0e 73 cf 31 b6 9a ba b5 ae ec 1e b3 8c e1 48 b7
       6.037573e-09 -1.3903107e-06 -3.70025e-08 -1.1973443e-05
0001b0 f2 14 74 36 f3 08 53 b6 a0 9a dc 33 e8 82 98 b3
       3.6371025e-06 -3.144666e-06 1.02726744e-07 -7.101863e-08
0001c0 e0 9f 78 b7 c0 0e 71 33 18 5a fa b3 85 a2 fe b1
       -1.4819176e-05 5.61256e-08 -1.165792e-07 -7.4108493e-09
0001d0 54 23 55 b8 64 c7 17 35 34 e3 af 35 b0 6b 27 32
       -5.081606e-05 5.6542035e-07 1.3104641e-06 9.745165e-09
0001e0 6b 9c 4a 32 37 2a c7 b3 a0 de 2e 38 61 4f 7a 34
       1.1793513e-08 -9.2743385e-08 4.169217e-05 2.3311942e-07
0001f0 b0 46 8c 37 60 10 a3 33 88 d6 d4 b5 8c 42 2d 36
       1.6722217e-05 7.5932576e-08 -1.5857668e-06 2.5817744e-06

bn1.weight f4 [128]
000000 d5 07 59 3f d1 65 52 3f 2f 8a 33 3f 32 e3 42 3f
       0.84777576 0.8218661 0.70132726 0.7612792
000010 5f 25 80 3f 4a ae 4a 3f 81 87 57 3f ce e8 4d 3f
       1.0011405 0.79172194 0.8419114 0.80433357
000020 78 3f 5c 3f 4c f7 54 3f b1 e0 55 3f 0c d8 5f 3f
       0.86034346 0.83189845 0.83545977 0.87439036
000030 35 0d 88 3f 1e 45 61 3f 68 62 79 3f e0 47 65 3f
       1.062903 0.8799609 0.9741578 0.895628
000040 42 14 36 3f bc de 3f 3f 99 82 65 3f b9 42 3e 3f
       0.7112466 0.7494924 0.896524 0.7432056
000050 aa 15 4b 3f a7 5c 5f 3f 52 fe 53 3f 19 59 76 3f
       0.7932993 0.8725075 0.82809937 0.962297
000060 c1 1a 55 3f 6a c8 7c 3f 73 d7 59 3f ed c0 47 3f
       0.8324395 0.9874331 0.85094374 0.78028756
000070 a6 78 4b 3f ec f7 76 3f 23 21 6a 3f b1 42 4b 3f
       0.7948097 0.9647205 0.9145681 0.7939864
000080 ec 01 51 3f 36 ae 4c 3f cb c8 76 3f 4a be 3c 3f
       0.8164356 0.79953325 0.96400136 0.7372786
000090 9b 99 67 3f 7f 54 64 3f 0d a5 56 3f 1c be 86 3f
       0.9046876 0.8919143 0.838456 1.0526767
0000a0 a4 5e 77 3f e8 3c 5b 3f 74 31 4a 3f 02 b7 42 3f
       0.96628785 0.8563981 0.7898171 0.760605
0000b0 c6 22 6d 3f 37 bf 5b 3f 22 ec 4d 3f a5 dd 53 3f
       0.92631185 0.85838646 0.80438435 0.8276008
0000c0 78 07 49 3f ec e1 4b 3f 55 33 64 3f 7a 6e 76 3f
       0.7852702 0.79641604 0.89140826 0.96262324
0000d0 60 07 4b 3f e4 59 5e 3f 98 64 55 3f a6 5a 5a 3f
       0.7930813 0.8685591 0.8335662 0.8529457
0000e0 66 cd 40 3f b3 96 46 3f 46 8e 4f 3f 2f 84 53 3f
       0.75313413 0.775737 0.8107647 0.8262357
0000f0 54 81 64 3f d5 12 67 3f 9e 2d 4c 3f c6 1b 44 3f
       0.8925984 0.9026311 0.79757106 0.7660488
000100 75 7a 53 3f c4 a6 6d 3f 74 37 66 3f dc eb 42 3f
       0.8260873 0.9283259 0.89928365 0.7614114
000110 3f 7c 56 3f 79 92 4c 3f a9 7b 54 3f 7e 02 59 3f
       0.83783334 0.79911 0.8300119 0.8476943
000120 9e 18 95 3f f3 9f 64 3f b9 43 75 3f 25 e9 5d 3f
       1.1648138 0.89306563 0.9580646 0.86683875
000130 37 02 59 3f 4f 70 64 3f 1d 7f 52 3f 4d 7c 5b 3f
       0.84769005 0.8923387 0.8222521 0.8573654
000140 34 88 50 3f dd 2d 5e 3f 5a 57 54 3f e5 3c 53 3f
       0.8145783 0.8678873 0.8294579 0.8251479
000150 de 0a 7c 3f d2 46 36 3f a1 ac 35 3f 6f 2b 74 3f
       0.9845408 0.71201813 0.70966536 0.95378774
000160 e3 e8 59 3f e0 1d 3f 3f 32 6b 44 3f c0 77 83 3f
       0.8512098 0.7465496 0.7672607 1.027092
000170 95 48 79 3f cd 61 84 3f a0 56 4a 3f c0 b7 7e 3f
       0.97376376 1.0342346 0.7903843 0.9949913
000180 75 01 6c 3f ef 3d 56 3f 3b 71 71 3f da cc 61 3f
       0.92189723 0.83688253 0.943134 0.88203204
000190 29 4d 45 3f fd c0 49 3f 92 3e 1f 3f bc 48 61 3f
       0.7707086 0.788101 0.6220485 0.8800161
0001a0 d5 88 57 3f ed 48 63 3f 95 35 54 3f ab 38 60 3f
       0.84193164 0.8878315 0.8289426 0.8758647
0001b0 51 70 5b 3f 1d 16 64 3f 07 b1 5e 3f 92 03 4e 3f
       0.85718256 0.8909624 0.8698887 0.804742
0001c0 d1 9f 59 3f db 7c 49 3f 1b f2 6c 3f 64 bd 73 3f
       0.85009485 0.7870614 0.92556924 0.9521086
0001d0 46 4e 51 3f a3 72 80 3f 09 20 3b 3f 1e 2a 83 3f
       0.8176006 1.0034984 0.73095757 1.0247228
0001e0 68 a8 6a 3f fe 5b 52 3f 11 f2 64 3f 57 f9 50 3f
       0.9166322 0.8217162 0.89431864 0.8163046
0001f0 3d f7 5b 3f cb b1 79 3f b8 c8 67 3f 85 24 78 3f
       0.8592413 0.97536916 0.9054065 0.96930724

bn1.bias f4 [128]
000000 7a 38 1c bf db 43 10 bf 5a c8 8d be ff b5 90 bd
       -0.61023676 -0.5635354 -0.2769192 -0.07065963
000010 41 29 a5 bd 47 86 1f bf 23 72 82 bc dc ef 36 bf
       -0.08064509 -0.62314266 -0.015923565 -0.71459746
000020 a3 2a 0c be 44 09 23 bd 48 26 f0 be 30 98 0c 3c
       -0.1368814 -0.03980376 -0.46904206 0.008581206
000030 93 55 83 bd 67 c9 14 be 33 b5 71 3d 5c 7c f9 be
       -0.06412806 -0.14529954 0.059010696 -0.4872769
000040 02 92 25 be a5 11 06 bf 57 f0 8a be f2 92 a9 be
       -0.16168979 -0.52370673 -0.2713649 -0.33119923
000050 7c 62 22 bf c2 3b 92 be 85 a3 19 bf 99 c5 bb be
       -0.63431525 -0.28561217 -0.60015136 -0.36674193
000060 f7 29 7a bd ec 09 77 bd 9e f3 98 be 99 6d 26 bf
       -0.061075177 -0.060312197 -0.29873365 -0.6501098
000070 82 a2 a0 bd 4e 4c ce be 65 70 4d be 33 22 52 bd
       -0.07843496 -0.4029259 -0.20062406 -0.051302146
000080 e8 0c bc be f6 aa 39 bf f8 84 c7 be 28 96 05 be
       -0.36728597 -0.7252649 -0.38968635 -0.13045561
000090 2a 8d d7 be 46 af 12 be 3a 12 1c bf 46 06 c2 be
       -0.42099887 -0.14324674 -0.6096531 -0.3789541
0000a0 96 6d 9d bd 38 81 d7 be b8 ba 88 be bc b3 22 bf
       -0.076869175 -0.42090774 -0.26704955 -0.635555
0000b0 14 6f b2 be 7f aa 38 be 3a 60 28 bf 50 bd 58 bd
       -0.3485037 -0.18033789 -0.6577183 -0.052914917
0000c0 72 e7 08 bf 4d 20 be be 04 1b f4 be 79 4d e1 bc
       -0.5347816 -0.3713402 -0.4767686 -0.027502762
0000d0 52 13 f0 be 85 d5 9e be 39 f9 e8 be 7b da cf be
       -0.4688974 -0.31022277 -0.45502642 -0.40596375
0000e0 a8 b8 c0 be b5 89 b8 be 3d 01 1e bf 23 e4 26 bf
       -0.37640882 -0.36042562 -0.6172064 -0.6519186
0000f0 3e 76 f6 3d c7 7e 22 3d b8 bf a0 be a4 bd 24 bf
       0.12034272 0.039671686 -0.3139627 -0.6435187
000100 d7 90 99 be e6 25 62 bd 35 38 d0 be 9d f7 22 bf
       -0.29993317 -0.055211924 -0.40667883 -0.6365908
000110 af aa 2b bf 52 bd 09 bd d7 52 29 bf da bc b8 be
       -0.6705732 -0.033627816 -0.6614203 -0.36081582
000120 82 ef 78 3e 1a 2f d5 be bb e3 e4 bd bc 5a a5 be
       0.24310115 -0.41637498 -0.11176249 -0.32295787
000130 21 35 2c be ea 99 f1 bc 8d 3d 1c bf 33 01 24 bf
       -0.16817142 -0.029492337 -0.6103142 -0.6406433
000140 f5 23 c2 bd aa 76 40 3d 2e 74 45 bf cf d1 ac be
       -0.094795145 0.046988167 -0.771304 -0.3375382
000150 f2 0a ca be ab 24 d4 be f6 31 b5 be 40 48 09 3d
       -0.39461476 -0.41434225 -0.3538968 0.03351617
000160 cc 7c 17 bf 95 c4 a7 be ce 48 c1 be 43 f2 72 be
       -0.591748 -0.32767168 -0.37750858 -0.23725228
000170 40 05 c7 be 0f 59 7a be fa 4c 93 bb 1d 95 93 3c
       -0.38871193 -0.24448036 -0.0044952603 0.018015439
000180 d4 f9 10 bf 8c ea 18 bf f4 d5 63 be 6d 0d d9 bc
       -0.5663121 -0.5973289 -0.22249585 -0.02649566
000190 ee 81 e7 be 85 13 ad be a6 f7 84 be 09 b2 ec be
       -0.45216316 -0.33803955 -0.2597019 -0.4622958
0001a0 e3 a7 20 be 1a 12 18 be 04 a4 15 bf 2a 76 dc be
       -0.15689044 -0.14850655 -0.58453393 -0.43058902
0001b0 d2 ee da be 9d b0 dc bd b1 0f b0 bd c5 8b d0 be
       -0.4276033 -0.10775874 -0.08596743 -0.40731636
0001c0 0e 12 b3 be 70 fd ff be ed 09 c5 bc 2f bb d2 be
       -0.34974712 -0.49998045 -0.024052585 -0.41158435
0001d0 96 46 a5 be a6 55 92 be f1 c2 d7 bd bc 0d 5f b9
       -0.32280415 -0.2858097 -0.10535229 -0.00021272054
0001e0 89 49 c4 bd d6 b4 9a 3d fc 9d 8d bd 56 ed 45 bd
       -0.09584338 0.07554023 -0.06914899 -0.048322044
0001f0 cf e4 15 bf 7e cb e4 be ec f7 b5 be 06 f0 19 be
       -0.5855226 -0.44686502 -0.35540712 -0.15032968

bn1.running_mean f4 [128]
000000 15 88 d1 3b 4f e3 9d 3b 77 75 03 3c c0 fe 90 bc
       0.006394396 0.004818357 0.008023611 -0.0176996
000010 1b 6e 0b 3c 0e ad 8a 3a f7 66 bb bb 0a 05 11 3b
       0.008510138 0.0010580139 -0.0057190615 0.0022128248
000020 d6 4e 35 3c 33 44 35 3c 73 9b 88 3b 8a 04 e2 bb
       0.011066159 0.011063623 0.0041689216 -0.0068975138
000030 ed a6 f3 3b ec 21 f3 3a 9e 0d 47 bc de 71 9d 3b
       0.0074356706 0.0018549538 -0.012149243 0.004804834
000040 45 6a 31 bc fe 64 1f ba 31 10 98 3b 1e a5 bf ba
       -0.010828559 -0.00060804177 0.004640602 -0.0014621352
000050 4e e4 87 3b 8e 4d 6a 3c b6 a8 db 3b f5 51 bb 3b
       0.004147089 0.014300717 0.0067034615 0.005716557
000060 6d ce 7e bb 1b b3 12 bc 8b 62 a1 bc 92 40 43 3b
       -0.0038880364 -0.008953835 -0.01970031 0.0029793126
000070 88 e2 49 bc 37 8a c3 3b 2d 61 6a bc b8 eb 24 3c
       -0.012322076 0.005967404 -0.014305395 0.010065965
000080 16 63 a2 3b 5a 66 2f 3b 36 6f 8c 3b d5 4a b6 bb
       0.0049556596 0.0026763887 0.0042857183 -0.00556312
000090 19 a3 03 3c 72 64 5e 3c a4 b0 cc 3b d0 70 66 3c
       0.008034491 0.013573753 0.006246643 0.0140649825
0000a0 14 d4 58 39 5f da 32 bc 82 2b 01 3b 94 a1 eb ba
       0.0002067837 -0.010916322 0.001970977 -0.0017977231
0000b0 04 8f 40 bb 44 b3 7c bb c1 6d a2 3b 90 1a 15 3b
       -0.002938212 -0.0038559 0.0049569313 0.0022751428
0000c0 14 b2 d2 3b 8c fb 75 3a 6a 85 59 3b 4d ca 4e ba
       0.00642992 0.00093834917 0.0033191093 -0.00078884215
0000d0 44 6e 52 bb 44 55 0a 3c 5c 2d d3 bb 6c e0 54 bb
       -0.003210918 0.0084431805 -0.0064446162 -0.0032482399
0000e0 fc 4e 25 bc 66 97 a0 3a aa 49 09 3c 40 9b 42 b8
       -0.010089632 0.0012252152 0.008379379 -4.6397792e-05
0000f0 60 10 9d bb 25 9d b9 3b e0 30 d7 bb 62 a7 8b 3b
       -0.004793212 0.005664485 -0.0065671057 0.004261897
000100 42 ae d7 3b 1b 89 d2 bb 4f e2 eb 3b e8 10 56 bb
       0.0065820524 -0.0064250357 0.007198609 -0.0032663886
000110 98 7c d8 39 fa 4c c6 3a 33 fa 29 3b 5a 0e 82 3c
       0.0004129156 0.0015129142 0.0025936484 0.015875984
000120 84 98 d1 bb 32 4c 62 3c aa b4 69 bb 15 53 94 3b
       -0.006396355 0.013812112 -0.0035660663 0.0045265057
000130 61 56 b0 3c 80 46 f1 39 47 1b 9a 3b 96 32 f2 3b
       0.021525564 0.0004601963 0.0047029587 0.007391284
000140 5a ae f8 3a ba ca f9 bb c7 85 ac 3b 71 d6 b7 3b
       0.0018972859 -0.007623044 0.005264971 0.00561028
000150 f9 a1 a4 3b f8 3f 53 3b 64 34 69 3b ee 75 80 bc
       0.0050241915 0.0032234173 0.0035584206 -0.015681233
000160 f7 3a b7 3b e0 36 0e b8 6c b4 8a bb dd f3 d8 ba
       0.005591746 -3.3906545e-05 -0.0042329337 -0.0016552169
000170 2a 52 8f 3b 98 ab e2 ba 1d 82 33 3b 76 54 b8 bb
       0.0043738084 -0.001729357 0.0027390786 -0.005625303
000180 d9 8b 9e 3b f0 7a 64 bb 12 45 e4 ba 43 09 0b 3c
       0.0048384485 -0.0034863316 -0.0017415604 0.008486095
000190 59 0e 42 bb 05 81 53 bc c0 72 0d bc 02 75 5c 3b
       -0.0029610603 -0.012909179 -0.008633316 0.0033639078
0001a0 58 5e 2e 3b 79 69 c2 bb f4 55 0b 3c 2e b0 b8 3b
       0.0026606526 -0.0059329835 0.00850438 0.0056362366
0001b0 dc 0d 94 3a 62 f1 11 bc 34 42 85 3c 26 56 34 3c
       0.0011295634 -0.008907648 0.01626692 0.0110068675
0001c0 23 cc 46 bc dc 91 76 b9 02 4d 91 3c 96 2d 19 3c
       -0.012133631 -0.00023514725 0.017736915 0.009349247
0001d0 bd 75 69 3b 84 cb 45 bc 70 a3 eb 3b 18 e4 ff bb
       0.0035623156 -0.012072448 0.007191114 -0.0078091733
0001e0 56 e2 11 3c be b8 95 3b 7e 2c 35 3c 7d c9 d4 ba
       0.00890406 0.004569142 0.011057971 -0.0016234365
0001f0 9a 56 b3 3b 6c a8 c0 3b 46 34 8c bb 3a df 62 bc
       0.00547297 0.0058794525 -0.0042786924 -0.013847167

bn1.running_var f4 [128]
000000 d8 bb ae 3e 59 f7 e4 3e 7e 48 8e 3f 9f 91 18 3f
       0.34127688 0.4471996 1.1115873 0.595972
000010 ad 45 88 3e bb 5f c4 3e 8c 01 16 3f 05 c8 88 3e
       0.26615658 0.38354287 0.5859611 0.26715103
000020 f2 50 32 3f 91 dc 7b 3e 55 70 90 3e 4f 8a 6b 3e
       0.6965476 0.24595858 0.28210703 0.2300198
000030 1e 3b af 3e 0e 6b 13 3f 67 38 59 3e 9f 74 5d 3f
       0.3422479 0.5758523 0.21212922 0.86506075
000040 39 cf 23 3f e8 98 a1 3f 3c 02 19 3e 74 08 80 3e
       0.6398807 1.2624788 0.14942259 0.2500645
000050 68 c4 30 3f 29 50 80 3e 6d 7b 1f 3f bb 24 a8 3f
       0.6904969 0.25061157 0.6229771 1.3136209
000060 4f 75 3b 3f b5 8d 95 3e e7 43 7f 3e 92 a0 cd 3f
       0.73225874 0.29209676 0.24928246 1.6064627
000070 4e a3 60 3e fb e0 ca 3f b4 89 8f 3e 89 26 de 3e
       0.21937296 1.5849909 0.28034747 0.43388775
000080 5a 83 f8 3e 06 34 92 3e 33 00 5b 3f e8 de 4d 3f
       0.48537713 0.28555316 0.8554718 0.8041825
000090 90 06 07 3f c3 ae cd 3e 56 c4 66 3f 54 32 c4 3e
       0.5274439 0.40172395 0.90143335 0.38319647
0000a0 1c 2f f1 3e 54 c2 63 3e e0 81 81 3e 27 55 3e 3f
       0.47106254 0.22242099 0.252944 0.7434868
0000b0 93 58 c4 3e ab db 18 3e 29 d4 b6 3f de 09 98 3e
       0.38348827 0.14927547 1.4283496 0.29695028
0000c0 d4 50 e9 3f da 26 64 3e 85 91 3e 3f 33 ad 5a 3e
       1.8227792 0.22280446 0.74440795 0.21355133
0000d0 75 e3 85 3f d3 d0 d1 3e 36 50 44 3f 6f a1 c4 3e
       1.0460039 0.40979633 0.7668489 0.38404414
0000e0 a2 3a f9 3e b3 81 87 3e 4e 7c 9e 3f 1b 96 8d 3f
       0.48677546 0.2646614 1.2381685 1.1061434
0000f0 fa 62 1b 3e 16 ad 2a 3f df 00 bd 3e bb 44 ce 3e
       0.15174475 0.6667036 0.36914727 0.40286812
000100 08 d3 0c 3e 53 66 6e 3e d5 27 c4 3f bd b9 25 40
       0.13752377 0.23281221 1.5324656 2.5894616
000110 be 21 94 3e 60 04 7c 3e c7 d1 07 3f b4 dd 59 3f
       0.28931993 0.24611044 0.5305447 0.8510392
000120 73 01 f3 3e 03 6e 6b 3e e2 50 75 3e b4 ef 9e 3e
       0.47462043 0.22991185 0.23956636 0.31042254
000130 94 3a b2 3e cd 44 28 3f b4 2e e2 3e e5 82 a2 3f
       0.34810317 0.6572998 0.44176257 1.2696196
000140 d6 6f 3a 3f fe 48 19 3e e1 7f 9c 3f c0 b2 79 3e
       0.728269 0.1496925 1.2226526 0.24384594
000150 9a 05 72 3f 60 c3 83 3e 77 db c0 3e 86 46 b8 3e
       0.945398 0.25734997 0.37667438 0.35991305
000160 17 12 c8 3f ad e8 c8 3e 8b 22 78 3f 3a 22 92 3d
       1.563052 0.39240018 0.9692771 0.071354344
000170 7b 01 58 3f 77 c4 e9 3c 86 05 e0 3e 5a b1 ef 3e
       0.8437726 0.028536065 0.43754214 0.46814996
000180 e1 ad 65 3f df 5b 24 3f 59 91 a4 3d 43 a2 e7 3e
       0.89718443 0.64202684 0.08035535 0.45240983
000190 75 55 cc 3e 39 ef 99 3e 25 c3 81 3e 2c 30 3a 3f
       0.3990895 0.30065325 0.25344196 0.72729754
0001a0 89 6c 3f 3f 58 0d 19 3f 09 e0 a0 3f d5 42 fd 3e
       0.74774987 0.59785986 1.256837 0.4946505
0001b0 b1 11 b4 3e 87 26 62 3e 19 e5 35 3f d2 d2 b5 3f
       0.35169747 0.2208501 0.710527 1.4204962
0001c0 ce 5a a8 3e 81 f8 e2 3f 46 f6 0c 3f 91 df 61 3e
       0.32881778 1.7732087 0.55063283 0.2205794
0001d0 7c 39 13 3f 91 fa d6 3e 54 5b e1 3e 15 e2 d2 3e
       0.5750959 0.41988042 0.4401499 0.41188112
0001e0 17 24 92 3f 36 f8 03 3e 0a e3 f3 3e 31 6c 3e 3e
       1.1417264 0.12887654 0.47634155 0.18595959
0001f0 56 33 a1 3e 04 55 c8 3f fa 35 28 3e 95 25 88 3e
       0.3148448 1.5650945 0.1642684 0.26591173

layer2.weight f4 [128, 128]
000000 72 da 92 be 9e 24 06 be c3 eb 9d 3d b9 3d 55 3d
       -0.28682286 -0.13099906 0.077109836 0.052060816
000010 cb 28 5c bc 05 e2 9c be 9e 1b db bd c4 85 08 be
       -0.01343746 -0.3064119 -0.10698627 -0.13332278
000020 71 9e 5e 3d 6c 22 ac 3a ea a2 47 bd f8 71 cb 3b
       0.05435032 0.0013132817 -0.04873935 0.0062086545
000030 81 5f 2b 3d a7 a0 cb 3c 29 c1 b3 3d 5f 3d ca 3c
       0.041839126 0.024856878 0.08777077 0.024687467
000040 15 3e ed 3d e5 13 28 bd 2a a8 01 3d 14 a9 e3 3d
       0.11584107 -0.041034598 0.031654514 0.111162335
000050 cd f7 43 be c2 56 35 3d 63 83 ce 3b d4 f7 69 bd
       -0.19137497 0.04427219 0.0063022836 -0.057121113
000060 23 c4 9a 3c 9d cc 8c bb ee 87 17 be 98 47 90 bd
       0.018892353 -0.0042968527 -0.14797947 -0.070449054
000070 58 58 c6 bd ed 99 9f bd 9d e8 48 3c b2 5a 94 3b
       -0.09684819 -0.07793031 0.012262491 0.0045274133
000080 e6 ac 88 be 4f d2 57 3c c6 55 2b bd 8b 77 51 3c
       -0.2669441 0.0131727 -0.041829847 0.012784849
000090 25 28 0d be c1 80 b9 bd 72 a8 2e be d7 1d 82 bd
       -0.13784845 -0.09057761 -0.17056444 -0.06353348
0000a0 1d 6d 1e 3d 6d f2 de bc a2 ef e9 bd da 48 f1 bd
       0.038678277 -0.027215207 -0.114226595 -0.117814735
0000b0 15 ef e3 3c d4 a1 2c bd 48 1c d2 bd de 13 47 3a
       0.027823964 -0.04214652 -0.102593005 0.0007594208
0000c0 31 ea 15 be 37 49 be 3d 81 79 34 be dd 17 e2 3d
       -0.14640118 0.092913084 -0.17624475 0.11039708
0000d0 1b 4f 18 be c7 8d 91 bc 4a 29 20 bd d6 51 e1 bd
       -0.14873926 -0.0177678 -0.039101876 -0.11001937
0000e0 b3 a5 1e 3d df 17 c0 3d f4 1a c4 be fa d1 45 be
       0.03873224 0.09379553 -0.38301814 -0.19318381
0000f0 6f be 05 bd 12 ad a6 bd f7 c0 88 3d 14 1e 17 bd
       -0.032652315 -0.08138479 0.0667743 -0.03689392
000100 c3 f4 84 3d 07 29 9f 3b 27 54 f4 bd 25 74 be bd
       0.06491997 0.0048571858 -0.11930113 -0.092994966
000110 7f 2c ac bd c8 8a 6c bc 4d 17 ce 3b 63 f7 ae 3c
       -0.084069245 -0.014437385 0.0062893988 0.021358198
000120 74 50 b2 bb 8f 30 02 3c c6 a2 ca 3d 3c 4c 9d 3b
       -0.0054417197 0.007946148 0.09894328 0.0048003476
000130 43 b5 98 bd f6 3c 41 bd 1a 93 3a be 7a e2 6d be
       -0.07456448 -0.047177278 -0.18220177 -0.23230925
000140 18 d5 99 bd a3 07 61 bc de 98 38 be 52 51 1b bd
       -0.075113475 -0.013734731 -0.18027064 -0.03791935
000150 6d db 24 be 89 e5 a1 3d 34 36 d4 3d f8 65 80 bc
       -0.1609933 0.079051085 0.10361901 -0.015673622
000160 85 f3 6c bc c3 df a9 3d 20 73 38 bd c2 55 63 bd
       -0.014462356 0.08294632 -0.045031667 -0.055501707
000170 0c dc 32 be 09 12 5e bd e4 46 1b 3d 93 ad 28 3d
       -0.17466754 -0.05421642 0.037909403 0.04118116
000180 30 f8 1e be 57 0c ae bd ef 4c c3 bd 53 c5 6f 3d
       -0.15524364 -0.084984474 -0.09536158 0.058537792
000190 d2 0d 27 bd 9d a4 ba bc 3e 21 a9 3c 96 a9 65 3c
       -0.040784664 -0.022783572 0.020645734 0.014017483
0001a0 52 10 0a 3e 25 81 f9 bc 76 33 68 be d5 8c 7a be
       0.13482788 -0.030457089 -0.22675881 -0.24467786
0001b0 99 16 bb bd 98 dd 10 3d 08 b0 36 3d 07 d4 d5 bd
       -0.091351695 0.03536758 0.04460147 -0.10440832
0001c0 2b c5 ea 3c 46 09 ec bd 81 86 3c 3d 89 8c 8b bd
       0.02865847 -0.11525206 0.04602671 -0.06813914
0001d0 24 6f 1f bd d9 6d 83 bd 9d ba a6 3d 1d 42 88 3b
       -0.03892435 -0.06417436 0.081410624 0.004158272
0001e0 7a bb 6e 3d 28 24 ef 3a 32 de 81 3c dd 77 02 3c
       0.05828426 0.0018245028 0.015853021 0.007963148
0001f0 71 96 fa bd 79 05 95 bd 4d 15 26 3d 49 4e ff bc
       -0.12235726 -0.072764345 0.040547658 -0.031165259
000200 4d 2c 94 bd a0 ec a0 3c 4b 91 95 3c 48 27 0f bc
       -0.07235012 0.019644082 0.018257758 -0.008737393
000210 53 b2 81 3c 21 f8 38 be a8 39 c5 3d 3b 86 9f be
       0.015832102 -0.18063404 0.09630138 -0.31157097
000220 2b cd 88 bd 67 9d 64 3d cc 5b 01 3c 85 be 9a bc
       -0.06679758 0.055814173 0.007895421 -0.018889675
000230 f7 4b 98 bc 17 1d 6d 3d f3 2c fa 3c 96 eb 3d be
       -0.01859091 0.05788907 0.030539012 -0.185469
000240 9b 13 a4 3a 3d 68 b5 bd 21 33 83 3b 0e f9 e7 bd
       0.001251805 -0.088577725 0.004003898 -0.113268
000250 2f 15 81 be 9c d8 f0 3c cd 60 cd bd 6b d8 30 be
       -0.25211474 0.029400162 -0.10028229 -0.17270057
000260 57 dc 1d bd bc 5d e7 3d 8c 75 d2 3c fa af b4 bd
       -0.03854021 0.11297175 0.025690816 -0.08822627
000270 ef 75 ef 3c 20 1f 99 be 56 f0 8c 3d 3d c1 7d bd
       0.02923104 -0.2990656 0.06881778 -0.061951865
000280 44 79 b0 bd 6e 46 0d be ac ce ac be 48 bb 3d bd
       -0.086168796 -0.13796398 -0.33751428 -0.046321183
000290 b1 a2 17 bc dc 41 e4 ba 50 8b d1 bd 92 7d 44 3d
       -0.009255097 -0.0017414647 -0.1023165 0.047971316
0002a0 80 85 03 3e 3a 1d 01 3b 37 cd 22 be 8c 32 2f be
       0.12843895 0.0019701258 -0.15898596 -0.17109126
0002b0 12 cb b7 3d 11 51 6e bd 68 c6 cd bd b9 ab e3 b9
       0.089742795 -0.05818278 -0.100476086 -0.00043424757
0002c0 cf 25 97 bd c6 38 99 3d 2a cf 2e be 67 d3 92 3d
       -0.07380258 0.07481532 -0.17071214 0.07169228
0002d0 7c 0c e6 bd 69 c9 1c 3d ea 0f 91 bd ea 90 93 3d
       -0.1123285 0.038278017 -0.070831135 0.072053745
0002e0 0d a2 5d 3b fa 90 1b 3c e8 18 fa bd b8 10 5d be
       0.0033818514 0.009495014 -0.12211782 -0.21588409
0002f0 22 ed 8c bc db 1b a1 bd 0a 5b a3 3d 31 69 a9 be
       -0.017202917 -0.07866641 0.07976349 -0.33088067
000300 48 29 eb 3d 49 70 4c 3d 34 2c 8e be d0 44 cc bc
       0.11482483 0.04991177 -0.277681 -0.024935156
000310 43 a0 62 bd ab f6 be bc de 6d f5 bd 0c 01 97 bd
       -0.05532862 -0.02331098 -0.11983846 -0.073732466
000320 f8 d4 64 3c d2 14 13 bc aa 9e 65 3d bd fb a5 3b
       0.013966791 -0.008977132 0.056059517 0.00506541
000330 37 07 92 3c 15 9c 39 3d de 42 86 bc 42 6a 5b be
       0.017825706 0.045314867 -0.016389307 -0.21427253
000340 c0 56 d7 3c 29 95 34 3d 9c c7 f7 bd 40 8e 20 3d
       0.026286483 0.044087563 -0.12098619 0.03919816
000350 5d c4 a0 be a7 64 12 3d f9 ac 7c bd 8d 96 be 3d
       -0.31399813 0.03574052 -0.061688397 0.09306059
000360 4d ac 89 bd cc 96 a8 bc 01 31 a3 bb 02 4c 00 bd
       -0.06722317 -0.020579718 -0.004980207 -0.031322487
000370 5c 95 89 be 65 f4 b0 bd 42 0f 81 3b 8a 2f cf bc
       -0.26871765 -0.086403646 0.0039385865 -0.025291223
000380 0c ba 07 be 9f 8b 2a be 75 2c d4 bd 29 8c aa bc
       -0.13254565 -0.16654824 -0.10360042 -0.020818787
000390 18 55 d4 bd 88 33 74 bc 0f 78 27 3d c6 bb 81 be
       -0.10367793 -0.014904864 0.04088598 -0.25338572
0003a0 ce 46 41 3c d0 ea 49 bd 0c 44 c8 bd ad e5 0a 3c
       0.011796666 -0.0492962 -0.09778604 0.008477611
0003b0 e6 ea ab bc 75 f6 47 bd cc 8e 03 3d 8a 85 90 bd
       -0.020986032 -0.048819024 0.032118604 -0.070567206
0003c0 cb f8 93 3d 4e 11 0a be 02 e8 40 3d 42 ce 42 3d
       0.07225188 -0.13483164 0.04709626 0.047559984
0003d0 3f ec a0 bd 0c f3 26 b9 3d 17 35 3c 94 0c eb 3d
       -0.0785756 -0.00015921536 0.011052904 0.114770085
0003e0 2e 08 7a 3d 91 86 a0 bc 02 de b8 3b 6d 70 8d 3c
       0.061042957 -0.019595416 0.0056417 0.017265523
0003f0 9b 73 2b 3c ee f3 31 be f8 aa bf bd 62 69 c0 3d
       0.010464574 -0.17378208 -0.093587816 0.093951

layer2.bias f4 [128]
000000 6c 9c a4 b7 9f 2b 4d b6 ac 71 09 37 6a 57 da 34
       -1.9623163e-05 -3.0572771e-06 8.192303e-06 4.0669266e-07
000010 15 cd 0e b3 68 82 50 b7 ba 77 a7 b5 84 a0 8e b5
       -3.3248472e-08 -1.2428129e-05 -1.2477315e-06 -1.0626541e-06
000020 ca f3 8e b5 7f e9 28 33 6f e3 9c 35 e0 3f 6b b5
       -1.0650776e-06 3.932791e-08 1.1689098e-06 -8.763727e-07
000030 42 98 eb b7 d4 f6 96 34 00 f7 cc 34 ec b2 2d b3
       -2.8085084e-05 2.8119268e-07 3.8177677e-07 -4.044243e-08
000040 f9 04 ae 33 d0 e4 27 33 66 9f 3f 35 a8 c4 e2 36
       8.103411e-08 3.909082e-08 7.1385e-07 6.7582187e-06
000050 c2 2e d0 30 20 98 f8 b4 7f c0 5a 36 54 b1 47 b4
       1.5147281e-09 -4.6304285e-07 3.259658e-06 -1.8597831e-07
000060 e3 15 25 34 66 61 83 33 ec b4 dd 34 e6 98 b7 b5
       1.5374785e-07 6.1178795e-08 4.1296096e-07 -1.3679062e-06
000070 b0 60 fb b4 60 49 9f 34 1b 4c 1c 33 2e 7c 5e 32
       -4.6822743e-07 2.9669445e-07 3.6390798e-08 1.2950336e-08
000080 c1 ed f3 b2 90 4d 9e b1 18 7e ce b7 10 13 22 36
       -2.8397041e-08 -4.607223e-09 -2.461583e-05 2.4150977e-06
000090 c0 81 88 b1 b8 a4 1f 36 f8 36 cb b0 e1 f9 70 34
       -3.972872e-09 2.3788725e-06 -1.4785817e-09 2.2442647e-07
0000a0 44 d9 cb 35 c2 e0 0c b2 70 84 ce 30 a3 86 97 37
       1.5187911e-06 -8.2001765e-09 1.5026114e-09 1.8063298e-05
0000b0 1c f1 8c b3 e4 21 28 b6 4e 32 1c 35 03 bb 1e b5
       -6.5631156e-08 -2.5053678e-06 5.818773e-07 -5.9131725e-07
0000c0 11 54 7c 36 14 01 d6 33 cc 41 19 b5 0e 88 44 b7
       3.759986e-06 9.965348e-08 -5.709269e-07 -1.1714188e-05
0000d0 43 52 3c b3 fd 8f 70 b2 b2 45 f5 b4 58 de db b4
       -4.3846978e-08 -1.4002578e-08 -4.5685516e-07 -4.0953705e-07
0000e0 e0 5e c8 33 ac de f3 31 b2 2b cd 35 86 fb c6 b2
       9.3304834e-08 7.0975457e-09 1.5286407e-06 -2.3164613e-08
0000f0 7c fe cf b2 88 02 4a 33 4d 1c f7 b2 2c f0 46 b6
       -2.4213698e-08 4.7034092e-08 -2.8767454e-08 -2.9644098e-06
000100 ab 90 86 b4 98 d9 98 31 95 05 55 35 f4 27 63 b2
       -2.5064705e-07 4.4485198e-09 7.9356806e-07 -1.3222223e-08
000110 93 51 c5 b7 3e a0 ea 33 70 b8 9e 34 fe 5d c2 b7
       -2.3522216e-05 1.0925622e-07 2.956399e-07 -2.317037e-05
000120 45 83 5f 32 a2 cc 9d 35 d0 58 8e b6 61 79 22 37
       1.3010156e-08 1.1756968e-06 -4.242269e-06 9.684213e-06
000130 56 17 b1 32 5d a7 88 b7 6c 3f 42 34 e1 e9 59 36
       2.0616124e-08 -1.6290398e-05 1.809073e-07 3.2471655e-06
000140 6f 27 5e b3 95 2a 3e b4 ed d1 0e 34 4c c6 8d b4
       -5.1724268e-08 -1.771062e-07 1.3301151e-07 -2.6407577e-07
000150 cf 8c 33 32 c9 be cc b1 62 97 c5 b5 b0 dd a2 31
       1.04511875e-08 -5.958871e-09 -1.4721702e-06 4.7400235e-09
000160 46 4b 64 b4 e0 15 a6 b3 92 c8 84 b5 62 cb 35 33
       -2.1261539e-07 -7.7339564e-08 -9.89314e-07 4.2327322e-08
000170 28 78 50 b6 c4 5d 2c b3 d2 b9 de 32 a8 8e 98 37
       -3.1064355e-06 -4.013215e-08 2.5928703e-08 1.8186242e-05
000180 55 ea 2c 36 6d d1 8a b6 7f e8 8f b8 b7 22 37 38
       2.5766396e-06 -4.137101e-06 -6.862077e-05 4.366293e-05
000190 47 e9 39 b3 5c 04 41 b1 84 a6 b9 b6 91 14 3b 38
       -4.3285834e-08 -2.8087674e-09 -5.5328146e-06 4.460343e-05
0001a0 f5 b7 28 32 ea 09 f3 b4 08 b6 b1 35 6c cf 3f 36
       9.820714e-09 -4.526949e-07 1.3240506e-06 2.8581953e-06
0001b0 00 7c c7 b1 50 74 92 33 af ad 9e b4 aa 7d a5 35
       -5.8057594e-09 6.819812e-08 -2.9556165e-07 1.2330031e-06
0001c0 ec 7f d5 b1 14 e8 d8 b4 b8 b1 e1 b4 3c 16 b6 34
       -6.213659e-09 -4.0401994e-07 -4.2038823e-07 3.391632e-07
0001d0 ca 88 8f 35 58 84 61 b3 ef 28 80 b5 d8 31 41 36
       1.0694141e-06 -5.250726e-08 -9.548656e-07 2.8788254e-06
0001e0 1f 35 57 35 6e d7 2a b4 40 75 5e 32 a5 ab 69 36
       8.017104e-07 -1.5910857e-07 1.294876e-08 3.4819616e-06
0001f0 8d c9 c8 32 a8 54 b5 33 28 55 df b5 7c 16 8e b6
       2.3374719e-08 8.443868e-08 -1.6639578e-06 -4.2345473e-06

bn2.weight f4 [128]
000000 9b 3e 76 3f ab 22 76 3f 40 47 4c 3f a4 c9 6e 3f
       0.9618928 0.9614665 0.7979622 0.9327643
000010 9e 31 77 3f 0c 7f 8d 3f 86 77 73 3f a8 39 73 3f
       0.96560085 1.1054397 0.95104253 0.9500985
000020 10 d9 71 3f a1 64 4d 3f e3 0c 88 3f 0b 85 7e 3f
       0.94471836 0.8023167 1.0628933 0.9942176
000030 61 6e 81 3f 53 a0 75 3f f7 e1 7b 3f eb 6b 86 3f
       1.011181 0.9594776 0.9839167 1.0501684
000040 02 97 6a 3f f3 64 70 3f af f4 76 3f f9 c4 6f 3f
       0.9163667 0.93904036 0.9646711 0.9365993
000050 82 d5 50 3f 4d c4 85 3f 69 31 60 3f f7 8a 72 3f
       0.8157579 1.0450531 0.87575394 0.94743294
000060 1f 72 6f 3f 85 33 5f 3f d0 82 78 3f c8 e0 74 3f
       0.9353351 0.8718799 0.97074604 0.9565549
000070 9d 5c 88 3f ea ff 77 3f a6 76 65 3f 74 16 6c 3f
       1.0653263 0.9687487 0.8963417 0.9222176
000080 39 3c 83 3f ad 67 70 3f 45 a4 5f 3f 27 18 6c 3f
       1.0252753 0.93908197 0.8736003 0.92224354
000090 1e 80 7d 3f 60 74 6e 3f 76 8e 74 3f 80 30 51 3f
       0.99023616 0.93146324 0.9552988 0.8171463
0000a0 96 92 82 3f b8 51 7c 3f 1e b9 64 3f e6 c6 67 3f
       1.0200984 0.9856219 0.89344966 0.9053787
0000b0 25 38 82 3f 69 b0 6a 3f 09 f9 6b 3f 1e bb 77 3f
       1.0173384 0.9167543 0.9217687 0.96769893
0000c0 7a 36 41 3f 5a 97 84 3f b9 04 75 3f 74 60 6f 3f
       0.7547375 1.0358689 0.9571033 0.9350655
0000d0 1e 36 69 3f 2f 5d 64 3f 8a b1 70 3f c3 29 63 3f
       0.910982 0.89204687 0.94020903 0.887356
0000e0 91 75 5d 3f 65 2e 76 3f 1b 57 73 3f d9 8b 6f 3f
       0.8650752 0.9616454 0.9505479 0.93572766
0000f0 3d 2e 81 3f 03 8d 78 3f e5 96 70 3f f1 20 89 3f
       1.0092236 0.97090167 0.93980247 1.0713178
000100 eb 07 72 3f 6d f3 7d 3f 41 a5 72 3f 20 3c 6d 3f
       0.9454333 0.99199563 0.9478341 0.9266987
000110 ec cb 75 3f 61 89 64 3f b7 86 77 3f 62 cb 6a 3f
       0.96014285 0.89272124 0.96689934 0.9171659
000120 52 10 73 3f 1d 62 83 3f d1 de 64 3f c9 af 5c 3f
       0.9494678 1.0264317 0.8940249 0.86205727
000130 42 65 5c 3f ad 16 6b 3f ed 74 7e 3f 14 0e 75 3f
       0.8609201 0.91831475 0.99397165 0.95724607
000140 51 35 75 3f d1 6a 56 3f 4b 2f 87 3f 61 92 35 3f
       0.9578448 0.8375674 1.0561308 0.7092648
000150 70 14 73 3f 3d 6f 4d 3f 04 a1 72 3f 1f 5b 6e 3f
       0.9495306 0.8024786 0.9477694 0.9310779
000160 72 6f 60 3f c9 b6 63 3f e5 60 73 3f ef bc 59 3f
       0.8767005 0.88950783 0.95069724 0.85053915
000170 0e cf 6d 3f 42 1f 72 3f 25 e2 6c 3f 27 52 84 3f
       0.92894065 0.94578946 0.9253257 1.0337571
000180 8b 22 84 3f 1a f8 7b 3f b8 83 7d 3f 49 2f 41 3f
       1.0323042 0.9842545 0.9902911 0.75462776
000190 5c ea 83 3f 95 88 80 3f 9f 86 4a 3f 1f 6f 6b 3f
       1.0305896 1.0041682 0.79111665 0.9196643
0001a0 43 14 60 3f 8d 79 6e 3f fa 99 63 3f 45 96 72 3f
       0.87530917 0.9315422 0.88906825 0.94760543
0001b0 ad e9 75 3f ca 6c 69 3f 95 d2 7e 3f d2 e4 63 3f
       0.96059686 0.91181624 0.9954007 0.8902103
0001c0 1b 8a 59 3f 41 87 73 3f 3b c6 6b 3f a9 4d 74 3f
       0.8497636 0.95128256 0.9209935 0.95431
0001d0 95 13 68 3f 14 a5 6d 3f 87 e9 66 3f 93 1e 6a 3f
       0.9065488 0.92830014 0.90200084 0.914529
0001e0 c7 f0 84 3f 71 4a 75 3f 25 cf 7a 3f 99 59 75 3f
       1.038598 0.95816714 0.9797233 0.9583984
0001f0 85 45 64 3f 54 f6 75 3f 30 58 80 3f 44 c3 7d 3f
       0.8916858 0.9607899 1.0026913 0.99126077

bn2.bias f4 [128]
000000 86 7b 25 be 77 e4 fd bd 88 47 c4 bd 16 bc 11 be
       -0.16160402 -0.12397092 -0.09583956 -0.14231905
000010 64 e9 70 be e2 4a 82 bd fe 56 8c be f2 3b 80 be
       -0.23526531 -0.06361939 -0.2741012 -0.25045735
000020 86 30 2b be f9 85 21 be d1 bf 0a 3b 95 bb 1c be
       -0.16717729 -0.15773763 0.002117146 -0.15305932
000030 05 0a d2 be 08 a9 15 be ee f2 d5 bd ca 1e 13 be
       -0.4102327 -0.14615262 -0.10446726 -0.14367214
000040 ab 22 a8 be 7d ae b5 be ec b7 77 be ff b6 12 be
       -0.3283895 -0.35484686 -0.24191254 -0.1432762
000050 5e 3e 58 be 2b 1f 91 be 8b 76 07 be d4 e9 b7 be
       -0.21117541 -0.28344092 -0.13228814 -0.35920584
000060 69 28 12 be 47 36 87 be 80 38 1e be 25 ff 9d be
       -0.14273228 -0.26408598 -0.1545124 -0.30858722
000070 0e e6 0f bd 9b b6 e9 bd 5b 7f ae be a5 f7 b5 be
       -0.035131507 -0.11411782 -0.3408154 -0.355405
000080 c7 5b 91 be af 4a ec bd 4c 53 73 be 24 c8 ad be
       -0.28390333 -0.11537682 -0.23762244 -0.33941758
000090 94 61 ab be 37 d6 91 be ce 65 54 bd 17 91 e5 bd
       -0.33472884 -0.28483745 -0.0518549 -0.11209314
0000a0 85 b5 2e bd 22 71 3d be e5 2d 94 be db 3a 39 be
       -0.04265358 -0.18500188 -0.28941265 -0.18088858
0000b0 d6 cf f9 bd 7b 1c 9a be b0 47 b6 be a8 19 50 be
       -0.12197845 -0.30099854 -0.35601568 -0.20322287
0000c0 15 a9 e0 bd 3f b5 9a bd bb 40 1b be bf 13 49 be
       -0.1096975 -0.07554101 -0.15161411 -0.19636439
0000d0 fe 1c 75 be 82 cc 6d be 0b fc fd bd 52 38 b0 be
       -0.23936841 -0.23222545 -0.12401589 -0.3441797
0000e0 80 ed c9 be 00 9c 94 be c7 8c 8b be 5a 8f af be
       -0.3943901 -0.2902527 -0.27255842 -0.34289056
0000f0 78 40 bd bd ac 29 c9 be b9 59 8f be f5 91 98 bd
       -0.09240812 -0.39289606 -0.2799814 -0.07449714
000100 c8 8f 99 be 64 29 c4 bd 2d d8 ee bd da 73 a6 be
       -0.2999251 -0.09578207 -0.11662326 -0.32510263
000110 33 b1 3d be de 51 30 be 5c 07 00 be da f4 01 be
       -0.18524627 -0.1721873 -0.12502807 -0.1269106
000120 76 b4 a8 be 14 19 06 be 2b 53 4f be d2 9d 5a be
       -0.3295018 -0.13095504 -0.2024657 -0.21349266
000130 a4 4e 78 be ac 21 7c be 1f 91 02 be 5d 3f c5 be
       -0.24248749 -0.2462222 -0.12750672 -0.38524905
000140 40 d5 93 bd cb c5 43 be 5c d2 5d bd c4 1f 56 be
       -0.072184086 -0.19118421 -0.054155692 -0.20910555
000150 05 f9 bd be db 81 4e be 1c 54 77 be aa 42 84 be
       -0.3710405 -0.20166723 -0.24153179 -0.2583211
000160 56 e9 78 be 28 e6 78 be 52 b4 9b be 62 2c f2 bd
       -0.2430776 -0.24306548 -0.3041101 -0.118248716
000170 23 97 40 be f2 0a 13 be fc dd 04 bd a8 f3 8b be
       -0.18807654 -0.14359644 -0.032438263 -0.27334332
000180 7f a8 a5 bd 22 12 42 be 09 0c 08 be c0 33 26 be
       -0.08088779 -0.1895223 -0.13285841 -0.16230679
000190 82 c3 a6 bd 39 e9 ad be 35 77 60 bd d8 2a 29 be
       -0.08142759 -0.33966997 -0.054801185 -0.1652025
0001a0 50 78 ac be 52 97 68 be f8 d9 83 be a3 e0 c1 be
       -0.3368554 -0.22713974 -0.25752234 -0.37866697
0001b0 e8 a2 94 be 59 75 8c be 15 46 09 be 40 b6 88 be
       -0.29030538 -0.2743328 -0.1340564 -0.26701546
0001c0 91 42 21 be c1 c6 ca be 8a 14 d7 be ab 28 c4 be
       -0.1574805 -0.39604762 -0.42007858 -0.38312277
0001d0 92 7c d7 be d5 e3 4c be c5 a0 a9 be a1 9d 58 be
       -0.42087227 -0.20008786 -0.3313047 -0.2115388
0001e0 a3 7d 2e bd 7c b2 8f be cd 1f 04 be 49 dc 54 be
       -0.042600285 -0.2806586 -0.12902756 -0.20787157
0001f0 0f e9 65 be 81 de a5 be e5 9e 88 be b4 ea a4 be
       -0.22452186 -0.3239632 -0.26683727 -0.32210314

bn2.running_mean f4 [128]
000000 ea 8d 1a bf 02 9d 1f bf 7c ff de be 55 d3 12 3e
       -0.60372794 -0.6234895 -0.43554294 0.1433843
000010 8c 2b ab 3c 43 d9 6d be c8 e5 58 3f 95 55 15 3d
       0.020894788 -0.2322741 0.8472562 0.03645857
000020 e1 e3 a4 be c5 6d 29 bf fc 98 10 bf 3b a0 36 bf
       -0.32205108 -0.6618312 -0.56483436 -0.7133824
000030 d8 89 8a 3f 7c 5c dd be e9 65 08 bf 47 2d 0a bf
       1.0823317 -0.43234622 -0.532805 -0.5397534
000040 9a 0f 48 bd 9d 64 53 be e8 5c 47 bf 15 5c 5b 3e
       -0.048843004 -0.2064385 -0.7787614 0.21421845
000050 98 87 56 3e 32 05 49 3f 3c 98 a3 bd 3c 0a 1d be
       0.20950162 0.7852355 -0.07988021 -0.15335935
000060 fe e9 14 bf 2e 18 89 bd e3 86 0e bf f3 82 84 3f
       -0.58169544 -0.06694065 -0.5567457 1.0352463
000070 ef 13 f9 be e4 bf ca be 0e f8 15 be cc 5b 15 be
       -0.4864802 -0.39599526 -0.14645407 -0.14585799
000080 76 f2 88 3f fb 27 e0 be d0 8c e1 3e 03 b2 96 3e
       1.0698993 -0.43780503 0.44052744 0.29432687
000090 26 25 b9 3e fd 65 63 be 6c 5e 49 be 88 0c 7b bf
       0.36161155 -0.22206874 -0.19664925 -0.98065996
0000a0 04 3c c5 be 5f eb 18 bf 44 1e d0 bd 7e 13 e3 bd
       -0.3852235 -0.5973415 -0.10162023 -0.11087702
0000b0 05 e7 05 bf a5 8c 73 be 99 50 49 be 3a 7b 15 3f
       -0.5230563 -0.2378412 -0.19659652 0.58391154
0000c0 21 22 02 bf f3 0d 03 bf 03 63 87 be 6d 3f b6 bc
       -0.50833327 -0.5119316 -0.26442727 -0.02224704
0000d0 15 7f 21 be d1 2e 49 be 94 8f 8d 3e 65 2f e8 bd
       -0.15771134 -0.19646765 0.27648604 -0.11337165
0000e0 f3 fb d0 3c ad 1f ba 3e 60 79 a5 be d6 99 44 be
       0.025510764 0.36352292 -0.32319164 -0.19199309
0000f0 ee 38 cb be 5f 60 6d 3e 90 36 af be cb aa c2 be
       -0.3969187 0.23181294 -0.34221315 -0.3802093
000100 a0 dc 5c 3f ca c9 0a bf dc 62 ce be c2 7b f4 3e
       0.8627415 -0.54214156 -0.403098 0.4775067
000110 d8 42 ae bd 88 e6 02 be 19 4f 1c bf 2b 46 cd be
       -0.08508843 -0.12783253 -0.61058193 -0.40092596
000120 96 29 87 3f a4 0d d4 be a7 4e 6b be f8 ed 9d 3e
       1.0559566 -0.41416657 -0.22979222 0.30845618
000130 bf ab 1f 3f 73 af 66 bf f0 83 fa be 66 e6 c1 bd
       0.6237144 -0.90111464 -0.48928785 -0.09467773
000140 d7 a4 e2 be 4e ac b8 3c 96 ed 04 bf 7a db 3a bf
       -0.44266388 0.022543099 -0.5192503 -0.72991145
000150 d6 19 33 3e 4d 99 b1 be 4d 4c 4f 3f e2 4a bf bc
       0.17490324 -0.34687272 0.809758 -0.023351137
000160 4f 5b 44 be 5f 68 42 be 1e 40 7b be 23 8b 72 be
       -0.19175456 -0.18985127 -0.24536178 -0.23685889
000170 7e b3 44 3f 1e 10 f1 be 32 fb b8 be 78 1f 29 3f
       0.76836383 -0.4708261 -0.36129147 0.6606364
000180 90 9a c6 be 61 12 d1 bd 90 0d 25 be f0 f7 5f bf
       -0.38789797 -0.102085836 -0.16118455 -0.874877
000190 73 d3 1f bf 35 9c 53 3f 1a 51 20 bf 71 9c aa 3d
       -0.6243202 0.8266023 -0.6262375 0.0833062
0001a0 9c 9e ac be 43 d3 90 be 3f c1 b3 be a8 4b 57 bd
       -0.3371476 -0.2828618 -0.35108373 -0.052562386
0001b0 ab 55 80 be 4f 50 15 be fa 5a 05 bf 9c 23 86 be
       -0.2506536 -0.14581417 -0.52091944 -0.26199043
0001c0 59 1a a6 bd 90 95 33 3e c1 b8 9f 3c 47 5d ff 3e
       -0.08110494 0.17537522 0.019497277 0.49875852
0001d0 93 40 9b 3e d7 6c 43 bf 24 c9 0e be 4c 57 70 3c
       0.30322704 -0.7633795 -0.13943917 0.014669251
0001e0 ab 2a fa be 46 4b 4f bd 2f e1 0d bf 87 04 2e bf
       -0.48860678 -0.050608896 -0.5542173 -0.6797566
0001f0 cd 16 c5 bd 36 1d 44 be e5 26 80 3f be 21 36 3f
       -0.096234895 -0.19151768 1.001187 0.71145236

bn2.running_var f4 [128]
000000 6a 06 b3 3f 01 8a 0a 40 1e 9e 9f 3e 96 69 be 3e
       1.3986332 2.164673 0.3117532 0.3718993
000010 a3 1c 52 3e 54 f9 df 3f 1b 2f 1c 3f 16 66 77 3f
       0.20518737 1.7497964 0.6100938 0.96640146
000020 1e dd f5 3f 51 d0 03 3f b6 2c d4 3f a9 7d 03 40
       1.9208105 0.5148974 1.6576145 2.0545447
000030 d4 72 46 3f 38 2e f3 3f 26 3e 85 3f 5a 85 cc 3f
       0.77518964 1.899848 1.0409591 1.5978196
000040 8e 1b 6b 3f 53 87 18 3f 1d be 26 40 73 80 3f 3f
       0.9183892 0.5958149 2.6053536 0.7480537
000050 bd fd 4a 3f 8b 05 00 3f 99 6f a7 3f f0 20 8a 3f
       0.79293424 0.5000846 1.3080932 1.0791302
000060 ea a2 1d 40 bc 26 40 3f 2d d5 b9 3f c9 37 2a 3f
       2.4630685 0.75059104 1.4518181 0.6649137
000070 75 8d df 3f cd d4 cf 3f be 5d 24 3f 1c 19 12 3f
       1.7465044 1.6236817 0.6420554 0.57069564
000080 b4 4f 14 3f dc 69 e8 3f 7e 6a f7 3e f1 1e 0d 3f
       0.5793412 1.8157306 0.48323435 0.5512534
000090 3b 2a 9e 3e 83 d7 9e 3f 11 f4 26 40 b2 8b 02 3f
       0.30891594 1.2409519 2.6086466 0.5099441
0000a0 16 ff bd 3f 5e e6 d8 3f 68 01 72 3f e2 27 71 3f
       1.4843471 1.6945302 0.94533396 0.9420148
0000b0 2a 5b 19 40 c6 96 96 3f f8 c5 0c 3f d8 9f d0 3e
       2.3961892 1.1764762 0.54989576 0.4074695
0000c0 8a 10 06 3f 85 79 05 40 1c 44 da 3f f1 01 4a 3f
       0.52368987 2.085542 1.7052035 0.7890921
0000d0 46 1b 93 3f 4b 9b 80 3f 33 b1 c5 3e 1b 60 63 3f
       1.1492698 1.0047392 0.38611755 0.8881852
0000e0 2a 8c 10 3f d2 7d 98 3e 06 ce ac 3f 44 00 27 3f
       0.56463873 0.29783493 1.3500373 0.6523478
0000f0 69 6a f5 3f e4 58 0e 3f 89 93 a5 3f 6d c9 db 3f
       1.9173099 0.55604386 1.2935649 1.7170845
000100 7b 45 06 3f 31 9b 2e 40 ac 93 a9 3f 98 17 19 3f
       0.5244977 2.7282221 1.3248191 0.59801626
000110 9b a0 48 3f be e3 99 3f 0b 22 13 40 43 6d a6 3f
       0.78370064 1.2022626 2.2989528 1.3002094
000120 bf 9b 37 3f 03 b9 20 40 81 f9 8b 3f 74 02 c1 3e
       0.71722025 2.5112922 1.0935518 0.37697184
000130 fa 47 2c 3f 8d cd 0c 40 45 77 eb 3f 4a 7d 74 3f
       0.6729733 2.2000458 1.8395773 0.95503676
000140 a4 c9 58 3f 11 66 8c 3e d0 3c e1 3f f5 07 ee 3e
       0.8468268 0.2742162 1.7596684 0.46490446
000150 38 e2 bb 3e 55 37 44 3f ac 5e 12 3f 30 d3 16 3f
       0.3669603 0.7664693 0.5717571 0.58915997
000160 bb e2 9a 3f da 7b 78 3f 05 43 0d 3f 21 fe 63 3e
       1.2100443 0.9706398 0.5518039 0.22264911
000170 c2 14 12 3f 52 e3 0d 40 1d 89 17 3f b4 1d e9 3e
       0.57062924 2.2169995 0.59193593 0.45530474
000180 b3 17 a8 3f fb c7 78 3f b2 e7 89 3f c4 5c 1f 3f
       1.3132232 0.97180146 1.0773833 0.62250924
000190 9b 42 08 40 c1 2d 1c 3f 8d 4e a6 3f 8b 33 70 3e
       2.1290653 0.61007315 1.2992722 0.23457162
0001a0 43 cd 14 3f 94 7f a5 3f 8a f5 a3 3f fe c8 f1 3e
       0.58125705 1.2929559 1.2809308 0.47223657
0001b0 9b ff 2a 3f d9 ad fb 3e 64 f9 07 40 d9 69 6f 3f
       0.66796273 0.49156073 2.1245966 0.93520886
0001c0 9a 14 69 3f fc 76 cc 3e 25 95 3c 3f a4 60 39 3f
       0.9104706 0.39934528 0.73665076 0.72413087
0001d0 95 5b ee 3e 45 6e 08 40 ad 28 88 3f 1b 3e 51 3f
       0.46554247 2.1317303 1.0637413 0.8173539
0001e0 04 72 0c 40 74 64 34 3f 85 2a c3 3f 75 91 2d 40
       2.194459 0.7046578 1.5247351 2.712003
0001f0 a9 a6 99 3f 1e 68 7f 3f 0c d2 12 3f d9 0b f5 3e
       1.2003986 0.99768245 0.57351756 0.47860602
