simple_mlp_zprime_new_cos_anl/version_0/checkpoints/epoch=49-step=11750.ckpt (torch, 69784 bytes, 18 tensors)

layer1.weight f4 [64, 10]
-0.37094724 -0.05268298 -0.013160997 0.22483455 0.19948785 -0.4611432 0.003511848 -0.34787074
-0.3314822 0.120509304 -0.45356068 -0.16783965 0.036082402 -0.099536225 0.022544324 -0.2890887
0.04282584 0.39925638 -0.042446908 0.13504626 0.5704833 0.11003052 -0.22861932 -0.114016004
-0.3510121 -0.20235142 0.2722546 -0.007224954 -0.036425225 0.15946399 0.66990334 0.0071841734
0.5084663 0.6949018 -0.43470895 -0.09828464 0.16771059 -0.09455018 -0.16627896 -0.13278867
-0.784437 0.07132089 -0.22373086 -0.13383766 0.11431065 0.05674954 -0.17370299 0.1939456
-0.29199636 0.094220944 -0.43642578 -0.041566156 0.06328656 0.092739336 0.41129106 -0.007932313
0.015143766 0.14936833 0.13498448 -0.0019229897 -0.8807481 -0.0027766482 -0.0072278474 -0.0024599775
-0.01700537 -0.0014057175 -0.0051643965 -0.008506406 -0.28491578 0.015312883 -0.51967937 -0.34408963
0.11283532 -0.0029157419 0.16057657 -0.23952024 0.10245467 -0.17279842 -0.10713704 0.053806998
0.67112476 0.0064141653 -0.46222746 0.09229427 0.26628086 -0.00011413562 0.5086458 0.1378283
-0.07610211 -0.03420368 -0.39466736 -0.10253049 0.3276425 -0.39500856 0.08049404 -0.16014808
0.21747385 0.5648873 -0.5160045 -0.0048031607 0.07143388 -0.09461952 -0.14789172 -0.34814316
-0.56157106 0.012982334 0.14973637 -0.39676565 -0.115543805 -0.09987488 -0.10140652 0.25886327
0.46788487 0.14728945 -0.12250989 0.37524545 0.3100843 -0.03851719 -0.11444437 -0.09196633
-0.011522143 0.054391477 -0.0073668812 0.27546573 0.4191667 0.49032912 -0.11941633 -0.49812207
-0.10682592 0.05368873 0.6176267 0.09893814 0.081752986 -0.09484712 0.3322765 0.12539211
0.22317639 0.016340513 0.3087878 0.06479305 0.16240323 -0.09665446 -0.13291323 0.96464443
0.13302112 0.02912788 -0.29599106 -0.45307904 -0.017146964 0.14574005 -0.22580914 -0.28333732
0.019836629 0.6114556 0.04947809 -0.12653494 -0.06580306 -0.07362581 0.11966706 -0.11411639
0.6444791 -0.062142417 0.32084233 -0.19574422 0.17994647 -0.07871964 -0.2668983 -0.18007584
0.018751347 -0.02046755 -0.50484747 0.32134253 -0.045979142 0.19515261 -0.21698205 0.19436382
0.020278662 -0.105901584 -0.17961448 -0.12582219 0.115566894 0.049287595 -0.1485723 -0.30414432
-0.20915578 0.042667687 -0.110784106 0.046638016 0.25846925 0.010379606 0.28529173 0.31564444
0.2727411 0.13781841 -0.03743754 -0.29098234 -0.11999406 -0.48122883 -0.053320475 0.14538397
0.35895556 -0.03465503 0.020264376 -0.111454315 0.031246085 0.03851548 0.2361144 -0.28977334
0.16216274 0.38099498 -0.15356037 -0.05839329 0.07983763 -0.29051507 -0.0008030499 -0.29659098
-0.08874002 0.32866642 0.11023272 -0.06257031 -0.51168066 0.13839251 -0.101312086 0.14982253
-0.13323241 0.19747847 0.07031842 0.17487976 0.16078578 -0.027885068 0.0522214 -0.08016011
-0.22248721 0.1880723 -0.23230773 0.05810746 -0.090429954 0.039935134 0.07408975 0.0037544116
0.5332568 -0.1336787 0.30376756 0.06788004 -0.017603751 -0.045905687 -0.40526223 0.17661472
0.15841067 0.113063484 0.48046622 0.18341799 -0.03840727 -0.10627684 -0.097686514 -0.24650072
00000000: ccec bdbe 1cca 57bd 39a1 57bc 073b 663e
00000010: 8b46 4c3e f61a ecbe 0827 663b 1d1c b2be
00000020: 09b8 a9be 95cd f63d 1b39 e8be 28de 2bbe
00000030: 24cb 133d a6d9 cbbd e0ae b83c 6f03 94be
00000040: 266a 2f3d 556b cc3e cfdc 2dbd 9149 0a3e
00000050: 320b 123f ae57 e13d 2f1b 6abe 3981 e9bd
00000060: dcb7 b3be 3635 4fbe f464 8b3e 4fbf ecbb
00000070: 9e32 15bd 874a 233e c97e 2b3f 3769 eb3b
00000080: d92a 023f 16e5 313f 2c92 debe 7549 c9bd
00000090: 53bc 2b3e 86a3 c1bd 0845 2abe c1f9 07be
000000a0: ddd0 48bf b010 923d b419 65be bd0c 09be
000000b0: b41b ea3d 3572 683d 32df 31be ad99 463e
000000c0: 8c80 95be e9f6 c03d 3373 dfbe 4641 2abd
000000d0: 629c 813d 1fee bd3d be94 d23e 88f6 01bc
000000e0: 8f1d 783c 03f4 183e 5f39 0a3e d40c fcba
000000f0: b578 61bf 6df8 35bb 94d7 ecbb 9337 21bb
00000100: d94e 8bbc 0d40 b8ba 193a a9bb 745e 0bbc
00000110: 7be0 91be e3e2 7a3c b509 05bf 842c b0be
00000120: 3416 e73d 0816 3fbb 2f6e 243e cb44 75be
00000130: c1d3 d13d 12f2 30be aa6a dbbd ba64 5c3d
00000140: d5ce 2b3f eb2d d23b 14a9 ecbe c704 bd3d
00000150: f755 883e 185c efb8 9c36 023f dd22 0d3e
00000160: 6cdb 9bbd 2819 0cbd d711 cabe 81fb d1bd
00000170: c2c0 a73e 903e cabe 0fda a43d dcfd 23be
00000180: 77b1 5e3e 749c 103f df18 04bf d563 9dbb
00000190: ed4b 923d e1c7 c1bd ed70 17be d23f b2be
000001a0: 1fc3 0fbf dbb3 543c 7e54 193e de24 cbbe
000001b0: 3ba2 ecbd 338b ccbd 39ae cfbd ba89 843e
000001c0: 9b8e ef3e 0cd3 163e 77e6 fabd 2c20 c03e
000001d0: 5fc3 9e3e 33c4 1dbd cf61 eabd d858 bcbd
000001e0: 5fc7 3cbc 99c9 5e3d e165 f1bb d809 8d3e
000001f0: 059d d63e 6b0c fb3e 8c90 f4bd db09 ffbe
00000200: 8cc7 dabd b7e8 5b3d c91c 1e3f 14a0 ca3d
00000210: 1c6e a73d 353f c2bd 2520 aa3e ca66 003e
00000220: 5a88 643e 8adc 853c 6f19 9e3e 38b2 843d
00000230: 084d 263e c6f2 c5bd 681a 08be f0f2 763f
00000240: b036 083e 989d ee3c 248c 97be faf9 e7be
00000250: ca77 8cbc e13c 153e 833a 67be 9711 91be
00000260: 6d80 a23c 5b88 1c3f 8aa9 4a3d 6092 01be
00000270: c1c3 86bd 21c9 96bd 0114 f53d dbb5 e9bd
00000280: 95fc 243f 0c89 7ebd 7245 a43e 2c71 48be
00000290: e343 383e c337 a1bd e5a6 88be cd65 38be
000002a0: 6d9c 993c 90ab a7bc af3d 01bf 0287 a43e
000002b0: a054 3cbd 16d6 473e 8b30 5ebe 4f07 473e
000002c0: 701f a63c eee2 d8bd dcec 37be 88d7 00be
000002d0: 56ae ec3d cae1 493d 5623 18be ceb8 9bbe
000002e0: ef2c 56be 50c4 2e3d c7e2 e2bd 8107 3f3d
000002f0: 1556 843e 390f 2a3c c211 923e 269c a13e
00000300: b9a4 8b3e 4520 0d3e 1b58 19bd a3fb 94be
00000310: 72bf f5bd a063 f6be 9266 5abd 89df 143e
00000320: 06c9 b73e 6ff2 0dbd 7a01 a63c 2942 e4bd
00000330: caf7 ff3c 68c2 1d3d f9c7 713e 2c5d 94be
00000340: fd0d 263e c611 c33e ee3e 1dbe cd2d 6fbd
00000350: e981 a33d 64be 94be c483 52ba c6da 97be
00000360: 54bd b5bd f746 a83e b1c1 e13d dd24 80bd
00000370: 81fd 02bf c4b6 0d3e b67c cfbd 146b 193e
00000380: 146e 08be cc37 4a3e 1b03 903d ae13 333e
00000390: 07a5 243e 3a6f e4bc 1be6 553d fc2a a4bd
000003a0: b0d3 63be 0696 403e 14e2 6dbe 1702 6e3d
000003b0: 5733 b9bd 0693 233d 5ebc 973d 930c 763b
000003c0: 8583 083f 12e3 08be 6c87 9b3e b104 8b3d
000003d0: be35 90bc 9a07 3cbd 887e cfbe 7dda 343e
000003e0: 6836 223e d48d e73d abff f53e edd1 3b3e
000003f0: f150 1dbd aca7 d9bd de0f c8bd af6a 7cbe

layer1.bias f4 [64]
-0.12657735 0.39244688 0.27389747 -0.12344927 0.25640795 0.128624 -0.32248664 0.17817286
0.5141562 -0.30464163 -0.3402762 -0.25741073 -0.17833088 0.10123915 0.04566342 0.34598544
0.15825607 0.15512192 -0.20986421 -0.30470008 -0.04514417 -0.034366578 -0.20465966 0.23987833
0.015837125 0.06273691 -0.07885167 0.27025273 0.1464671 -0.046531286 0.036618747 -0.094265476
-0.29469943 0.0060088285 -0.07726049 0.17813838 0.03302215 0.23579742 -0.4028095 0.31834903
-0.16819757 -0.30938095 0.31774142 0.53165436 0.18594979 0.110823125 0.13011618 -0.034446575
-0.48859897 -0.0003682495 0.09787679 -0.08764921 -0.10784405 -0.12744944 -0.28370777 -0.43488684
0.28036854 0.28403777 -0.32090914 0.21108513 -0.07423959 0.23709057 0.109238096 0.48581317
00000000: 7e9d 01be ccee c83e 4a3c 8c3e f9d2 fcbd
00000010: e747 833e 03b6 033e f81c a5be f272 363e
00000020: be9f 033f fdf9 9bbe af38 aebe 57cb 83be
00000030: 5f9c 36be 7956 cf3d 9109 3b3d 0125 b13e
00000040: e10d 223e 48d8 1e3e a5e6 56be a601 9cbe
00000050: 18e9 38bd f8c3 0cbd 4d92 51be aaa2 753e
00000060: dcbc 813c 367c 803d fc7c a1bd 915e 8a3e
00000070: 79fb 153e 9797 3ebd 8afd 153d 420e c1bd
00000080: d8e2 96be b5e5 c43b bf3a 9ebd e869 363e
00000090: 3c42 073d e174 713e 0c3d cebe a5fe a23e
000000a0: fc3b 2cbe 2e67 9ebe 01af a23e 801a 083f
000000b0: 9f69 3e3e 3cf7 e23d 2d3d 053e da17 0dbd
000000c0: a529 fabe 9c11 c1b9 a073 c83d 6e81 b3bd
000000d0: 57dd dcbd 1b82 02be 2542 91be 7da9 debe
000000e0: 778c 8f3e 666d 913e 344e a4be b326 583e
000000f0: ed0a 98bd dfc7 723e 39b8 df3d 81bc f83e

layer2.weight f4 [64, 64]
-0.028645037 0.13904104 -0.14762633 0.0465184 0.06848253 0.1862673 0.5935832 0.0062266584
-0.9499433 0.23254232 -0.052567292 0.13360594 0.6020074 0.27131 -0.24298666 0.031611063
0.16058283 0.15111046 0.13406567 -0.007907027 -0.037993725 0.11668303 0.09979033 0.12180181
-0.0908258 0.057020534 0.07336851 0.184919 -0.14414392 -0.01734595 -0.14906462 -0.004570801
0.15814456 0.4223709 0.06825256 -0.037153732 -0.38207933 -0.058192197 0.05232918 0.14205772
-0.055195846 -0.2571843 0.13465926 0.056595553 -1.0796129 -0.40623686 -0.08135904 0.053600255
-0.10555645 0.08677635 -0.17873473 0.12566069 0.05675647 -0.19747238 -0.17910588 -0.020248294
-0.2587985 -0.94512165 0.15308794 -0.04688365 -0.1458518 -0.08364906 0.12691228 -0.033122815
-0.21165968 -0.0034667426 -0.07537931 -0.54217446 0.18530284 -0.15520853 -0.21219167 -0.07038507
0.17260739 0.38675243 0.24731721 -0.3212585 -0.18416823 -0.31049728 -0.4311836 -0.15232666
-0.08001323 -0.12826817 0.29182264 0.013231972 0.06447883 0.04488609 0.0063442877 0.07541586
-0.06950345 -0.11877208 0.09182464 0.00513479 0.0070478106 0.15040152 -0.04135365 -0.185504
0.19226925 -0.13119662 -0.11360803 -0.0074113463 0.24911225 0.06140146 0.096811645 0.01454041
0.1550048 0.036094327 -0.013341296 -0.07513517 0.43282717 -0.03561289 0.2749226 0.07277124
0.1794075 -0.1438014 0.029850934 -0.37226263 0.2804763 -0.025848597 0.009339597 0.27162236
0.11044425 0.52805775 -0.06254461 -0.05863184 -0.090783834 -0.07005447 0.14685853 0.020927098
-0.33507112 -0.07208408 0.13693224 -0.20107217 0.03489709 -0.1107947 -0.42376834 0.081518814
0.21776165 0.41575512 0.06972568 -0.031850398 -0.21333732 -0.11171269 -0.036447424 -0.05490595
-0.14446826 -0.16380113 0.013644056 0.22291298 -0.11709866 -0.069920786 0.18195964 0.09316052
-0.02007505 -0.08029343 0.006104289 -0.0668994 -0.034720615 0.14174777 0.12580818 -0.10657651
-0.11081181 -0.13128476 -0.11788188 0.086876236 0.1365415 -0.009266385 0.1162617 -0.13170311
0.14620365 -0.0031237125 -0.12270106 -0.16460127 0.26941517 0.062407367 0.14419027 0.103869654
0.114651956 0.17957123 0.05559761 -0.12851933 0.110168286 0.030817116 -0.023116723 0.016336728
-0.097334385 0.30265874 0.033894345 -0.074967906 -0.33563644 0.13090667 0.05586023 0.019855414
-0.30123544 -0.13858701 0.024955139 -0.18652807 -0.031569466 -0.0737212 -0.56320226 -0.09868888
0.45538828 0.3123354 0.069019675 -0.10050096 -0.044260375 -0.05147654 0.15052596 -0.08234453
-0.13022959 0.066984005 0.0784631 0.22551748 -0.047334634 0.071359 0.09857691 0.0126613155
-0.27780223 -0.017988991 -0.08783274 0.012357369 -0.07717973 0.12639086 0.15647185 -0.26677153
-0.119613454 0.058189176 -0.092263386 0.048863437 0.13440669 0.14085484 -0.068561815 -0.10492799
0.05567784 0.0017921873 -0.1243218 0.017347693 0.21198231 0.22563167 0.21205929 0.124891
0.23781629 0.20037197 -0.12647568 -0.18853308 0.1072821 -0.038245372 0.041430533 -0.16381562
-0.06671177 0.32157585 0.16061667 0.04213217 -0.2637153 0.14794402 0.007940369 -0.11251044
00000000: ffa8 eabc c660 0e3e 5b2b 17be 148a 3e3d
00000010: 9240 8c3d dbbc 3e3e 12f5 173f ff08 cc3b
00000020: 7c2f 73bf 931f 6e3e cd50 57bd ffcf 083e
00000030: 281d 1a3f 25e9 8a3e 7fd1 78be 9a7a 013d
00000040: d36f 243e b3bc 1a3e 8348 093e 7a8c 01bc
00000050: 4f9f 1bbd 83f7 ee3d df5e cc3d 3a73 f93d
00000060: e102 babd 5d8e 693d 3b42 963d 685b 3d3e
00000070: 779a 13be 1819 8ebc 65a4 18be a8c6 95bb
00000080: a6f0 213e 0041 d83e 00c8 8b3d 832e 18bd
00000090: e79f c3be f15a 6ebd 1f57 563d 9477 113e
000000a0: 0a15 62bd a9ad 83be 1ee4 093e bdd0 673d
000000b0: c130 8abf 47fe cfbe 929f a6bd f18b 5b3d
000000c0: fb2d d8bd cdb7 b13d 3d06 37be 32ad 003e
000000d0: 7979 683d 3336 4abe 8867 37be c0df a5bc
000000e0: 3d81 84be 7ef3 71bf 16c3 1c3e 1209 40bd
000000f0: 2d5a 15be 3350 abbd 4bf5 013e caab 07bd
00000100: 51bd 58be 4a32 63bb 7860 9abd f2cb 0abf
00000110: 07c0 3d3e fcee 1ebe c648 59be 0c26 90bd
00000120: febf 303e 6a04 c63e b940 7d3e fe7b a4be
00000130: 9996 3cbe 80f9 9ebe 19c4 dcbe 85fb 1bbe
00000140: fadd a3bd bb58 03be c769 953e eaca 583c
00000150: 7a0d 843d 7ada 373d bee3 cf3b a173 9a3d
00000160: d357 8ebd c73e f3bd 8f0e bc3d be41 a83b
00000170: 52f1 e63b db02 1a3e 7262 29bd c3f4 3dbe
00000180: 3be2 443e 6858 06be 54ab e8bd e1da f2bb
00000190: 4817 7f3e 1980 7b3d 2f45 c63d e63a 6e3c
000001a0: 94b9 1e3e a5d7 133d 7495 5abc 78e0 99bd
000001b0: 869b dd3e d2de 11bd a8c2 8c3e 1609 953d
000001c0: 9ab6 373e ad40 13be f289 f43c 3599 bebe
000001d0: 979a 8f3e 70c0 d3bc 1c05 193c 1612 8b3e
000001e0: 9830 e23d cb2e 073f 6317 80bd f127 70bd
000001f0: e0ec b9bd b878 8fbd 1562 163e 4e6f ab3c
00000200: 718e abbe d1a0 93bd f737 0c3e dde5 4dbe
00000210: 40f0 0e3d 55e8 e2bd 2af8 d8be 56f3 a63d
00000220: e9fc 5e3e dbdd d43e 56cc 8e3d 9075 02bd
00000230: 1975 5abe 9fc9 e4bd e549 15bd 10e5 60bd
00000240: 7def 13be 7cbb 27be 528b 5f3c 4d43 643e
00000250: 6cd1 efbd a132 8fbd a153 3a3e f1ca be3d
00000260: 6e74 a4bc e270 a4bd 7d06 c83b 8d02 89bd
00000270: 3437 0ebd 5426 113e dcd3 003e c944 dabd
00000280: 4df1 e2bd 836f 06be 0e6c f1bd 2bec b13d
00000290: 89d1 0b3e 09d2 17bc 9d1a ee3d 2edd 06be
000002a0: 69b6 153e 33b7 4cbb b14a fbbd 3c8d 28be
000002b0: c9f0 893e de9e 7f3d 9da6 133e 9db9 d43d
000002c0: a5ce ea3d 85e1 373e 52ba 633d 929a 03be
000002d0: e99f e13d 2d74 fc3c 485f bdbc 9ad4 853c
000002e0: 4057 c7bd 16f6 9a3e ccd4 0a3d c688 99bd
000002f0: 8ad8 abbe 660c 063e b2cd 643d d2a7 a23c
00000300: 883b 9abe c1e9 0dbe b86e cc3c 3701 3fbe
00000310: fc4e 01bd 24fb 96bd 062e 10bf 651d cabd
00000320: a728 e93e 6dea 9f3e 305a 8d3d 73d3 cdbd
00000330: 5e4a 35bd 10d9 52bd 7a23 1a3e 40a4 a8bd
00000340: e85a 05be e92e 893d 43b1 a03d 0eee 663e
00000350: f6e1 41bd ab24 923d b1e2 c93d 6871 4f3c
00000360: 183c 8ebe a65d 93bc a7e1 b3bd 9076 4a3c
00000370: 6810 9ebd 9b6c 013e 283a 203e 4796 88be
00000380: e6f7 f4bd c657 6e3d 96f4 bcbd 0725 483d
00000390: e8a1 093e 403c 103e 236a 8cbd 7ce4 d6bd
000003a0: 720e 643d d4e7 ea3a 6e9c febd c01c 8e3c
000003b0: e411 593e fd0b 673e 1226 593e dac6 ff3d
000003c0: 1d86 733e 4f2e 4d3e d782 01be d10e 41be
000003d0: b8b6 db3d 2ea7 1cbd 10b3 293d 48bf 27be
000003e0: 2ea0 88bd 97a5 a43e b278 243e c892 2c3d
000003f0: b105 87be a37e 173e 5218 023c e06b e6bd

layer2.bias f4 [64]
0.16335589 0.08566261 0.054100417 0.059160084 -0.018157 0.11918745 -0.07297934 0.20423791
0.07361819 0.05942777 -0.18131687 0.014332678 0.034004 0.071254306 0.1013899 -0.015464151
0.08768461 0.09895297 0.072520874 -0.12067782 0.1858462 0.09404493 0.02235181 -0.06494222
0.21816234 0.02768035 -0.081715725 0.07165767 0.08054886 0.17022933 0.08766723 0.034985792
0.015836481 -0.110995516 -0.14892083 0.05913318 0.033364296 -0.11657849 0.18426406 0.10872601
-0.12312691 0.14900294 0.16901176 -0.14821179 -0.031538747 -0.09646659 0.16205853 -0.042078186
0.14207336 0.06981681 0.09274986 -0.09485751 0.007631434 -0.035936125 0.31294522 0.1508554
-0.09677521 0.45497686 -0.055723693 0.23059905 0.058798254 -0.07761586 0.043716423 -0.017051008
00000000: c446 273e e16f af3d 6698 5d3d d851 723d
00000010: fdbd 94bc 8d18 f43d 3176 95bd be23 513e
00000020: 22c5 963d 896a 733d 21ab 39be 9cd3 6a3c
00000030: c747 0b3d c7ed 913d 82a5 cf3d 5a5d 7dbc
00000040: fd93 b33d dba7 ca3d d385 943d ef25 f7bd
00000050: 774e 3e3e a19a c03d 251b b73c 6d00 85bd
00000060: f365 5f3e e7c1 e23c 935a a7bd 42c1 923d
00000070: cdf6 a43d 9950 2e3e e08a b33d 434d 0f3d
00000080: 82bb 813c 9e51 e3bd b47e 18be a235 723d
00000090: 00a9 083d b4c0 eebd b8af 3c3e beab de3d
000000a0: f629 fcbd 3a94 183e 6b11 2d3e d5c4 17be
000000b0: c62e 01bd 4790 c5bd acf2 253e 2d5a 2cbd
000000c0: ae7b 113e 1efc 8e3d a3f3 bd3d a744 c2bd
000000d0: 1c11 fa3b c231 13bd 5b3a a03e d779 1a3e
000000e0: 1532 c6bd baf2 e83e 873e 64bd 2822 6c3e
000000f0: 70d6 703d 10f5 9ebd fe0f 333d 8eae 8bbc

layer3.weight f4 [2, 64]
0.30900583 -0.21810059 -0.031931464 0.045703795 -0.28839222 -0.22216557 0.22429997 0.18588585
0.53541666 0.29309756 -0.07401961 -0.117571294 0.059699208 -0.48841572 -0.09030353 -0.1582081
0.07459619 0.0574889 0.029311843 -0.3226041 0.2221587 0.35342646 -0.17024657 0.21995188
0.3992169 -0.022119386 -0.10127461 0.24558401 -0.11354437 0.19136679 0.24613264 0.4729306
-0.33723244 0.06389423 -0.3278666 -0.008057019 0.28860986 0.6269145 0.4266198 0.30699322
0.095069654 0.64180917 -0.029770134 0.073342375 0.17534237 -0.16052881 0.2516495 0.20436133
0.7602829 -0.027700733 0.49066427 -0.07608216 -0.28792208 -0.016606437 -0.20292151 0.2901425
0.052886374 -0.57949597 -0.2704746 0.2956332 -0.32833412 -0.07828673 -0.102287576 -0.23003183
-0.38111094 0.14242555 0.014740541 0.14350872 0.22884513 0.13837847 -0.06568705 -0.32862595
-0.40516895 -0.42886704 0.11423931 0.24427891 0.0051032323 0.29135886 0.12822305 0.18287782
-0.0670338 -0.06930731 -0.07196291 0.17747946 -0.24487235 -0.20997418 0.17211986 -0.13801165
-0.41803136 0.0048197038 0.07080539 -0.39398858 0.26069352 -0.3014075 -0.17129636 -0.4386707
0.14485839 -0.13800873 0.39327344 0.041007478 -0.29594436 -0.60652316 -0.45427418 -0.25312948
-0.06087433 -0.58113784 -0.09061824 0.04762169 -0.2020646 0.17908454 -0.22408316 -0.09726653
-0.6852674 0.17237698 -0.5008885 0.26654455 0.38719106 -0.042545084 0.3815776 -0.38336524
-0.107360855 0.7326067 0.29781947 -0.47891814 0.18888319 0.13302062 0.06288412 0.30538365
00000000: 0336 9e3e c355 5fbe 91ca 02bd e733 3b3d
00000010: 25a8 93be 5f7f 63be e4ae 653e dc58 3e3e
00000020: 1111 093f e210 963e 9897 97bd 38c9 f0bd
00000030: 2887 743d a011 fabe 0ff1 b8bd 4e01 22be
00000040: e3c5 983d 7b79 6b3d 641f f03c 5d2c a5be
00000050: 927d 633e 50f4 b43e 1e55 2ebe 113b 613e
00000060: 2866 cc3e b733 b5bc 1069 cfbd 607a 7b3e
00000070: f389 e8bd a8f5 433e 320a 7c3e f623 f23e
00000080: bba9 acbe fada 823d 22de a7be 9601 04bc
00000090: acc4 933e 787d 203f e96d da3e 372e 9d3e
000000a0: e1b3 c23d 9b4d 243f 7fe0 f3bc 8734 963d
000000b0: f38c 333e aa61 24be 34d8 803e 1944 513e
000000c0: e6a1 423f a6ec e2bc 5938 fb3e f7d0 9bbd
000000d0: 866a 93be 390a 88bc a8ca 4fbe 8f8d 943e
000000e0: 629f 583d d959 14bf a67b 8abe 3c5d 973e
000000f0: 691b a8be cb54 a0bd 267c d1bd 778d 6bbe
00000100: f920 c3be 01d8 113e 4f82 713c f3f3 123e
00000110: 6156 6a3e 16b3 0d3e ef86 86bd a941 a8be
00000120: 4e72 cfbe 7694 dbbe 4df6 e93d 4024 7a3e
00000130: 0439 a73b fd2c 953e e74c 033e 5344 3b3e
00000140: 0449 89bd fef0 8dbd 4a61 93bd 2dbd 353e
00000150: d1bf 7abe 7903 57be 3040 303e ed52 0dbe
00000160: 3508 d6be 9bee 9d3b 6b02 913d dfb8 c9be
00000170: 9f79 853e 1552 9abe 5068 2fbe 7299 e0be
00000180: c255 143e 2952 0dbe 235b c93e 75f7 273d
00000190: 0586 97be 1a45 1bbf a096 e8be 309a 81be
000001a0: 5d57 79bd 73c5 14bf 0e96 b9bd f60e 433d
000001b0: 06ea 4ebe f061 373e 0e76 65be ad33 c7bd
000001c0: af6d 2fbf 9783 303e 3b3a 00bf 8778 883e
000001d0: e83d c63e c143 2ebd 245e c33e 7348 c4be
000001e0: 02e0 dbbd 1d8c 3b3f cb7b 983e c234 f5be
000001f0: 986a 413e 8f36 083e 64c9 803d 3f5b 9c3e

layer3.bias f4 [2]
0.14038143 0.00038751416
00000000: 26c0 0f3e 452b cb39

exp_avg f4 [64, 10]
-0.0005521479 0.0011552132 -0.00067427877 0.0002850147 -6.644281e-05 -0.00018690832 -0.001141134 -0.00018853758
0.00065650104 -0.0018732799 -0.00029900865 0.0031458861 -0.00028785111 0.00056314765 -3.08603e-05 -0.0020031824
-1.6535456e-05 1.32452e-05 0.000476183 -0.0011249227 0.00055200525 -0.0017688463 0.0010745763 -0.00022822832
0.00017918846 0.0016642313 0.0008394644 -2.0913707e-05 -0.0023556997 0.0011232102 -7.1424292e-06 0.000101464066
7.254473e-05 -0.00013486494 -1.9213223e-05 -4.7566125e-05 -6.6211775e-05 -0.00011643716 0.0002464197 -0.0003204185
-0.00021920862 0.0020053172 -0.0009098357 0.00021748002 -6.310886e-05 -0.0013444526 0.00040118583 -0.00018899406
0.0005392259 -0.00052900164 -0.00041007897 0.0016061383 -0.00014792175 0.00021917337 -0.00030929717 -0.001779504
-0.00031902234 -0.00016053807 0.00067170494 -0.000974036 -0.0070880856 0.01845449 0.0065136254 -0.0048165005
-0.00545509 -0.020841446 -0.0087331785 -0.0018562342 0.010321894 -0.010715899 -7.6496995e-05 0.0013215108
0.0003163589 0.0004874726 0.00010909205 -0.00048300828 -0.0004921197 -2.4797095e-05 -0.00037702205 -0.0026351956
-7.86251e-05 -0.004440437 0.003161526 -0.0005198834 -0.0007955782 0.0050524506 0.0024117366 -0.001201333
-0.0015744885 0.001477158 0.00019039714 -0.000110824774 -0.00025556903 3.627124e-05 0.000180737 0.00029636256
0.00010523044 -7.466336e-05 -0.00035180847 -0.0011621232 -0.00032336856 -0.0019263815 0.0009023505 -0.00037410727
-0.00035983976 0.0022442983 -7.0007736e-05 -0.0004906175 0.0010100955 0.00064946734 -0.00030218577 -0.00017890551
0.00058849214 0.00022879719 -0.00020515246 -8.125411e-06 -0.0001350251 -0.00013002258 0.0004930522 -0.0002817864
0.00039283966 0.0016807058 -0.0005399805 0.0008001957 0.00041265725 -0.00039960624 0.00012002138 0.00040560905
-0.0018582748 -0.0021848816 0.00021210888 0.0014197535 -0.00091317884 -0.00016189196 0.00017304588 -0.001613371
0.00014442757 -0.00012353326 -0.0011039032 0.0007043404 0.00016550568 7.945099e-05 -0.0002791883 0.00013007886
0.00018755387 0.00020522076 0.00019713555 0.00011656521 0.00015818053 -0.0017313701 -0.0009300739 0.004225444
-0.00056326075 0.00013543673 -0.0006195197 -0.0027811879 8.692834e-05 -0.00027074295 0.0025966223 -0.0014211251
0.0005378181 0.0018753184 -0.00055625517 0.0006129024 0.00045969192 -0.0012370641 0.00029385506 0.00045640155
-0.0012319691 0.00031214018 -0.00061158935 0.0022193878 0.00021797387 0.0007266502 -0.00022144913 -0.00073219585
-0.0019028272 -0.00059681066 0.0014336254 -0.0014487667 -8.112121e-05 -0.0018171007 0.0005413559 -0.00034646672
-0.00019308485 0.001296921 1.8045726e-05 -5.2004387e-05 5.1998824e-05 0.0005606462 0.0006285925 -0.0011788367
-0.00052266347 0.00043144025 0.00044695707 0.0010590476 0.00043215827 0.00034826432 -0.0015423679 4.759931e-05
-0.0007772473 -0.0009926473 3.8743223e-05 -0.00073641323 -0.00081017206 0.0006400744 0.00028424422 -0.00061673415
0.0013538047 0.001206893 2.5095022e-05 0.00030561892 -0.00022977061 0.0001530118 6.025123e-05 -0.00037497937
0.00011237542 6.9706846e-05 -0.00022528 -0.00049564114 -0.0004272956 -0.0011672474 0.0006210107 -0.0004519255
-0.00040849138 0.0004011291 -0.00019324642 -0.0003238391 0.0005780158 -2.841065e-05 0.00014725034 -0.000638234
0.00024845774 -0.00022764542 0.00010763863 0.00032023003 3.8373924e-05 4.5725847e-05 -0.00034000052 0.00022153334
0.00024615976 0.00022291121 -0.00039885417 0.00016517655 0.00016436796 8.378299e-05 0.0001820182 -1.1951421e-05
-0.00036576038 0.00019817195 0.00022785786 0.00020617068 -0.00011966585 -0.0001408827 3.9812476e-05 0.00029673232
00000000: 05be 10ba 866a 973a 15c2 30ba 076e 9539
00000010: 3657 8bb8 d2fc 43b9 1a92 95ba 2cb2 45b9
00000020: 0a19 2c3a d888 f5ba 43c4 9cb9 362b 4e3b
00000030: b9ea 96b9 33a0 133a ff6f 01b8 d347 03bb
00000040: 9fb5 8ab7 b337 5e37 33a8 f939 2472 93ba
00000050: 72b4 103a a2d8 e7ba ccd8 8c3a 9350 6fb9
00000060: 89e4 3b39 5622 da3a 810f 5c3a d86f afb7
00000070: 1562 1abb ae38 933a 00a9 efb6 1bc9 d438
00000080: 2823 9838 886a 0db9 152c a1b7 bd81 47b8
00000090: 2ddb 8ab8 b92f f4b8 e431 8139 d8fd a7b9
000000a0: 5edb 65b9 a46b 033b 0a82 6eba 590b 6439
000000b0: 5059 84b8 5838 b0ba 4056 d239 b52c 46b9
000000c0: d65a 0d3a b3ac 0aba deff d6b9 0f85 d23a
000000d0: 711b 1bb9 e7d1 6539 2a29 a2b9 3f3e e9ba
000000e0: 7442 a7b9 1c56 28b9 5b15 303a 7356 7fba
000000f0: 2c43 e8bb df2d 973c 4070 d53b bcd3 9dbb
00000100: 9dc0 b2bb aebb aabc 9b15 0fbc e24c f3ba
00000110: 291d 293c bd91 2fbc 036d a0b8 8b36 ad3a
00000120: f9dc a539 7793 ff39 59c8 e438 463c fdb9
00000130: 9801 01ba 5b03 d0b7 0bab c5b9 3fb3 2cbb
00000140: 87e3 a4b8 1681 91bb 9b31 4f3b c948 08ba
00000150: 598e 50ba 078f a53b 3a0e 1e3b 0c76 9dba
00000160: 115f ceba 339d c13a 58a5 4739 996a e8b8
00000170: e5fd 85b9 f321 1838 3884 3d39 1c61 9b39
00000180: 2aaf dc38 9694 9cb8 ef72 b8b9 6252 98ba
00000190: cb89 a9b9 a37e fcba b88b 6c3a d423 c4b9
000001a0: e0a8 bcb9 1415 133b 1ed1 92b8 c89c 00ba
000001b0: 2e65 843a 0441 2a3a b06e 9eb9 9598 3bb9
000001c0: 0a45 1a3a 47e9 6f39 321e 57b9 6052 08b7
000001d0: 8695 0db9 ac56 08b9 2c40 013a bbbc 93b9
000001e0: 0cf6 cd39 214b dc3a 7a8d 0dba 39c4 513a
000001f0: eb59 d839 3e82 d1b9 fdb3 fb38 eda7 d439
00000200: 5b91 f3ba 3b30 0fbb 8b69 5e39 0617 ba3a
00000210: 6562 6fba 8bc1 29b9 a673 3539 bf77 d3ba
00000220: 7b71 1739 b588 01b9 d8b0 90ba 7ca3 383a
00000230: 988b 2d39 ed9e a638 0560 92b9 c765 0839
00000240: 1caa 4439 8730 5739 2cb6 4e39 7874 f438
00000250: 43dd 2539 24ef e2ba 34d0 73ba 9875 8a3b
00000260: caa7 13ba 0504 0e39 4367 22ba 9744 36bb
00000270: 4c4d b638 81f2 8db9 182c 2a3b 0c45 baba
00000280: 5dfc 0c3a 3ecd f53a a7d1 11ba 2fab 203a
00000290: ce02 f139 fc24 a2ba 8f10 9a39 2e49 ef39
000002a0: 067a a1ba bfa6 a339 1153 20ba 2673 113b
000002b0: ea8f 6439 ab7c 3e3a cc34 68b9 d5f0 3fba
000002c0: 4968 f9ba 4973 1cba 7ce8 bb3a 8be4 bdba
000002d0: 9e1f aab8 c82b eeba c8e9 0d3a faa5 b5b9
000002e0: d276 4ab9 73fd a93a e760 9737 491f 5ab8
000002f0: 5019 5a38 54f8 123a 21c8 243a 3283 9aba
00000300: 5a03 09ba ee32 e239 9055 ea39 becf 8a3a
00000310: 4d93 e239 3f97 b639 4729 caba 5fa5 4738
00000320: 2fc0 4bba b71b 82ba 3880 2238 db0b 41ba
00000330: ba61 54ba aaca 273a 9d06 9539 54ac 21ba
00000340: 2672 b13a 9c30 9e3a 2683 d237 7a3b a039
00000350: 94ee 70b9 cb71 2039 44b6 7c38 e198 c4b9
00000360: 18ab eb38 942f 9238 2439 6cb9 eaed 01ba
00000370: a506 e0b9 53fe 98ba 53cb 223a 6af0 ecb9
00000380: c92a d6b9 a34e d239 31a2 4ab9 f3c8 a9b9
00000390: fc85 173a 6853 eeb7 3667 1a39 294f 27ba
000003a0: 6f43 8239 1ab4 6eb9 0dbc e138 8ce4 a739
000003b0: b0f3 2038 c1c9 3f38 1942 b2b9 674b 6839
000003c0: 010f 8139 46bd 6939 4d1d d1b9 3e33 2d39
000003d0: 305a 2c39 a6b4 af38 23dc 3e39 f682 48b7
000003e0: 87c3 bfb9 61cc 4f39 21ed 6e39 852f 5839
000003f0: 1df5 fab8 e9b9 13b9 52fc 2638 bd92 9b39

exp_avg_sq f4 [64, 10]
1.998234e-05 3.0228872e-05 2.711859e-05 1.5242312e-05 1.8404106e-05 7.304168e-05 2.6026364e-05 2.079829e-05
8.589652e-05 3.0404175e-05 2.1906591e-05 5.437123e-05 2.5292324e-05 1.547137e-05 1.8639323e-05 5.478923e-05
2.4579102e-05 1.3496795e-05 9.854653e-05 4.757287e-06 2.8841625e-05 7.297818e-05 3.6636557e-05 2.200929e-05
2.5313719e-05 7.8542405e-05 3.4992023e-05 2.064548e-05 0.00012879186 1.0665767e-05 6.717452e-07 2.1399128e-06
1.2683024e-06 1.1155875e-06 8.669136e-07 8.4998203e-07 7.8322097e-07 1.6234703e-06 1.2310342e-06 5.6907156e-05
1.7099963e-05 3.97796e-05 1.9428531e-05 1.2799444e-05 1.4484529e-05 4.4990073e-05 1.8534514e-05 1.059198e-05
7.417434e-05 4.148615e-06 1.3389748e-05 2.9983225e-05 1.6469228e-05 9.355408e-06 1.1104129e-05 3.5078996e-05
1.6768772e-05 7.715957e-06 5.261578e-05 1.561181e-06 0.0008020866 0.0015969044 0.0010213337 0.00064080674
0.0007049888 0.0017259822 0.0009988133 0.00064399955 0.002010033 0.001012449 2.2149185e-05 4.450658e-05
2.5925596e-05 1.6418273e-05 1.926603e-05 5.7710276e-05 2.636915e-05 1.4876738e-05 9.7551805e-05 2.0965244e-05
0.00023770059 0.000664834 0.00027880876 0.00017263 0.00020299655 0.000667837 0.00030070366 0.00015081876
0.0010842114 2.8685385e-05 1.2222516e-06 1.8849465e-06 2.5678441e-06 1.3694771e-06 1.0841843e-06 2.0462903e-06
1.9260237e-06 1.2729956e-06 1.6027795e-06 2.5474048e-05 1.573793e-05 4.433413e-05 1.5929825e-05 1.2604346e-05
1.3720153e-05 4.3835375e-05 1.4075877e-05 1.0740389e-05 9.839128e-05 9.42591e-06 2.946249e-06 8.548833e-06
4.301075e-06 2.1386145e-06 2.5942147e-06 7.947921e-06 3.921052e-06 2.3783116e-06 1.1169116e-05 3.6570927e-06
1.994318e-05 3.5872257e-05 2.1757327e-05 1.333582e-05 1.7772596e-05 8.6708664e-05 2.1426255e-05 1.71178e-05
0.00012455005 2.4252186e-05 4.992377e-06 1.7959897e-05 4.9716323e-06 4.7427675e-06 4.2495294e-06 1.5750602e-05
6.4792766e-06 3.965658e-06 4.049863e-05 1.5588172e-05 1.9030532e-06 6.1752958e-06 2.2846448e-06 5.9495653e-07
1.7521874e-06 5.1378283e-06 2.4000192e-06 1.864357e-06 1.0405919e-05 1.9474168e-05 2.7998129e-05 6.711838e-05
3.0594107e-05 1.8785371e-05 2.4648769e-05 8.8219356e-05 2.7857299e-05 2.0631715e-05 0.00016373687 2.8934197e-05
4.6889336e-06 1.539681e-05 4.5073543e-06 4.3523373e-06 4.1358126e-06 1.37693505e-05 4.677154e-06 4.1311073e-06
3.4271576e-05 7.752262e-06 4.3047097e-05 9.582497e-05 5.1200288e-05 3.1696323e-05 3.7715294e-05 0.0001222841
4.9540173e-05 3.080191e-05 0.0001979131 2.9662371e-05 7.63847e-06 2.0199008e-05 9.240321e-06 5.7151256e-06
6.6319185e-06 2.1908361e-05 8.751817e-06 5.556668e-06 4.0907253e-05 4.065437e-06 5.5434557e-06 1.6386452e-05
5.6834624e-06 3.8147423e-06 4.90924e-06 1.3147193e-05 6.009228e-06 4.3272944e-06 2.7553097e-05 9.1046155e-07
5.726622e-06 1.4876809e-05 6.1561295e-06 4.467485e-06 5.1388347e-06 1.4045247e-05 5.3533827e-06 4.511551e-06
2.8250364e-05 7.0360843e-06 7.784429e-07 2.4514886e-06 1.0158443e-06 6.8680544e-07 6.559213e-07 1.8608533e-06
1.0730631e-06 5.6984294e-07 3.4764387e-06 9.270803e-07 3.2899409e-06 9.569854e-06 3.9734064e-06 2.762561e-06
2.9035725e-06 8.478943e-06 3.7590917e-06 2.6776024e-06 1.8684017e-05 2.912518e-06 6.0518425e-07 2.1026435e-06
9.952934e-07 7.7532576e-07 5.904855e-07 1.8840391e-06 1.2555546e-06 7.8565245e-07 3.1642246e-06 1.7511915e-06
7.7751366e-07 1.9289337e-06 8.993918e-07 5.15874e-07 6.4810473e-07 2.180027e-06 1.0846735e-06 5.054818e-07
3.3179697e-06 2.2281424e-06 4.1129356e-06 6.958641e-06 6.31464e-06 3.3086005e-06 3.6385113e-06 1.0480511e-05
00000000: c09f a737 0294 fd37 bb7c e337 3bb9 7f37
00000010: 8462 9a37 f42d 9938 3153 da37 fd77 ae37
00000020: 5823 b438 780c ff37 0cc4 b737 aa0c 6438
00000030: da2a d437 84c8 8137 a45b 9c37 7dcd 6538
00000040: 382f ce37 4b70 6237 c4aa ce38 c9a0 9f36
00000050: ebf0 f137 dd0b 9938 34aa 1938 97a0 b837
00000060: cc58 d437 22b7 a438 66c4 1238 d52f ad37
00000070: 4d0c 0739 1ff1 3237 fb51 3435 6c9b 0f36
00000080: 8a3a aa35 4bbb 9535 d9b5 6835 522a 6435
00000090: 893e 5235 04e6 d935 033a a535 98af 6e38
000000a0: e471 8f37 05d9 2638 74fa a237 32bd 5637
000000b0: 9402 7337 b9b3 3c38 917a 9b37 35b4 3137
000000c0: 0c8e 9b38 5534 8b36 88a4 6037 7c84 fb37
000000d0: 6627 8a37 2cf5 1c37 df4b 3a37 c921 1338
000000e0: aaaa 8c37 c873 0137 c3af 5c38 c589 d135
000000f0: 1f43 523a 384f d13a 46de 853a d0fb 273a
00000100: ffce 383a 5a3a e23a 9dea 823a 14d2 283a
00000110: c2ba 033b 27b4 843a 03cd b937 94ac 3a38
00000120: cb7a d937 f9b9 8937 7c9d a137 f00d 7238
00000130: 5233 dd37 1a97 7937 ba94 cc38 85de af37
00000140: 443f 7939 4148 2e3a 142d 9239 0304 3539
00000150: 79db 5439 c811 2f3a c3a7 9d39 1a25 1e39
00000160: 191c 8e3a 65a1 f037 3f0c a435 45fe fc35
00000170: 3a53 2c36 e0ce b735 4a84 9135 0053 0936
00000180: d640 0136 ccdb aa35 161f d735 1ab1 d537
00000190: f304 8437 69f3 3938 0aa1 8537 4177 5337
000001a0: 9c2f 6637 e0db 3738 6e27 6c37 9f31 3437
000001b0: 6b57 ce38 fa23 1e37 2cb8 4536 f56c 0f37
000001c0: f451 9036 1e85 0f36 4518 2e36 1058 0537
000001d0: 9591 8336 159b 1f36 fd62 3b37 606c 7536
000001e0: a74b a737 8b75 1638 8183 b637 e9bc 5f37
000001f0: 5c16 9537 5cd7 b538 88bc b337 3298 8f37
00000200: a699 0239 2c71 cb37 3184 a736 96a8 9637
00000210: ffd1 a636 1024 9f36 2e97 8e36 2920 8437
00000220: 9068 d936 be10 8536 13dd 2938 58c3 8237
00000230: 696c ff35 6335 cf36 e651 1936 1ab5 1f35
00000240: b32c eb35 9c65 ac36 0410 2136 d23a fa35
00000250: 1595 2e37 755c a337 86dd ea37 e8c1 8c38
00000260: 2c52 0038 4795 9d37 d4c4 ce37 6802 b938
00000270: 18af e937 4512 ad37 c8b0 2b39 b7b7 f237
00000280: a255 9d36 6628 8137 e13d 9736 4b0a 9236
00000290: 5cc6 8a36 e902 6737 72f0 9c36 f19d 8a36
000002a0: d3be 0f38 b60f 0237 788d 3438 a4f5 c838
000002b0: e4bf 5638 abf1 0438 7d30 1e38 6339 0039
000002c0: 5bc9 4f38 4d31 0138 e586 4f39 75d3 f837
000002d0: fb26 0037 0a71 a937 e006 1b37 8ec4 bf36
000002e0: bf87 de36 d9c7 b737 c5d4 1237 6a73 ba36
000002f0: d493 2b38 d769 8836 ec01 ba36 a375 8937
00000300: 92b4 be36 6300 8036 0dba a436 c492 5c37
00000310: e0a2 c936 2d33 9136 d321 e737 7166 7435
00000320: 4f27 c036 6897 7937 c090 ce36 67e7 9536
00000330: 416e ac36 e0a3 6b37 35a1 b336 ee61 9736
00000340: 32fb ec37 8117 ec36 30f6 5035 4184 2436
00000350: 2558 8835 e95c 3835 9212 3035 6fc2 f935
00000360: 2b06 9035 4ff7 1835 c34c 6936 79dc 7835
00000370: c1c8 5c36 368e 2037 4d53 8536 7064 3936
00000380: ffda 4236 c840 0e37 b444 7c36 dcb0 3336
00000390: 9fbb 9c37 ae74 4336 f273 2235 241b 0d36
000003a0: 0596 8535 fb1f 5035 db81 1e35 17df fc35
000003b0: 8784 a835 a0e5 5235 f758 5436 7b0a eb35
000003c0: 55b6 5035 d472 0136 bc6d 7135 977a 0a35
000003d0: 6bf9 2d35 944c 1236 1995 9135 72b0 0735
000003e0: 49aa 5e36 3287 1536 d901 8a36 457e e936
000003f0: 58e2 d336 5309 5e36 262d 7436 74d5 2f37

exp_avg f4 [64]
0.00073715654 0.00053607026 -0.0005680005 -0.00013249768 0.00029263474 0.00058760255 0.008496722 0.00019466878
-0.00030255548 -0.00015428328 0.00027171572 0.00043316727 -1.3165478e-05 -0.0005112474 -0.00023678811 0.001090567
-0.00050552114 0.00085695524 0.0001287988 -0.0006821955 0.00079149666 6.86225e-06 0.000452073 -0.00016679634
-0.00030263906 -0.00024423536 0.00074096804 0.00018753302 -9.467571e-05 0.00020594591 -9.084007e-05 0.0007952914
0.00025852927 0.00069831515 -0.0003246917 -0.00020988264 -0.00010654165 -0.00079345336 0.00023346051 0.00023478614
0.0004531761 -5.1016963e-05 -0.00019427923 -0.0006065884 -0.0046297726 0.00029993596 0.00031493598 -0.00020885766
0.00010812028 -0.0005648683 0.00020346222 0.0007685124 0.0003646798 0.00068177056 0.00024293429 3.165341e-05
0.0002545671 -0.0046705706 -0.0006036632 0.00047704563 0.00031946364 -0.0006666908 -1.7340208e-05 0.00015032558
00000000: bd3d 413a 1187 0c3a dee5 14ba 13ef 0ab9
00000010: c56c 9939 5709 1a3a d635 0b3c 0120 4c39
00000020: 4fa0 9eb9 1ac7 21b9 1175 8e39 ba1a e339
00000030: 4ce1 5cb7 3b05 06ba 534a 78b9 5bf1 8e3a
00000040: f384 04ba 4ba5 603a 2a0e 0739 5dd5 32ba
00000050: 717c 4f3a 4742 e636 3604 ed39 0de6 2eb9
00000060: 87ab 9eb9 b70c 80b9 863d 423a 83a4 4439
00000070: a38c c6b8 2ff3 5739 6481 beb8 1a7b 503a
00000080: 368b 8739 230f 373a 623b aab9 f113 5cb9
00000090: 1d6f dfb8 c1ff 4fba 14cd 7439 ed30 7639
000000a0: 4498 ed39 0cfb 55b8 6fb7 4bb9 7503 1fba
000000b0: 59b5 97bb b940 9d39 fe1d a539 cd00 5bb9
000000c0: a2be e238 ac13 14ba 7958 5539 fe75 493a
000000d0: 7f32 bf39 d9b8 323a 2dbc 7e39 97c3 0438
000000e0: 6b77 8539 960b 99bb 273f 1eba fb1b fa39
000000f0: af7d a739 ddc4 2eba d075 91b7 b7a0 1d39

exp_avg_sq f4 [64]
2.594049e-05 2.5175963e-05 3.5680026e-05 1.1474446e-06 1.9334611e-05 1.6848964e-05 0.0010777251 2.7046959e-05
0.00028879184 2.2034305e-06 1.5380008e-05 4.1912253e-06 2.054602e-05 6.0251746e-06 2.3685839e-06 3.074012e-05
4.705757e-06 5.144e-05 8.805319e-06 6.0943753e-06 6.0797342e-06 1.0871478e-06 3.8433022e-06 1.0823859e-06
1.0050921e-06 6.0556727e-06 5.6434137e-06 1.011922e-05 2.1799272e-06 1.8107872e-05 8.894838e-06 5.2574474e-06
3.7066278e-07 3.36159e-06 1.2153257e-05 5.0595672e-06 1.0356023e-05 9.2015e-06 5.0561403e-06 1.187458e-05
2.040485e-06 1.703774e-06 6.5877255e-05 2.3661296e-06 0.00024326454 6.607736e-05 1.006289e-05 8.692733e-07
1.3360575e-05 1.7670258e-05 6.060085e-06 8.068268e-06 1.1265473e-06 4.9291903e-06 4.659836e-06 4.885876e-07
2.1277949e-05 0.00023496016 6.351552e-06 6.9969565e-06 6.2932913e-06 1.0036714e-05 1.0155113e-06 6.9915263e-06
00000000: c79a d937 f830 d337 23a7 1538 e501 9a35
00000010: c330 a237 e056 8d37 7442 8d3a e7e2 e237
00000020: fc68 9739 a6de 1336 5104 8137 5aa2 8c36
00000030: 3e5a ac37 db2b ca36 f6f3 1e36 f4ee 0038
00000040: 25e6 9d36 48c1 5738 8fba 1337 497e cc36
00000050: 8500 cc36 1dea 9135 b7f5 8036 7f46 9135
00000060: b4e6 8635 d531 cb36 8e5c bd36 b8c5 2937
00000070: dd4a 1236 5ce6 9737 0a3b 1537 2169 b036
00000080: 81ff c634 ad97 6136 d7e5 4b37 5ac5 a936
00000090: c8be 2d37 2460 1a37 eaa7 a936 ef38 4737
000000a0: 44ef 0836 3bad e435 9527 8a38 ccc9 1e36
000000b0: d414 7f39 0393 8a38 c9d3 2837 0258 6935
000000c0: 3c27 6037 973a 9437 bc57 cb36 f25c 0737
000000d0: df33 9735 6c65 a536 b05b 9c36 7c27 0335
000000e0: 0c7e b237 a35f 7639 6b1f d536 66c7 ea36
000000f0: f62a d336 5c63 2837 b44c 8835 c198 ea36

exp_avg f4 [64, 64]
-1.0746297e-05 0.00012995375 0.00013937827 1.4818974e-05 -2.6740478e-05 -4.0467403e-06 -1.300455e-05 -0.00015659448
7.195666e-05 8.044034e-05 -0.00012707658 -2.795681e-06 3.193442e-05 -2.5892441e-05 -1.8226707e-05 -6.8972025e-05
-6.452699e-05 0.00011506684 -0.00011582154 0.00013557535 -0.00020444691 0.00023945475 3.0459047e-05 -0.000108929526
-0.00013886193 -5.628561e-06 -9.4259216e-05 -8.4945954e-05 -5.1698935e-05 -0.00012593505 -2.0694984e-06 1.5684796e-05
-2.451774e-06 -8.729508e-07 -1.9599316e-05 9.7412616e-05 -1.6108864e-06 -3.505126e-05 2.2535445e-05 9.58351e-05
7.626859e-05 3.7307025e-06 -8.0925936e-05 -0.00016881416 5.4609984e-05 3.645339e-05 1.8963707e-05 0.00028688594
-0.00028210672 -3.8228998e-05 -0.0003315427 0.00014706083 -0.00021468899 3.2134452e-05 -1.5699497e-05 -9.4170844e-07
-7.645043e-05 6.4337575e-05 2.8052411e-05 -0.00020578939 -9.764843e-05 -0.00012873694 -1.7258119e-05 0.0001791297
5.9458638e-05 0.000101126374 5.019062e-05 -1.4435203e-05 -5.526207e-05 7.7594865e-05 -1.6853975e-06 0.00030464088
3.5973557e-05 8.605401e-06 0.0001661304 8.187579e-05 1.3880731e-05 3.6813493e-05 -2.0235886e-05 0.00013979625
3.9344042e-05 -0.00013586802 3.7940146e-05 -9.8400466e-05 0.00025247896 -6.495126e-05 6.9109033e-06 4.262704e-05
0.00014267421 1.5463104e-06 0.00012853836 9.460611e-05 -4.1582385e-05 0.00019903199 0.00021378032 -1.0851412e-05
-6.5982185e-06 -4.2666416e-05 8.680683e-05 -0.000100394784 -1.987378e-09 -1.2099173e-05 -3.1835876e-05 3.633241e-05
-5.4114967e-05 -8.729555e-06 0.0001456406 0.00021144477 -3.421692e-05 5.9440645e-05 -1.2827836e-06 -9.4827636e-05
0.00018768282 0.00013397349 0.0002773249 -5.4276967e-05 0.00022311528 3.9086e-05 3.1564385e-05 -3.9016772e-06
0.00018279627 -3.4442186e-05 6.057123e-05 0.00030581592 0.0001444475 0.00018528386 3.6631252e-05 -0.00011043735
2.7031456e-06 -8.9027947e-07 -1.4028937e-07 -9.813076e-06 -3.3429471e-06 -5.055647e-06 1.3201753e-06 2.4130812e-05
1.1676793e-06 1.181991e-06 1.39553385e-05 -7.3252972e-06 -4.241268e-06 -1.404719e-06 -8.602597e-06 -1.226341e-05
-9.607263e-07 -2.4097064e-05 1.9855348e-08 -2.2445996e-05 1.897222e-05 -1.7550497e-05 -1.0374693e-05 -1.4780071e-06
5.326803e-06 -9.798966e-06 -1.2725657e-06 -5.8315827e-06 -5.9041163e-06 1.1986015e-05 -4.762923e-06 -1.1671908e-05
-3.8935664e-06 -5.513679e-06 4.1591074e-06 -1.2302958e-05 -6.0117263e-06 -1.3873832e-06 -1.3367099e-05 -9.707887e-07
-1.2119131e-05 -3.906843e-06 6.539717e-06 1.6413656e-05 -1.3585277e-05 4.4426074e-06 -2.989142e-07 -2.429116e-05
1.3580495e-05 -1.5903199e-05 8.697247e-06 -2.6030066e-05 2.0816437e-05 -2.693777e-06 9.063177e-07 -5.5469222e-06
1.7696731e-05 -1.529367e-05 1.6082321e-06 1.1328705e-05 8.1849075e-06 4.1727303e-06 3.406699e-07 -2.9724488e-05
-5.2200276e-06 -1.4863295e-05 -1.0367287e-05 -1.16490255e-05 -3.3413067e-05 -8.524514e-06 -1.0394162e-05 4.3244338e-05
-1.258419e-05 4.132942e-06 2.464115e-05 -1.7510762e-05 1.5389635e-06 -9.245722e-06 3.5157855e-06 -1.0591349e-05
-2.5534098e-06 -6.890973e-05 -4.8527377e-06 -4.6752095e-05 3.9416296e-05 -4.05096e-05 -2.46087e-05 -3.3735794e-06
1.2967134e-05 -2.2584865e-05 -7.8019875e-06 -2.5529996e-05 -2.850659e-05 9.44507e-06 -1.9305358e-05 -1.6147542e-05
-3.240015e-06 -1.8749564e-05 5.7534876e-06 -2.9863591e-05 -1.9610341e-05 -2.0979041e-05 -3.2156542e-05 -5.840961e-06
-3.520687e-05 -8.223465e-06 -1.6225322e-05 2.1581038e-05 -2.3185115e-05 -6.355109e-06 -2.2065591e-05 -5.1377338e-05
1.9079922e-05 -2.1802201e-05 1.6055634e-05 -3.537936e-05 4.0367857e-05 -5.548045e-06 1.2047618e-05 2.628832e-06
2.984687e-05 -2.5629e-05 3.0245037e-06 2.8072505e-05 1.44938e-05 1.5196668e-05 -3.5357966e-06 -6.011642e-05
00000000: ff4a 34b7 3244 0839 1226 1239 029f 7837
00000010: bd50 e0b7 3cc9 87b6 1e2e 5ab7 8333 24b9
00000020: 70e7 9638 14b2 a838 dc3f 05b9 6f9d 3bb6
00000030: 53f1 0538 9833 d9b7 8ee5 98b7 13a5 90b8
00000040: aa52 87b8 0a50 f138 37e5 f2b8 3b29 0e39
00000050: cd60 56b9 2516 7b39 4e82 ff37 1871 e4b8
00000060: 779b 11b9 f9dc bcb6 08ad c5b8 0325 b2b8
00000070: 4fd7 58b8 6f0d 04b9 b6e1 0ab6 d892 8337
00000080: 2889 24b6 b954 6ab5 3669 a4b7 004a cc38
00000090: a335 d8b5 0104 13b8 800a bd37 14fb c838
000000a0: 63f2 9f38 fb5c 7a36 c8b6 a9b8 b503 31b9
000000b0: 060d 6538 88e5 1838 4014 9f37 2e69 9639
000000c0: b9e7 93b9 1358 20b8 e8d2 adb9 5734 1a39
000000d0: 231e 61b9 1bc8 0638 6ab2 83b7 b6c9 7cb5
000000e0: 0354 a0b8 f9ec 8638 1852 eb37 2bc9 57b9
000000f0: 9ac8 ccb8 8ffd 06b9 87c5 90b7 c3d4 3b39
00000100: 3a63 7938 cf13 d438 c583 5238 ba2e 72b7
00000110: 32c9 67b8 6dba a238 d135 e2b5 35b8 9f39
00000120: 50e2 1638 ea5f 1037 4a33 2e39 bbb4 ab38
00000130: 49e1 6837 3068 1a38 3cc0 a9b7 4596 1239
00000140: 5805 2538 cb77 0eb9 ec21 1f38 595c ceb8
00000150: 275f 8439 7136 88b8 35e4 e736 70ca 3238
00000160: d19a 1539 d28a cf35 41c8 0639 4567 c638
00000170: bf68 2eb8 3eb3 5039 382a 6039 760e 36b7
00000180: 4466 ddb6 b7f4 32b8 100c b638 0a8b d2b8
00000190: 5392 08b1 8dfd 4ab7 8387 05b8 a163 1838
000001a0: 81f9 62b8 2775 12b7 1ab7 1839 46b7 5d39
000001b0: 2384 0fb8 e84f 7938 1c2c acb5 33de c6b8
000001c0: b9cc 4439 3c7b 0c39 eb65 9139 73a7 63b8
000001d0: 0df4 6939 46f0 2338 0064 0438 27eb 82b6
000001e0: 00ad 3f39 0476 10b8 dd0d 7e38 eb55 a039
000001f0: d576 1739 c248 4239 82a4 1938 9a9a e7b8
00000200: b067 3536 8afb 6eb5 73a2 16b4 d7a2 24b7
00000210: 6557 60b6 ada3 a9b6 e130 b135 866c ca37
00000220: 28b9 9c35 e7a4 9e35 b921 6a37 d3cb f5b6
00000230: 3750 8eb6 c789 bcb5 df53 10b7 f2be 4db7
00000240: 4ef2 80b5 0d24 cab7 5f8e aa32 694a bcb7
00000250: 8826 9f37 6839 93b7 f80e 2eb7 f05f c6b5
00000260: e4bc b236 3d66 24b7 06cd aab5 eaac c3b6
00000270: f91b c6b6 8b17 4937 32d1 9fb6 77d2 43b7
00000280: 7ba5 82b6 2402 b9b6 768e 8b36 cd68 4eb7
00000290: 56b8 c9b6 2036 bab5 4143 60b7 0c4c 82b5
000002a0: 4553 4bb7 8717 83b6 be6f db36 0fb0 8937
000002b0: 52ec 63b7 b511 9536 747a a0b4 dec4 cbb7
000002c0: c8d7 6337 dc67 85b7 64ea 1137 245b dab7
000002d0: f59e ae37 bdc6 34b6 ae49 7335 b31f bab6
000002e0: 7173 9437 e84a 80b7 6fda d735 6b10 3e37
000002f0: e951 0937 7b03 8c36 51e5 b634 da58 f9b7
00000300: b227 afb6 5e5d 79b7 29ef 2db7 2f70 43b7
00000310: 0225 0cb8 8204 0fb7 9662 2eb7 4161 3538
00000320: af20 53b7 b4ad 8a36 77b4 ce37 13e4 92b7
00000330: 628e ce35 131e 1bb7 bcf0 6b36 7fb1 31b7
00000340: 3f5b 2bb6 a183 90b8 b3d4 a2b6 ae17 44b8
00000350: ed52 2538 dae8 29b8 c86e ceb7 a765 62b6
00000360: 6b8d 5937 a174 bdb7 48e5 02b7 4029 d6b7
00000370: 7021 efb7 4476 1e37 f1f1 a1b7 9574 87b7
00000380: 096f 59b6 6248 9db7 150e c136 9383 fab7
00000390: e380 a4b7 26fc afb7 d3df 06b8 79fd c3b6
000003a0: 17ab 13b8 83f7 09b7 9d1b 88b7 ed08 b537
000003b0: a87d c2b7 f83d d5b6 7f19 b9b7 ff7d 57b8
000003c0: d20d a037 dfe3 b6b7 36af 8637 4c64 14b8
000003d0: a850 2938 5829 bab6 2020 4a37 fd6a 3036
000003e0: aa5f fa37 dcfd d6b7 94f8 4a36 3f7d eb37
000003f0: 662a 7337 31f5 7e37 8648 6db6 8425 7cb8

exp_avg_sq f4 [64, 64]
9.969385e-08 1.322141e-06 9.2892964e-07 8.721526e-09 6.2033195e-07 4.6684812e-07 5.4397436e-08 9.4765505e-07
7.9229636e-08 2.51061e-08 1.0075029e-06 3.0216864e-07 2.2217493e-07 1.8586871e-07 4.953833e-08 8.630024e-07
1.1042457e-07 1.4016615e-06 2.161708e-06 1.0126153e-06 5.406588e-07 1.3693776e-06 1.6365241e-06 8.179983e-07
2.769257e-07 1.8741643e-07 2.5138077e-06 1.2035204e-06 4.649052e-07 1.1983892e-06 2.9539021e-06 1.0930154e-08
6.2385164e-10 3.0727843e-08 2.1231622e-07 5.4037696e-07 7.3742555e-08 1.706163e-07 1.0048476e-06 4.87401e-07
8.785683e-07 1.6940955e-08 1.8664267e-06 4.669763e-07 5.313961e-08 7.7259216e-08 1.6199479e-07 1.713168e-06
1.040146e-06 1.8144088e-06 1.3470477e-06 1.6381371e-07 6.05007e-07 3.2233206e-08 1.1941106e-07 4.4639256e-10
9.151287e-07 7.463696e-08 4.163871e-08 2.874776e-06 3.4347977e-07 1.6957288e-06 5.8030945e-08 7.931001e-07
9.883256e-08 7.3125534e-07 4.3660225e-07 1.8252422e-08 4.6656433e-07 1.6090208e-07 5.5842264e-08 5.528468e-07
2.0694294e-07 6.433867e-08 5.070675e-07 9.0650985e-08 5.7540838e-08 6.11182e-08 4.2225885e-08 4.0994757e-07
6.4018344e-08 5.2924037e-07 6.561943e-07 2.7591585e-07 4.3441983e-07 4.5950233e-07 5.1408153e-07 3.707255e-07
1.202478e-07 1.322104e-07 7.9529303e-07 5.673108e-07 3.9138888e-07 4.820321e-07 9.852643e-07 5.9277586e-08
1.6988539e-08 5.264263e-08 8.8730694e-08 2.2220881e-07 1.362263e-07 1.183575e-07 3.5837127e-07 1.9922523e-07
3.7675014e-07 5.813104e-08 8.3197244e-07 2.9598158e-07 1.1493534e-07 1.8928709e-07 1.8473695e-07 4.824786e-07
3.0614905e-07 4.5272458e-07 5.030509e-07 6.174665e-08 3.2987276e-07 6.093339e-08 1.0423887e-07 3.1576935e-08
6.4951655e-07 1.4780846e-07 9.197395e-08 1.2036367e-06 2.7010964e-07 5.915648e-07 1.1998539e-07 3.2761224e-07
1.4438774e-09 1.25151605e-08 6.6615455e-09 8.2921053e-10 6.7577317e-09 3.318393e-09 7.3613027e-10 9.880273e-09
3.9526005e-09 1.0638392e-09 8.851986e-09 2.4285658e-09 1.1466765e-09 1.1432001e-09 1.2555895e-09 9.841036e-09
1.2344561e-09 1.0195126e-08 1.1370242e-08 5.252204e-09 3.4719394e-09 8.406795e-09 9.451238e-09 6.8496946e-09
2.522731e-09 4.275606e-09 1.3145997e-08 1.1678766e-08 4.926006e-09 9.044367e-09 2.1639618e-08 1.7390027e-09
3.9426398e-10 1.6365506e-09 1.6109658e-09 3.6280585e-09 3.1460736e-09 2.3176308e-09 5.2701834e-09 3.519702e-09
7.7716535e-09 1.8214987e-09 1.4005608e-08 5.2695985e-09 2.3492757e-09 2.884122e-09 3.2178964e-09 9.151888e-09
5.7463643e-09 1.11392e-08 1.11994005e-08 2.3152533e-09 5.61063e-09 1.7616025e-09 1.9229922e-09 7.6861983e-10
8.428074e-09 3.0687703e-09 2.0234374e-09 2.3211884e-08 2.2320885e-09 1.1726716e-08 2.3966973e-09 6.592693e-09
6.9714607e-09 5.241342e-08 3.0011407e-08 3.2737792e-09 3.001945e-08 1.2814315e-08 3.697506e-09 4.296751e-08
1.9133617e-08 4.2067168e-09 3.9415337e-08 1.0025317e-08 5.5221507e-09 4.698413e-09 5.1909397e-09 3.925171e-08
5.0206137e-09 4.6593343e-08 4.822907e-08 2.3151077e-08 1.5046254e-08 3.621116e-08 3.881254e-08 2.7619574e-08
8.210003e-09 1.8734415e-08 5.6728613e-08 4.9053746e-08 2.226938e-08 4.057432e-08 9.1979544e-08 5.4990754e-09
1.0082135e-09 6.910943e-09 7.4087776e-09 1.6121382e-08 1.4410266e-08 1.07930775e-08 2.1469468e-08 1.5610661e-08
3.4546172e-08 7.251057e-09 5.9384263e-08 2.054584e-08 7.178948e-09 1.4482556e-08 1.5140088e-08 3.9756593e-08
2.4991772e-08 4.644621e-08 4.287057e-08 7.54635e-09 2.4496135e-08 7.743267e-09 8.689292e-09 5.57726e-10
3.8573152e-08 9.312986e-09 8.801797e-09 9.7317155e-08 9.541784e-09 5.104877e-08 8.018038e-09 2.5798625e-08
00000000: 4617 d633 6b74 b135 8f5b 7935 add5 1532
00000010: e384 2635 1ea3 fa34 9da2 6933 5c62 7e35
00000020: f424 aa33 e6a8 d732 8939 8735 be39 a234
00000030: fb8e 6e34 3493 4734 f8c3 5433 13a9 6735
00000040: 8d22 ed33 b920 bc35 dc11 1136 32e9 8735
00000050: ca21 1135 75cb b735 8aa6 db35 6a94 5b35
00000060: 61ac 9434 a33c 4934 e3b2 2836 a588 a135
00000070: 1698 f934 57d8 a035 a73b 4636 53c7 3b32
00000080: a87b 2b30 9ff9 0333 0af9 6334 6c0e 1135
00000090: 665c 9e33 a732 3734 4dde 8635 f1d5 0235
000000a0: c1d6 6b35 8e85 9132 ef81 fa35 bcb4 fa34
000000b0: 9e3b 6433 b4e9 a533 caf0 2d34 01f0 e535
000000c0: 259b 8b35 9d86 f335 35cc b435 c5e4 2f34
000000d0: c467 2235 c970 0a33 7637 0034 2b68 f52f
000000e0: 2aa7 7535 1a48 a033 3fd6 3233 47ec 4036
000000f0: 8067 b834 cc98 e335 b33d 7933 6de5 5435
00000100: c63d d433 7c4b 4435 2866 ea34 80c9 9c32
00000110: 1d7c fa34 6dc4 2c34 38d7 6f33 5867 1435
00000120: 0b34 5e34 8f2a 8a33 6a1d 0835 e8ab c233
00000130: d222 7733 1640 8333 da5b 3533 c416 dc34
00000140: 757a 8933 1f11 0e35 5425 3035 9621 9434
00000150: 353a e934 85b1 f634 6aff 0935 2008 c734
00000160: 771d 0134 b8f5 0d34 1f7c 5535 4d49 1835
00000170: 1420 d234 fe64 0135 6c3d 8435 6598 7e33
00000180: 31ee 9132 2f19 6233 378c be33 4b98 6e34
00000190: 9a45 1234 b92b fe33 2c66 c034 9dea 5534
000001a0: 2544 ca34 c1ab 7933 b654 5f35 66e7 9e34
000001b0: 5fd2 f633 d73e 4b34 1b5c 4634 ad83 0135
000001c0: ce5c a434 fe0d f334 6509 0735 9499 8433
000001d0: 5e19 b134 7cda 8233 edd9 df33 359f 0733
000001e0: 705a 2e35 48b5 1e34 3783 c533 a48c a135
000001f0: 9603 9134 06cc 1e35 55d5 0034 afe2 af34
00000200: eb71 c630 4202 5732 93e3 e431 81ee 6330
00000210: a331 e831 c909 6431 9058 4a30 e6bd 2932
00000220: 71cf 8731 8436 9230 7213 1832 c8e3 2631
00000230: 1899 9d30 c71e 9d30 2191 ac30 5611 2932
00000240: 90a9 a930 a326 2f32 da56 4332 e076 b431
00000250: 0197 6e31 7a6d 1032 fc5e 2232 8d5a eb31
00000260: 5a5c 2d31 a1e8 9231 b5d8 6132 c2a3 4832
00000270: 9b41 a931 8c61 1b32 06e2 b932 b801 ef30
00000280: b9bf d82f 01ed e030 d268 dd30 7b51 7931
00000290: 5032 5831 3144 1f31 0615 b531 41df 7131
000002a0: 1884 0532 4a58 fa30 519d 7032 e10f b531
000002b0: e570 2131 0332 4631 d521 5d31 6e3a 1d32
000002c0: 8e71 c531 b85e 3f32 7c67 4032 5e1a 1f31
000002d0: a0c7 c031 e11c f230 a325 0431 d046 5330
000002e0: 10cb 1032 61e2 5231 b00c 0b31 7963 c732
000002f0: 5163 1931 a476 4932 25b3 2431 f185 e231
00000300: 9e89 ef31 2a1d 6133 e4e5 0033 eff8 6031
00000310: bcee 0033 f425 5c32 3717 7e31 478b 3833
00000320: 455b a432 ac8a 9031 9f49 2933 cf3b 2c32
00000330: 5abd bd31 ae6f a131 fd5b b231 b695 2833
00000340: c981 ac31 ec1d 4833 6c24 4f33 c2dd c632
00000350: 103f 8132 9786 1b33 d7b2 2633 1640 ed32
00000360: fa0b 0d32 6aed a032 c5a5 7333 2aaf 5233
00000370: e24a bf32 f043 2e33 4a86 c533 61f2 bc31
00000380: 5c91 8a30 4c75 ed31 4c90 fe31 4b7b 8a32
00000390: 0591 7732 756c 3932 dc6b b832 3518 8632
000003a0: eb5f 1433 f924 f931 b00d 7f33 c87c b032
000003b0: b2aa f631 f4ce 7832 680d 8232 d6c0 2a33
000003c0: 7dad d632 267c 4733 b120 3833 33a5 0132
000003d0: 926b d232 4007 0532 e947 1532 7a4e 1930
000003e0: a1ab 2533 f2fe 1f32 b636 1732 acfc d033
000003f0: 36ed 2332 b740 5b33 b4bf 0932 c79b dd32
